…
std of individual evaluation time: 0.471
mean throughput: 0.088
Population evaluation time:  83.661
visualizing stats
Using SeeNN to draw candidate 13
$$$$$$$$$$$$$$$$$$$$$$$$$$$$$$$$$$$$$$$$$$$$$$$$$ core_model_output Tensor("model_1/densedec_task_00_term_00/Softmax:0", shape=(?, 339), dtype=float32)
__________________________________________________________________________________________________
Layer (type)                    Output Shape         Param #     Connected to                     
==================================================================================================
input_1 (InputLayer)            (None, 100)          0                                            
__________________________________________________________________________________________________
embedding_1 (Embedding)         (None, 100, 88)      13200000    input_1[0][0]                    
__________________________________________________________________________________________________
model_1 (Model)                 (None, 339)          194995      embedding_1[0][0]                
__________________________________________________________________________________________________
lambda_1 (Lambda)               (None, 12)           0           model_1[1][0]                    
__________________________________________________________________________________________________
lambda_2 (Lambda)               (None, 220)          0           model_1[1][0]                    
__________________________________________________________________________________________________
lambda_3 (Lambda)               (None, 107)          0           model_1[1][0]                    
__________________________________________________________________________________________________
activation_1 (Activation)       (None, 12)           0           lambda_1[0][0]                   
__________________________________________________________________________________________________
activation_2 (Activation)       (None, 220)          0           lambda_2[0][0]                   
__________________________________________________________________________________________________
activation_3 (Activation)       (None, 107)          0           lambda_3[0][0]                   
==================================================================================================
Total params: 13,394,995
Trainable params: 13,394,995
Non-trainable params: 0
__________________________________________________________________________________________________
TRAINING MODEL SUMMARY ...  None
__________________________________________________________________________________________________
Layer (type)                    Output Shape         Param #     Connected to                     
==================================================================================================
input_1 (InputLayer)            (None, 100)          0                                            
__________________________________________________________________________________________________
embedding_1 (Embedding)         (None, 100, 88)      13200000    input_1[0][0]                    
__________________________________________________________________________________________________
model_1 (Model)                 (None, 339)          194995      embedding_1[0][0]                
__________________________________________________________________________________________________
lambda_1 (Lambda)               (None, 12)           0           model_1[1][0]                    
__________________________________________________________________________________________________
lambda_2 (Lambda)               (None, 220)          0           model_1[1][0]                    
__________________________________________________________________________________________________
lambda_3 (Lambda)               (None, 107)          0           model_1[1][0]                    
__________________________________________________________________________________________________
activation_1 (Activation)       (None, 12)           0           lambda_1[0][0]                   
__________________________________________________________________________________________________
activation_2 (Activation)       (None, 220)          0           lambda_2[0][0]                   
__________________________________________________________________________________________________
activation_3 (Activation)       (None, 107)          0           lambda_3[0][0]                   
==================================================================================================
Total params: 13,394,995
Trainable params: 13,394,995
Non-trainable params: 0
__________________________________________________________________________________________________
$$$$$$$$$$$$$$$$$$$$$$$$$$$$$$$$$$$$$$$$$$$$$$$$$ training_model None
Using SeeNNBlueprint to draw candidate 13
…
