…
std of individual evaluation time: 9.174
mean throughput: 0.543
Population evaluation time:  66.665
visualizing stats
Using SeeNN to draw candidate 21
$$$$$$$$$$$$$$$$$$$$$$$$$$$$$$$$$$$$$$$$$$$$$$$$$ core_model_output Tensor("model_1/densedec_task_00_term_00/Softmax:0", shape=(?, 339), dtype=float32)
__________________________________________________________________________________________________
Layer (type)                    Output Shape         Param #     Connected to                     
==================================================================================================
input_1 (InputLayer)            (None, 100)          0                                            
__________________________________________________________________________________________________
embedding_1 (Embedding)         (None, 100, 74)      11100000    input_1[0][0]                    
__________________________________________________________________________________________________
model_1 (Model)                 (None, 339)          156405      embedding_1[0][0]                
__________________________________________________________________________________________________
lambda_1 (Lambda)               (None, 12)           0           model_1[1][0]                    
__________________________________________________________________________________________________
lambda_2 (Lambda)               (None, 220)          0           model_1[1][0]                    
__________________________________________________________________________________________________
lambda_3 (Lambda)               (None, 107)          0           model_1[1][0]                    
__________________________________________________________________________________________________
activation_1 (Activation)       (None, 12)           0           lambda_1[0][0]                   
__________________________________________________________________________________________________
activation_2 (Activation)       (None, 220)          0           lambda_2[0][0]                   
__________________________________________________________________________________________________
activation_3 (Activation)       (None, 107)          0           lambda_3[0][0]                   
==================================================================================================
Total params: 11,256,405
Trainable params: 11,256,405
Non-trainable params: 0
__________________________________________________________________________________________________
TRAINING MODEL SUMMARY ...  None
__________________________________________________________________________________________________
Layer (type)                    Output Shape         Param #     Connected to                     
==================================================================================================
input_1 (InputLayer)            (None, 100)          0                                            
__________________________________________________________________________________________________
embedding_1 (Embedding)         (None, 100, 74)      11100000    input_1[0][0]                    
__________________________________________________________________________________________________
model_1 (Model)                 (None, 339)          156405      embedding_1[0][0]                
__________________________________________________________________________________________________
lambda_1 (Lambda)               (None, 12)           0           model_1[1][0]                    
__________________________________________________________________________________________________
lambda_2 (Lambda)               (None, 220)          0           model_1[1][0]                    
__________________________________________________________________________________________________
lambda_3 (Lambda)               (None, 107)          0           model_1[1][0]                    
__________________________________________________________________________________________________
activation_1 (Activation)       (None, 12)           0           lambda_1[0][0]                   
__________________________________________________________________________________________________
activation_2 (Activation)       (None, 220)          0           lambda_2[0][0]                   
__________________________________________________________________________________________________
activation_3 (Activation)       (None, 107)          0           lambda_3[0][0]                   
==================================================================================================
Total params: 11,256,405
Trainable params: 11,256,405
Non-trainable params: 0
__________________________________________________________________________________________________
$$$$$$$$$$$$$$$$$$$$$$$$$$$$$$$$$$$$$$$$$$$$$$$$$ training_model None
Using SeeNNBlueprint to draw candidate 21
…
std of individual evaluation time: 7.787
mean throughput: 0.519
Population evaluation time:  66.222
visualizing stats
Using SeeNN to draw candidate 26
$$$$$$$$$$$$$$$$$$$$$$$$$$$$$$$$$$$$$$$$$$$$$$$$$ core_model_output Tensor("model_1_3/densedec_task_00_term_00/Softmax:0", shape=(?, 339), dtype=float32)
__________________________________________________________________________________________________
Layer (type)                    Output Shape         Param #     Connected to                     
==================================================================================================
input_4 (InputLayer)            (None, 100)          0                                            
__________________________________________________________________________________________________
embedding_4 (Embedding)         (None, 100, 97)      14550000    input_4[0][0]                    
__________________________________________________________________________________________________
model_1 (Model)                 (None, 339)          207143      embedding_4[0][0]                
__________________________________________________________________________________________________
lambda_10 (Lambda)              (None, 12)           0           model_1[1][0]                    
__________________________________________________________________________________________________
lambda_11 (Lambda)              (None, 220)          0           model_1[1][0]                    
__________________________________________________________________________________________________
lambda_12 (Lambda)              (None, 107)          0           model_1[1][0]                    
__________________________________________________________________________________________________
activation_10 (Activation)      (None, 12)           0           lambda_10[0][0]                  
__________________________________________________________________________________________________
activation_11 (Activation)      (None, 220)          0           lambda_11[0][0]                  
__________________________________________________________________________________________________
activation_12 (Activation)      (None, 107)          0           lambda_12[0][0]                  
==================================================================================================
Total params: 14,757,143
Trainable params: 14,757,143
Non-trainable params: 0
__________________________________________________________________________________________________
TRAINING MODEL SUMMARY ...  None
__________________________________________________________________________________________________
Layer (type)                    Output Shape         Param #     Connected to                     
==================================================================================================
input_4 (InputLayer)            (None, 100)          0                                            
__________________________________________________________________________________________________
embedding_4 (Embedding)         (None, 100, 97)      14550000    input_4[0][0]                    
__________________________________________________________________________________________________
model_1 (Model)                 (None, 339)          207143      embedding_4[0][0]                
__________________________________________________________________________________________________
lambda_10 (Lambda)              (None, 12)           0           model_1[1][0]                    
__________________________________________________________________________________________________
lambda_11 (Lambda)              (None, 220)          0           model_1[1][0]                    
__________________________________________________________________________________________________
lambda_12 (Lambda)              (None, 107)          0           model_1[1][0]                    
__________________________________________________________________________________________________
activation_10 (Activation)      (None, 12)           0           lambda_10[0][0]                  
__________________________________________________________________________________________________
activation_11 (Activation)      (None, 220)          0           lambda_11[0][0]                  
__________________________________________________________________________________________________
activation_12 (Activation)      (None, 107)          0           lambda_12[0][0]                  
==================================================================================================
Total params: 14,757,143
Trainable params: 14,757,143
Non-trainable params: 0
__________________________________________________________________________________________________
$$$$$$$$$$$$$$$$$$$$$$$$$$$$$$$$$$$$$$$$$$$$$$$$$ training_model None
Using SeeNNBlueprint to draw candidate 26
…
std of individual evaluation time: 4.94
mean throughput: 0.473
Population evaluation time:  67.695
visualizing stats
Using SeeNN to draw candidate 36
$$$$$$$$$$$$$$$$$$$$$$$$$$$$$$$$$$$$$$$$$$$$$$$$$ core_model_output Tensor("model_1_9/densedec_task_00_term_00/Softmax:0", shape=(?, 339), dtype=float32)
__________________________________________________________________________________________________
Layer (type)                    Output Shape         Param #     Connected to                     
==================================================================================================
input_10 (InputLayer)           (None, 100)          0                                            
__________________________________________________________________________________________________
embedding_10 (Embedding)        (None, 100, 90)      13500000    input_10[0][0]                   
__________________________________________________________________________________________________
model_1 (Model)                 (None, 339)          191589      embedding_10[0][0]               
__________________________________________________________________________________________________
lambda_28 (Lambda)              (None, 12)           0           model_1[1][0]                    
__________________________________________________________________________________________________
lambda_29 (Lambda)              (None, 220)          0           model_1[1][0]                    
__________________________________________________________________________________________________
lambda_30 (Lambda)              (None, 107)          0           model_1[1][0]                    
__________________________________________________________________________________________________
activation_28 (Activation)      (None, 12)           0           lambda_28[0][0]                  
__________________________________________________________________________________________________
activation_29 (Activation)      (None, 220)          0           lambda_29[0][0]                  
__________________________________________________________________________________________________
activation_30 (Activation)      (None, 107)          0           lambda_30[0][0]                  
==================================================================================================
Total params: 13,691,589
Trainable params: 13,691,589
Non-trainable params: 0
__________________________________________________________________________________________________
TRAINING MODEL SUMMARY ...  None
__________________________________________________________________________________________________
Layer (type)                    Output Shape         Param #     Connected to                     
==================================================================================================
input_10 (InputLayer)           (None, 100)          0                                            
__________________________________________________________________________________________________
embedding_10 (Embedding)        (None, 100, 90)      13500000    input_10[0][0]                   
__________________________________________________________________________________________________
model_1 (Model)                 (None, 339)          191589      embedding_10[0][0]               
__________________________________________________________________________________________________
lambda_28 (Lambda)              (None, 12)           0           model_1[1][0]                    
__________________________________________________________________________________________________
lambda_29 (Lambda)              (None, 220)          0           model_1[1][0]                    
__________________________________________________________________________________________________
lambda_30 (Lambda)              (None, 107)          0           model_1[1][0]                    
__________________________________________________________________________________________________
activation_28 (Activation)      (None, 12)           0           lambda_28[0][0]                  
__________________________________________________________________________________________________
activation_29 (Activation)      (None, 220)          0           lambda_29[0][0]                  
__________________________________________________________________________________________________
activation_30 (Activation)      (None, 107)          0           lambda_30[0][0]                  
==================================================================================================
Total params: 13,691,589
Trainable params: 13,691,589
Non-trainable params: 0
__________________________________________________________________________________________________
$$$$$$$$$$$$$$$$$$$$$$$$$$$$$$$$$$$$$$$$$$$$$$$$$ training_model None
Using SeeNNBlueprint to draw candidate 36
…
std of individual evaluation time: 5.314
mean throughput: 0.634
Population evaluation time:  67.239
visualizing stats
Using SeeNN to draw candidate 56
$$$$$$$$$$$$$$$$$$$$$$$$$$$$$$$$$$$$$$$$$$$$$$$$$ core_model_output Tensor("model_1_21/densedec_task_00_term_00/Softmax:0", shape=(?, 339), dtype=float32)
__________________________________________________________________________________________________
Layer (type)                    Output Shape         Param #     Connected to                     
==================================================================================================
input_22 (InputLayer)           (None, 100)          0                                            
__________________________________________________________________________________________________
embedding_22 (Embedding)        (None, 100, 97)      14550000    input_22[0][0]                   
__________________________________________________________________________________________________
model_1 (Model)                 (None, 339)          216649      embedding_22[0][0]               
__________________________________________________________________________________________________
lambda_64 (Lambda)              (None, 12)           0           model_1[1][0]                    
__________________________________________________________________________________________________
lambda_65 (Lambda)              (None, 220)          0           model_1[1][0]                    
__________________________________________________________________________________________________
lambda_66 (Lambda)              (None, 107)          0           model_1[1][0]                    
__________________________________________________________________________________________________
activation_64 (Activation)      (None, 12)           0           lambda_64[0][0]                  
__________________________________________________________________________________________________
activation_65 (Activation)      (None, 220)          0           lambda_65[0][0]                  
__________________________________________________________________________________________________
activation_66 (Activation)      (None, 107)          0           lambda_66[0][0]                  
==================================================================================================
Total params: 14,766,649
Trainable params: 14,766,649
Non-trainable params: 0
__________________________________________________________________________________________________
TRAINING MODEL SUMMARY ...  None
__________________________________________________________________________________________________
Layer (type)                    Output Shape         Param #     Connected to                     
==================================================================================================
input_22 (InputLayer)           (None, 100)          0                                            
__________________________________________________________________________________________________
embedding_22 (Embedding)        (None, 100, 97)      14550000    input_22[0][0]                   
__________________________________________________________________________________________________
model_1 (Model)                 (None, 339)          216649      embedding_22[0][0]               
__________________________________________________________________________________________________
lambda_64 (Lambda)              (None, 12)           0           model_1[1][0]                    
__________________________________________________________________________________________________
lambda_65 (Lambda)              (None, 220)          0           model_1[1][0]                    
__________________________________________________________________________________________________
lambda_66 (Lambda)              (None, 107)          0           model_1[1][0]                    
__________________________________________________________________________________________________
activation_64 (Activation)      (None, 12)           0           lambda_64[0][0]                  
__________________________________________________________________________________________________
activation_65 (Activation)      (None, 220)          0           lambda_65[0][0]                  
__________________________________________________________________________________________________
activation_66 (Activation)      (None, 107)          0           lambda_66[0][0]                  
==================================================================================================
Total params: 14,766,649
Trainable params: 14,766,649
Non-trainable params: 0
__________________________________________________________________________________________________
$$$$$$$$$$$$$$$$$$$$$$$$$$$$$$$$$$$$$$$$$$$$$$$$$ training_model None
Using SeeNNBlueprint to draw candidate 56
…
std of individual evaluation time: 2.098
mean throughput: 0.638
Population evaluation time:  67.355
visualizing stats
Using SeeNN to draw candidate 66
$$$$$$$$$$$$$$$$$$$$$$$$$$$$$$$$$$$$$$$$$$$$$$$$$ core_model_output Tensor("model_1_27/densedec_task_00_term_00/Softmax:0", shape=(?, 339), dtype=float32)
__________________________________________________________________________________________________
Layer (type)                    Output Shape         Param #     Connected to                     
==================================================================================================
input_28 (InputLayer)           (None, 100)          0                                            
__________________________________________________________________________________________________
embedding_28 (Embedding)        (None, 100, 97)      14550000    input_28[0][0]                   
__________________________________________________________________________________________________
model_1 (Model)                 (None, 339)          226155      embedding_28[0][0]               
__________________________________________________________________________________________________
lambda_82 (Lambda)              (None, 12)           0           model_1[1][0]                    
__________________________________________________________________________________________________
lambda_83 (Lambda)              (None, 220)          0           model_1[1][0]                    
__________________________________________________________________________________________________
lambda_84 (Lambda)              (None, 107)          0           model_1[1][0]                    
__________________________________________________________________________________________________
activation_82 (Activation)      (None, 12)           0           lambda_82[0][0]                  
__________________________________________________________________________________________________
activation_83 (Activation)      (None, 220)          0           lambda_83[0][0]                  
__________________________________________________________________________________________________
activation_84 (Activation)      (None, 107)          0           lambda_84[0][0]                  
==================================================================================================
Total params: 14,776,155
Trainable params: 14,776,155
Non-trainable params: 0
__________________________________________________________________________________________________
TRAINING MODEL SUMMARY ...  None
__________________________________________________________________________________________________
Layer (type)                    Output Shape         Param #     Connected to                     
==================================================================================================
input_28 (InputLayer)           (None, 100)          0                                            
__________________________________________________________________________________________________
embedding_28 (Embedding)        (None, 100, 97)      14550000    input_28[0][0]                   
__________________________________________________________________________________________________
model_1 (Model)                 (None, 339)          226155      embedding_28[0][0]               
__________________________________________________________________________________________________
lambda_82 (Lambda)              (None, 12)           0           model_1[1][0]                    
__________________________________________________________________________________________________
lambda_83 (Lambda)              (None, 220)          0           model_1[1][0]                    
__________________________________________________________________________________________________
lambda_84 (Lambda)              (None, 107)          0           model_1[1][0]                    
__________________________________________________________________________________________________
activation_82 (Activation)      (None, 12)           0           lambda_82[0][0]                  
__________________________________________________________________________________________________
activation_83 (Activation)      (None, 220)          0           lambda_83[0][0]                  
__________________________________________________________________________________________________
activation_84 (Activation)      (None, 107)          0           lambda_84[0][0]                  
==================================================================================================
Total params: 14,776,155
Trainable params: 14,776,155
Non-trainable params: 0
__________________________________________________________________________________________________
$$$$$$$$$$$$$$$$$$$$$$$$$$$$$$$$$$$$$$$$$$$$$$$$$ training_model None
Using SeeNNBlueprint to draw candidate 66
…
