…
std of individual evaluation time: 0.5
mean throughput: 0.088
Population evaluation time:  62.409
visualizing stats
Using SeeNN to draw candidate 9
$$$$$$$$$$$$$$$$$$$$$$$$$$$$$$$$$$$$$$$$$$$$$$$$$ core_model_output Tensor("model_1/densedec_task_00_term_00/Softmax:0", shape=(?, 339), dtype=float32)
__________________________________________________________________________________________________
Layer (type)                    Output Shape         Param #     Connected to                     
==================================================================================================
input_1 (InputLayer)            (None, 100)          0                                            
__________________________________________________________________________________________________
embedding_1 (Embedding)         (None, 100, 168)     25200000    input_1[0][0]                    
__________________________________________________________________________________________________
model_1 (Model)                 (None, 339)          342051      embedding_1[0][0]                
__________________________________________________________________________________________________
lambda_1 (Lambda)               (None, 12)           0           model_1[1][0]                    
__________________________________________________________________________________________________
lambda_2 (Lambda)               (None, 220)          0           model_1[1][0]                    
__________________________________________________________________________________________________
lambda_3 (Lambda)               (None, 107)          0           model_1[1][0]                    
__________________________________________________________________________________________________
activation_1 (Activation)       (None, 12)           0           lambda_1[0][0]                   
__________________________________________________________________________________________________
activation_2 (Activation)       (None, 220)          0           lambda_2[0][0]                   
__________________________________________________________________________________________________
activation_3 (Activation)       (None, 107)          0           lambda_3[0][0]                   
==================================================================================================
Total params: 25,542,051
Trainable params: 25,542,051
Non-trainable params: 0
__________________________________________________________________________________________________
TRAINING MODEL SUMMARY ...  None
__________________________________________________________________________________________________
Layer (type)                    Output Shape         Param #     Connected to                     
==================================================================================================
input_1 (InputLayer)            (None, 100)          0                                            
__________________________________________________________________________________________________
embedding_1 (Embedding)         (None, 100, 168)     25200000    input_1[0][0]                    
__________________________________________________________________________________________________
model_1 (Model)                 (None, 339)          342051      embedding_1[0][0]                
__________________________________________________________________________________________________
lambda_1 (Lambda)               (None, 12)           0           model_1[1][0]                    
__________________________________________________________________________________________________
lambda_2 (Lambda)               (None, 220)          0           model_1[1][0]                    
__________________________________________________________________________________________________
lambda_3 (Lambda)               (None, 107)          0           model_1[1][0]                    
__________________________________________________________________________________________________
activation_1 (Activation)       (None, 12)           0           lambda_1[0][0]                   
__________________________________________________________________________________________________
activation_2 (Activation)       (None, 220)          0           lambda_2[0][0]                   
__________________________________________________________________________________________________
activation_3 (Activation)       (None, 107)          0           lambda_3[0][0]                   
==================================================================================================
Total params: 25,542,051
Trainable params: 25,542,051
Non-trainable params: 0
__________________________________________________________________________________________________
$$$$$$$$$$$$$$$$$$$$$$$$$$$$$$$$$$$$$$$$$$$$$$$$$ training_model None
Using SeeNNBlueprint to draw candidate 9
…
std of individual evaluation time: 0.0
mean throughput: 0.073
Population evaluation time:  82.546
visualizing stats
Using SeeNN to draw candidate 11
$$$$$$$$$$$$$$$$$$$$$$$$$$$$$$$$$$$$$$$$$$$$$$$$$ core_model_output Tensor("model_1_3/densedec_task_00_term_00/Softmax:0", shape=(?, 339), dtype=float32)
__________________________________________________________________________________________________
Layer (type)                    Output Shape         Param #     Connected to                     
==================================================================================================
input_4 (InputLayer)            (None, 100)          0                                            
__________________________________________________________________________________________________
embedding_4 (Embedding)         (None, 100, 95)      14250000    input_4[0][0]                    
__________________________________________________________________________________________________
model_1 (Model)                 (None, 339)          202689      embedding_4[0][0]                
__________________________________________________________________________________________________
lambda_10 (Lambda)              (None, 12)           0           model_1[1][0]                    
__________________________________________________________________________________________________
lambda_11 (Lambda)              (None, 220)          0           model_1[1][0]                    
__________________________________________________________________________________________________
lambda_12 (Lambda)              (None, 107)          0           model_1[1][0]                    
__________________________________________________________________________________________________
activation_10 (Activation)      (None, 12)           0           lambda_10[0][0]                  
__________________________________________________________________________________________________
activation_11 (Activation)      (None, 220)          0           lambda_11[0][0]                  
__________________________________________________________________________________________________
activation_12 (Activation)      (None, 107)          0           lambda_12[0][0]                  
==================================================================================================
Total params: 14,452,689
Trainable params: 14,452,689
Non-trainable params: 0
__________________________________________________________________________________________________
TRAINING MODEL SUMMARY ...  None
__________________________________________________________________________________________________
Layer (type)                    Output Shape         Param #     Connected to                     
==================================================================================================
input_4 (InputLayer)            (None, 100)          0                                            
__________________________________________________________________________________________________
embedding_4 (Embedding)         (None, 100, 95)      14250000    input_4[0][0]                    
__________________________________________________________________________________________________
model_1 (Model)                 (None, 339)          202689      embedding_4[0][0]                
__________________________________________________________________________________________________
lambda_10 (Lambda)              (None, 12)           0           model_1[1][0]                    
__________________________________________________________________________________________________
lambda_11 (Lambda)              (None, 220)          0           model_1[1][0]                    
__________________________________________________________________________________________________
lambda_12 (Lambda)              (None, 107)          0           model_1[1][0]                    
__________________________________________________________________________________________________
activation_10 (Activation)      (None, 12)           0           lambda_10[0][0]                  
__________________________________________________________________________________________________
activation_11 (Activation)      (None, 220)          0           lambda_11[0][0]                  
__________________________________________________________________________________________________
activation_12 (Activation)      (None, 107)          0           lambda_12[0][0]                  
==================================================================================================
Total params: 14,452,689
Trainable params: 14,452,689
Non-trainable params: 0
__________________________________________________________________________________________________
$$$$$$$$$$$$$$$$$$$$$$$$$$$$$$$$$$$$$$$$$$$$$$$$$ training_model None
Using SeeNNBlueprint to draw candidate 11
…
