…
std of individual evaluation time: 2.812
mean throughput: 0.033
Population evaluation time:  325.044
visualizing stats
Using SeeNN to draw candidate 51
$$$$$$$$$$$$$$$$$$$$$$$$$$$$$$$$$$$$$$$$$$$$$$$$$ core_model_output Tensor("model_1/densedec_task_00_term_00/Softmax:0", shape=(?, 339), dtype=float32)
__________________________________________________________________________________________________
Layer (type)                    Output Shape         Param #     Connected to                     
==================================================================================================
input_1 (InputLayer)            (None, 100)          0                                            
__________________________________________________________________________________________________
embedding_1 (Embedding)         (None, 100, 71)      10650000    input_1[0][0]                    
__________________________________________________________________________________________________
model_1 (Model)                 (None, 339)          149865      embedding_1[0][0]                
__________________________________________________________________________________________________
lambda_1 (Lambda)               (None, 12)           0           model_1[1][0]                    
__________________________________________________________________________________________________
lambda_2 (Lambda)               (None, 220)          0           model_1[1][0]                    
__________________________________________________________________________________________________
lambda_3 (Lambda)               (None, 107)          0           model_1[1][0]                    
__________________________________________________________________________________________________
activation_1 (Activation)       (None, 12)           0           lambda_1[0][0]                   
__________________________________________________________________________________________________
activation_2 (Activation)       (None, 220)          0           lambda_2[0][0]                   
__________________________________________________________________________________________________
activation_3 (Activation)       (None, 107)          0           lambda_3[0][0]                   
==================================================================================================
Total params: 10,799,865
Trainable params: 10,799,865
Non-trainable params: 0
__________________________________________________________________________________________________
TRAINING MODEL SUMMARY ...  None
__________________________________________________________________________________________________
Layer (type)                    Output Shape         Param #     Connected to                     
==================================================================================================
input_1 (InputLayer)            (None, 100)          0                                            
__________________________________________________________________________________________________
embedding_1 (Embedding)         (None, 100, 71)      10650000    input_1[0][0]                    
__________________________________________________________________________________________________
model_1 (Model)                 (None, 339)          149865      embedding_1[0][0]                
__________________________________________________________________________________________________
lambda_1 (Lambda)               (None, 12)           0           model_1[1][0]                    
__________________________________________________________________________________________________
lambda_2 (Lambda)               (None, 220)          0           model_1[1][0]                    
__________________________________________________________________________________________________
lambda_3 (Lambda)               (None, 107)          0           model_1[1][0]                    
__________________________________________________________________________________________________
activation_1 (Activation)       (None, 12)           0           lambda_1[0][0]                   
__________________________________________________________________________________________________
activation_2 (Activation)       (None, 220)          0           lambda_2[0][0]                   
__________________________________________________________________________________________________
activation_3 (Activation)       (None, 107)          0           lambda_3[0][0]                   
==================================================================================================
Total params: 10,799,865
Trainable params: 10,799,865
Non-trainable params: 0
__________________________________________________________________________________________________
$$$$$$$$$$$$$$$$$$$$$$$$$$$$$$$$$$$$$$$$$$$$$$$$$ training_model None
Using SeeNNBlueprint to draw candidate 51
…
std of individual evaluation time: 2.343
mean throughput: 0.031
Population evaluation time:  323.959
visualizing stats
Using SeeNN to draw candidate 71
$$$$$$$$$$$$$$$$$$$$$$$$$$$$$$$$$$$$$$$$$$$$$$$$$ core_model_output Tensor("model_1_3/densedec_task_00_term_00/Softmax:0", shape=(?, 339), dtype=float32)
__________________________________________________________________________________________________
Layer (type)                    Output Shape         Param #     Connected to                     
==================================================================================================
input_4 (InputLayer)            (None, 100)          0                                            
__________________________________________________________________________________________________
embedding_4 (Embedding)         (None, 100, 89)      13350000    input_4[0][0]                    
__________________________________________________________________________________________________
model_1 (Model)                 (None, 339)          189375      embedding_4[0][0]                
__________________________________________________________________________________________________
lambda_10 (Lambda)              (None, 12)           0           model_1[1][0]                    
__________________________________________________________________________________________________
lambda_11 (Lambda)              (None, 220)          0           model_1[1][0]                    
__________________________________________________________________________________________________
lambda_12 (Lambda)              (None, 107)          0           model_1[1][0]                    
__________________________________________________________________________________________________
activation_10 (Activation)      (None, 12)           0           lambda_10[0][0]                  
__________________________________________________________________________________________________
activation_11 (Activation)      (None, 220)          0           lambda_11[0][0]                  
__________________________________________________________________________________________________
activation_12 (Activation)      (None, 107)          0           lambda_12[0][0]                  
==================================================================================================
Total params: 13,539,375
Trainable params: 13,539,375
Non-trainable params: 0
__________________________________________________________________________________________________
TRAINING MODEL SUMMARY ...  None
__________________________________________________________________________________________________
Layer (type)                    Output Shape         Param #     Connected to                     
==================================================================================================
input_4 (InputLayer)            (None, 100)          0                                            
__________________________________________________________________________________________________
embedding_4 (Embedding)         (None, 100, 89)      13350000    input_4[0][0]                    
__________________________________________________________________________________________________
model_1 (Model)                 (None, 339)          189375      embedding_4[0][0]                
__________________________________________________________________________________________________
lambda_10 (Lambda)              (None, 12)           0           model_1[1][0]                    
__________________________________________________________________________________________________
lambda_11 (Lambda)              (None, 220)          0           model_1[1][0]                    
__________________________________________________________________________________________________
lambda_12 (Lambda)              (None, 107)          0           model_1[1][0]                    
__________________________________________________________________________________________________
activation_10 (Activation)      (None, 12)           0           lambda_10[0][0]                  
__________________________________________________________________________________________________
activation_11 (Activation)      (None, 220)          0           lambda_11[0][0]                  
__________________________________________________________________________________________________
activation_12 (Activation)      (None, 107)          0           lambda_12[0][0]                  
==================================================================================================
Total params: 13,539,375
Trainable params: 13,539,375
Non-trainable params: 0
__________________________________________________________________________________________________
$$$$$$$$$$$$$$$$$$$$$$$$$$$$$$$$$$$$$$$$$$$$$$$$$ training_model None
Using SeeNNBlueprint to draw candidate 71
…
std of individual evaluation time: 1.682
mean throughput: 0.031
Population evaluation time:  326.135
visualizing stats
Using SeeNN to draw candidate 91
$$$$$$$$$$$$$$$$$$$$$$$$$$$$$$$$$$$$$$$$$$$$$$$$$ core_model_output Tensor("model_1_6/densedec_task_00_term_00/Softmax:0", shape=(?, 339), dtype=float32)
__________________________________________________________________________________________________
Layer (type)                    Output Shape         Param #     Connected to                     
==================================================================================================
input_7 (InputLayer)            (None, 100)          0                                            
__________________________________________________________________________________________________
embedding_7 (Embedding)         (None, 100, 116)     17400000    input_7[0][0]                    
__________________________________________________________________________________________________
model_1 (Model)                 (None, 339)          236283      embedding_7[0][0]                
__________________________________________________________________________________________________
lambda_19 (Lambda)              (None, 12)           0           model_1[1][0]                    
__________________________________________________________________________________________________
lambda_20 (Lambda)              (None, 220)          0           model_1[1][0]                    
__________________________________________________________________________________________________
lambda_21 (Lambda)              (None, 107)          0           model_1[1][0]                    
__________________________________________________________________________________________________
activation_19 (Activation)      (None, 12)           0           lambda_19[0][0]                  
__________________________________________________________________________________________________
activation_20 (Activation)      (None, 220)          0           lambda_20[0][0]                  
__________________________________________________________________________________________________
activation_21 (Activation)      (None, 107)          0           lambda_21[0][0]                  
==================================================================================================
Total params: 17,636,283
Trainable params: 17,636,283
Non-trainable params: 0
__________________________________________________________________________________________________
TRAINING MODEL SUMMARY ...  None
__________________________________________________________________________________________________
Layer (type)                    Output Shape         Param #     Connected to                     
==================================================================================================
input_7 (InputLayer)            (None, 100)          0                                            
__________________________________________________________________________________________________
embedding_7 (Embedding)         (None, 100, 116)     17400000    input_7[0][0]                    
__________________________________________________________________________________________________
model_1 (Model)                 (None, 339)          236283      embedding_7[0][0]                
__________________________________________________________________________________________________
lambda_19 (Lambda)              (None, 12)           0           model_1[1][0]                    
__________________________________________________________________________________________________
lambda_20 (Lambda)              (None, 220)          0           model_1[1][0]                    
__________________________________________________________________________________________________
lambda_21 (Lambda)              (None, 107)          0           model_1[1][0]                    
__________________________________________________________________________________________________
activation_19 (Activation)      (None, 12)           0           lambda_19[0][0]                  
__________________________________________________________________________________________________
activation_20 (Activation)      (None, 220)          0           lambda_20[0][0]                  
__________________________________________________________________________________________________
activation_21 (Activation)      (None, 107)          0           lambda_21[0][0]                  
==================================================================================================
Total params: 17,636,283
Trainable params: 17,636,283
Non-trainable params: 0
__________________________________________________________________________________________________
$$$$$$$$$$$$$$$$$$$$$$$$$$$$$$$$$$$$$$$$$$$$$$$$$ training_model None
Using SeeNNBlueprint to draw candidate 91
…
std of individual evaluation time: 2.04
mean throughput: 0.035
Population evaluation time:  324.561
visualizing stats
Using SeeNN to draw candidate 111
$$$$$$$$$$$$$$$$$$$$$$$$$$$$$$$$$$$$$$$$$$$$$$$$$ core_model_output Tensor("model_1_9/densedec_task_00_term_00/Softmax:0", shape=(?, 339), dtype=float32)
__________________________________________________________________________________________________
Layer (type)                    Output Shape         Param #     Connected to                     
==================================================================================================
input_10 (InputLayer)           (None, 100)          0                                            
__________________________________________________________________________________________________
embedding_10 (Embedding)        (None, 100, 66)      9900000     input_10[0][0]                   
__________________________________________________________________________________________________
model_1 (Model)                 (None, 339)          143427      embedding_10[0][0]               
__________________________________________________________________________________________________
lambda_28 (Lambda)              (None, 12)           0           model_1[1][0]                    
__________________________________________________________________________________________________
lambda_29 (Lambda)              (None, 220)          0           model_1[1][0]                    
__________________________________________________________________________________________________
lambda_30 (Lambda)              (None, 107)          0           model_1[1][0]                    
__________________________________________________________________________________________________
activation_28 (Activation)      (None, 12)           0           lambda_28[0][0]                  
__________________________________________________________________________________________________
activation_29 (Activation)      (None, 220)          0           lambda_29[0][0]                  
__________________________________________________________________________________________________
activation_30 (Activation)      (None, 107)          0           lambda_30[0][0]                  
==================================================================================================
Total params: 10,043,427
Trainable params: 10,043,427
Non-trainable params: 0
__________________________________________________________________________________________________
TRAINING MODEL SUMMARY ...  None
__________________________________________________________________________________________________
Layer (type)                    Output Shape         Param #     Connected to                     
==================================================================================================
input_10 (InputLayer)           (None, 100)          0                                            
__________________________________________________________________________________________________
embedding_10 (Embedding)        (None, 100, 66)      9900000     input_10[0][0]                   
__________________________________________________________________________________________________
model_1 (Model)                 (None, 339)          143427      embedding_10[0][0]               
__________________________________________________________________________________________________
lambda_28 (Lambda)              (None, 12)           0           model_1[1][0]                    
__________________________________________________________________________________________________
lambda_29 (Lambda)              (None, 220)          0           model_1[1][0]                    
__________________________________________________________________________________________________
lambda_30 (Lambda)              (None, 107)          0           model_1[1][0]                    
__________________________________________________________________________________________________
activation_28 (Activation)      (None, 12)           0           lambda_28[0][0]                  
__________________________________________________________________________________________________
activation_29 (Activation)      (None, 220)          0           lambda_29[0][0]                  
__________________________________________________________________________________________________
activation_30 (Activation)      (None, 107)          0           lambda_30[0][0]                  
==================================================================================================
Total params: 10,043,427
Trainable params: 10,043,427
Non-trainable params: 0
__________________________________________________________________________________________________
$$$$$$$$$$$$$$$$$$$$$$$$$$$$$$$$$$$$$$$$$$$$$$$$$ training_model None
Using SeeNNBlueprint to draw candidate 111
…
std of individual evaluation time: 2.168
mean throughput: 0.034
Population evaluation time:  326.376
visualizing stats
Using SeeNN to draw candidate 131
$$$$$$$$$$$$$$$$$$$$$$$$$$$$$$$$$$$$$$$$$$$$$$$$$ core_model_output Tensor("model_1_12/densedec_task_00_term_00/Softmax:0", shape=(?, 339), dtype=float32)
__________________________________________________________________________________________________
Layer (type)                    Output Shape         Param #     Connected to                     
==================================================================================================
input_13 (InputLayer)           (None, 100)          0                                            
__________________________________________________________________________________________________
embedding_13 (Embedding)        (None, 100, 104)     15600000    input_13[0][0]                   
__________________________________________________________________________________________________
model_1 (Model)                 (None, 339)          222795      embedding_13[0][0]               
__________________________________________________________________________________________________
lambda_37 (Lambda)              (None, 12)           0           model_1[1][0]                    
__________________________________________________________________________________________________
lambda_38 (Lambda)              (None, 220)          0           model_1[1][0]                    
__________________________________________________________________________________________________
lambda_39 (Lambda)              (None, 107)          0           model_1[1][0]                    
__________________________________________________________________________________________________
activation_37 (Activation)      (None, 12)           0           lambda_37[0][0]                  
__________________________________________________________________________________________________
activation_38 (Activation)      (None, 220)          0           lambda_38[0][0]                  
__________________________________________________________________________________________________
activation_39 (Activation)      (None, 107)          0           lambda_39[0][0]                  
==================================================================================================
Total params: 15,822,795
Trainable params: 15,822,795
Non-trainable params: 0
__________________________________________________________________________________________________
TRAINING MODEL SUMMARY ...  None
__________________________________________________________________________________________________
Layer (type)                    Output Shape         Param #     Connected to                     
==================================================================================================
input_13 (InputLayer)           (None, 100)          0                                            
__________________________________________________________________________________________________
embedding_13 (Embedding)        (None, 100, 104)     15600000    input_13[0][0]                   
__________________________________________________________________________________________________
model_1 (Model)                 (None, 339)          222795      embedding_13[0][0]               
__________________________________________________________________________________________________
lambda_37 (Lambda)              (None, 12)           0           model_1[1][0]                    
__________________________________________________________________________________________________
lambda_38 (Lambda)              (None, 220)          0           model_1[1][0]                    
__________________________________________________________________________________________________
lambda_39 (Lambda)              (None, 107)          0           model_1[1][0]                    
__________________________________________________________________________________________________
activation_37 (Activation)      (None, 12)           0           lambda_37[0][0]                  
__________________________________________________________________________________________________
activation_38 (Activation)      (None, 220)          0           lambda_38[0][0]                  
__________________________________________________________________________________________________
activation_39 (Activation)      (None, 107)          0           lambda_39[0][0]                  
==================================================================================================
Total params: 15,822,795
Trainable params: 15,822,795
Non-trainable params: 0
__________________________________________________________________________________________________
$$$$$$$$$$$$$$$$$$$$$$$$$$$$$$$$$$$$$$$$$$$$$$$$$ training_model None
Using SeeNNBlueprint to draw candidate 131
…
std of individual evaluation time: 18.031
mean throughput: 0.036
Population evaluation time:  507.217
visualizing stats
Using SeeNN to draw candidate 151
$$$$$$$$$$$$$$$$$$$$$$$$$$$$$$$$$$$$$$$$$$$$$$$$$ core_model_output Tensor("model_1_15/densedec_task_00_term_00/Softmax:0", shape=(?, 339), dtype=float32)
__________________________________________________________________________________________________
Layer (type)                    Output Shape         Param #     Connected to                     
==================================================================================================
input_16 (InputLayer)           (None, 100)          0                                            
__________________________________________________________________________________________________
embedding_16 (Embedding)        (None, 100, 134)     20100000    input_16[0][0]                   
__________________________________________________________________________________________________
model_1 (Model)                 (None, 339)          309075      embedding_16[0][0]               
__________________________________________________________________________________________________
lambda_46 (Lambda)              (None, 12)           0           model_1[1][0]                    
__________________________________________________________________________________________________
lambda_47 (Lambda)              (None, 220)          0           model_1[1][0]                    
__________________________________________________________________________________________________
lambda_48 (Lambda)              (None, 107)          0           model_1[1][0]                    
__________________________________________________________________________________________________
activation_46 (Activation)      (None, 12)           0           lambda_46[0][0]                  
__________________________________________________________________________________________________
activation_47 (Activation)      (None, 220)          0           lambda_47[0][0]                  
__________________________________________________________________________________________________
activation_48 (Activation)      (None, 107)          0           lambda_48[0][0]                  
==================================================================================================
Total params: 20,409,075
Trainable params: 20,409,075
Non-trainable params: 0
__________________________________________________________________________________________________
TRAINING MODEL SUMMARY ...  None
__________________________________________________________________________________________________
Layer (type)                    Output Shape         Param #     Connected to                     
==================================================================================================
input_16 (InputLayer)           (None, 100)          0                                            
__________________________________________________________________________________________________
embedding_16 (Embedding)        (None, 100, 134)     20100000    input_16[0][0]                   
__________________________________________________________________________________________________
model_1 (Model)                 (None, 339)          309075      embedding_16[0][0]               
__________________________________________________________________________________________________
lambda_46 (Lambda)              (None, 12)           0           model_1[1][0]                    
__________________________________________________________________________________________________
lambda_47 (Lambda)              (None, 220)          0           model_1[1][0]                    
__________________________________________________________________________________________________
lambda_48 (Lambda)              (None, 107)          0           model_1[1][0]                    
__________________________________________________________________________________________________
activation_46 (Activation)      (None, 12)           0           lambda_46[0][0]                  
__________________________________________________________________________________________________
activation_47 (Activation)      (None, 220)          0           lambda_47[0][0]                  
__________________________________________________________________________________________________
activation_48 (Activation)      (None, 107)          0           lambda_48[0][0]                  
==================================================================================================
Total params: 20,409,075
Trainable params: 20,409,075
Non-trainable params: 0
__________________________________________________________________________________________________
$$$$$$$$$$$$$$$$$$$$$$$$$$$$$$$$$$$$$$$$$$$$$$$$$ training_model None
Using SeeNNBlueprint to draw candidate 151
…
std of individual evaluation time: 27.941
mean throughput: 0.041
Population evaluation time:  630.621
visualizing stats
Using SeeNN to draw candidate 171
$$$$$$$$$$$$$$$$$$$$$$$$$$$$$$$$$$$$$$$$$$$$$$$$$ core_model_output Tensor("model_1_18/densedec_task_00_term_00/Softmax:0", shape=(?, 339), dtype=float32)
__________________________________________________________________________________________________
Layer (type)                    Output Shape         Param #     Connected to                     
==================================================================================================
input_19 (InputLayer)           (None, 100)          0                                            
__________________________________________________________________________________________________
embedding_19 (Embedding)        (None, 100, 127)     19050000    input_19[0][0]                   
__________________________________________________________________________________________________
model_1 (Model)                 (None, 339)          441457      embedding_19[0][0]               
__________________________________________________________________________________________________
lambda_55 (Lambda)              (None, 12)           0           model_1[1][0]                    
__________________________________________________________________________________________________
lambda_56 (Lambda)              (None, 220)          0           model_1[1][0]                    
__________________________________________________________________________________________________
lambda_57 (Lambda)              (None, 107)          0           model_1[1][0]                    
__________________________________________________________________________________________________
activation_55 (Activation)      (None, 12)           0           lambda_55[0][0]                  
__________________________________________________________________________________________________
activation_56 (Activation)      (None, 220)          0           lambda_56[0][0]                  
__________________________________________________________________________________________________
activation_57 (Activation)      (None, 107)          0           lambda_57[0][0]                  
==================================================================================================
Total params: 19,491,457
Trainable params: 19,491,457
Non-trainable params: 0
__________________________________________________________________________________________________
TRAINING MODEL SUMMARY ...  None
__________________________________________________________________________________________________
Layer (type)                    Output Shape         Param #     Connected to                     
==================================================================================================
input_19 (InputLayer)           (None, 100)          0                                            
__________________________________________________________________________________________________
embedding_19 (Embedding)        (None, 100, 127)     19050000    input_19[0][0]                   
__________________________________________________________________________________________________
model_1 (Model)                 (None, 339)          441457      embedding_19[0][0]               
__________________________________________________________________________________________________
lambda_55 (Lambda)              (None, 12)           0           model_1[1][0]                    
__________________________________________________________________________________________________
lambda_56 (Lambda)              (None, 220)          0           model_1[1][0]                    
__________________________________________________________________________________________________
lambda_57 (Lambda)              (None, 107)          0           model_1[1][0]                    
__________________________________________________________________________________________________
activation_55 (Activation)      (None, 12)           0           lambda_55[0][0]                  
__________________________________________________________________________________________________
activation_56 (Activation)      (None, 220)          0           lambda_56[0][0]                  
__________________________________________________________________________________________________
activation_57 (Activation)      (None, 107)          0           lambda_57[0][0]                  
==================================================================================================
Total params: 19,491,457
Trainable params: 19,491,457
Non-trainable params: 0
__________________________________________________________________________________________________
$$$$$$$$$$$$$$$$$$$$$$$$$$$$$$$$$$$$$$$$$$$$$$$$$ training_model None
Using SeeNNBlueprint to draw candidate 171
…
std of individual evaluation time: 41.863
mean throughput: 0.043
Population evaluation time:  1121.155
visualizing stats
Using SeeNN to draw candidate 191
$$$$$$$$$$$$$$$$$$$$$$$$$$$$$$$$$$$$$$$$$$$$$$$$$ core_model_output Tensor("model_1_21/densedec_task_00_term_00/Softmax:0", shape=(?, 339), dtype=float32)
__________________________________________________________________________________________________
Layer (type)                    Output Shape         Param #     Connected to                     
==================================================================================================
input_22 (InputLayer)           (None, 100)          0                                            
__________________________________________________________________________________________________
embedding_22 (Embedding)        (None, 100, 127)     19050000    input_22[0][0]                   
__________________________________________________________________________________________________
model_1 (Model)                 (None, 339)          291169      embedding_22[0][0]               
__________________________________________________________________________________________________
lambda_64 (Lambda)              (None, 12)           0           model_1[1][0]                    
__________________________________________________________________________________________________
lambda_65 (Lambda)              (None, 220)          0           model_1[1][0]                    
__________________________________________________________________________________________________
lambda_66 (Lambda)              (None, 107)          0           model_1[1][0]                    
__________________________________________________________________________________________________
activation_64 (Activation)      (None, 12)           0           lambda_64[0][0]                  
__________________________________________________________________________________________________
activation_65 (Activation)      (None, 220)          0           lambda_65[0][0]                  
__________________________________________________________________________________________________
activation_66 (Activation)      (None, 107)          0           lambda_66[0][0]                  
==================================================================================================
Total params: 19,341,169
Trainable params: 19,341,169
Non-trainable params: 0
__________________________________________________________________________________________________
TRAINING MODEL SUMMARY ...  None
__________________________________________________________________________________________________
Layer (type)                    Output Shape         Param #     Connected to                     
==================================================================================================
input_22 (InputLayer)           (None, 100)          0                                            
__________________________________________________________________________________________________
embedding_22 (Embedding)        (None, 100, 127)     19050000    input_22[0][0]                   
__________________________________________________________________________________________________
model_1 (Model)                 (None, 339)          291169      embedding_22[0][0]               
__________________________________________________________________________________________________
lambda_64 (Lambda)              (None, 12)           0           model_1[1][0]                    
__________________________________________________________________________________________________
lambda_65 (Lambda)              (None, 220)          0           model_1[1][0]                    
__________________________________________________________________________________________________
lambda_66 (Lambda)              (None, 107)          0           model_1[1][0]                    
__________________________________________________________________________________________________
activation_64 (Activation)      (None, 12)           0           lambda_64[0][0]                  
__________________________________________________________________________________________________
activation_65 (Activation)      (None, 220)          0           lambda_65[0][0]                  
__________________________________________________________________________________________________
activation_66 (Activation)      (None, 107)          0           lambda_66[0][0]                  
==================================================================================================
Total params: 19,341,169
Trainable params: 19,341,169
Non-trainable params: 0
__________________________________________________________________________________________________
$$$$$$$$$$$$$$$$$$$$$$$$$$$$$$$$$$$$$$$$$$$$$$$$$ training_model None
Using SeeNNBlueprint to draw candidate 191
…
std of individual evaluation time: 41.17
mean throughput: 0.043
Population evaluation time:  694.878
visualizing stats
Using SeeNN to draw candidate 211
$$$$$$$$$$$$$$$$$$$$$$$$$$$$$$$$$$$$$$$$$$$$$$$$$ core_model_output Tensor("model_1_24/densedec_task_00_term_00/Softmax:0", shape=(?, 339), dtype=float32)
__________________________________________________________________________________________________
Layer (type)                    Output Shape         Param #     Connected to                     
==================================================================================================
input_25 (InputLayer)           (None, 100)          0                                            
__________________________________________________________________________________________________
embedding_25 (Embedding)        (None, 100, 99)      14850000    input_25[0][0]                   
__________________________________________________________________________________________________
model_1 (Model)                 (None, 339)          221505      embedding_25[0][0]               
__________________________________________________________________________________________________
lambda_73 (Lambda)              (None, 12)           0           model_1[1][0]                    
__________________________________________________________________________________________________
lambda_74 (Lambda)              (None, 220)          0           model_1[1][0]                    
__________________________________________________________________________________________________
lambda_75 (Lambda)              (None, 107)          0           model_1[1][0]                    
__________________________________________________________________________________________________
activation_73 (Activation)      (None, 12)           0           lambda_73[0][0]                  
__________________________________________________________________________________________________
activation_74 (Activation)      (None, 220)          0           lambda_74[0][0]                  
__________________________________________________________________________________________________
activation_75 (Activation)      (None, 107)          0           lambda_75[0][0]                  
==================================================================================================
Total params: 15,071,505
Trainable params: 15,071,505
Non-trainable params: 0
__________________________________________________________________________________________________
TRAINING MODEL SUMMARY ...  None
__________________________________________________________________________________________________
Layer (type)                    Output Shape         Param #     Connected to                     
==================================================================================================
input_25 (InputLayer)           (None, 100)          0                                            
__________________________________________________________________________________________________
embedding_25 (Embedding)        (None, 100, 99)      14850000    input_25[0][0]                   
__________________________________________________________________________________________________
model_1 (Model)                 (None, 339)          221505      embedding_25[0][0]               
__________________________________________________________________________________________________
lambda_73 (Lambda)              (None, 12)           0           model_1[1][0]                    
__________________________________________________________________________________________________
lambda_74 (Lambda)              (None, 220)          0           model_1[1][0]                    
__________________________________________________________________________________________________
lambda_75 (Lambda)              (None, 107)          0           model_1[1][0]                    
__________________________________________________________________________________________________
activation_73 (Activation)      (None, 12)           0           lambda_73[0][0]                  
__________________________________________________________________________________________________
activation_74 (Activation)      (None, 220)          0           lambda_74[0][0]                  
__________________________________________________________________________________________________
activation_75 (Activation)      (None, 107)          0           lambda_75[0][0]                  
==================================================================================================
Total params: 15,071,505
Trainable params: 15,071,505
Non-trainable params: 0
__________________________________________________________________________________________________
$$$$$$$$$$$$$$$$$$$$$$$$$$$$$$$$$$$$$$$$$$$$$$$$$ training_model None
Using SeeNNBlueprint to draw candidate 211
…
std of individual evaluation time: 24.697
mean throughput: 0.037
Population evaluation time:  508.013
visualizing stats
Using SeeNN to draw candidate 231
$$$$$$$$$$$$$$$$$$$$$$$$$$$$$$$$$$$$$$$$$$$$$$$$$ core_model_output Tensor("model_1_27/densedec_task_00_term_00/Softmax:0", shape=(?, 339), dtype=float32)
__________________________________________________________________________________________________
Layer (type)                    Output Shape         Param #     Connected to                     
==================================================================================================
input_28 (InputLayer)           (None, 100)          0                                            
__________________________________________________________________________________________________
embedding_28 (Embedding)        (None, 100, 104)     15600000    input_28[0][0]                   
__________________________________________________________________________________________________
model_1 (Model)                 (None, 339)          233715      embedding_28[0][0]               
__________________________________________________________________________________________________
lambda_82 (Lambda)              (None, 12)           0           model_1[1][0]                    
__________________________________________________________________________________________________
lambda_83 (Lambda)              (None, 220)          0           model_1[1][0]                    
__________________________________________________________________________________________________
lambda_84 (Lambda)              (None, 107)          0           model_1[1][0]                    
__________________________________________________________________________________________________
activation_82 (Activation)      (None, 12)           0           lambda_82[0][0]                  
__________________________________________________________________________________________________
activation_83 (Activation)      (None, 220)          0           lambda_83[0][0]                  
__________________________________________________________________________________________________
activation_84 (Activation)      (None, 107)          0           lambda_84[0][0]                  
==================================================================================================
Total params: 15,833,715
Trainable params: 15,833,715
Non-trainable params: 0
__________________________________________________________________________________________________
TRAINING MODEL SUMMARY ...  None
__________________________________________________________________________________________________
Layer (type)                    Output Shape         Param #     Connected to                     
==================================================================================================
input_28 (InputLayer)           (None, 100)          0                                            
__________________________________________________________________________________________________
embedding_28 (Embedding)        (None, 100, 104)     15600000    input_28[0][0]                   
__________________________________________________________________________________________________
model_1 (Model)                 (None, 339)          233715      embedding_28[0][0]               
__________________________________________________________________________________________________
lambda_82 (Lambda)              (None, 12)           0           model_1[1][0]                    
__________________________________________________________________________________________________
lambda_83 (Lambda)              (None, 220)          0           model_1[1][0]                    
__________________________________________________________________________________________________
lambda_84 (Lambda)              (None, 107)          0           model_1[1][0]                    
__________________________________________________________________________________________________
activation_82 (Activation)      (None, 12)           0           lambda_82[0][0]                  
__________________________________________________________________________________________________
activation_83 (Activation)      (None, 220)          0           lambda_83[0][0]                  
__________________________________________________________________________________________________
activation_84 (Activation)      (None, 107)          0           lambda_84[0][0]                  
==================================================================================================
Total params: 15,833,715
Trainable params: 15,833,715
Non-trainable params: 0
__________________________________________________________________________________________________
$$$$$$$$$$$$$$$$$$$$$$$$$$$$$$$$$$$$$$$$$$$$$$$$$ training_model None
Using SeeNNBlueprint to draw candidate 231
…
std of individual evaluation time: 8.994
mean throughput: 0.035
Population evaluation time:  449.468
visualizing stats
Using SeeNN to draw candidate 251
$$$$$$$$$$$$$$$$$$$$$$$$$$$$$$$$$$$$$$$$$$$$$$$$$ core_model_output Tensor("model_1_30/densedec_task_00_term_00/Softmax:0", shape=(?, 339), dtype=float32)
__________________________________________________________________________________________________
Layer (type)                    Output Shape         Param #     Connected to                     
==================================================================================================
input_31 (InputLayer)           (None, 100)          0                                            
__________________________________________________________________________________________________
embedding_31 (Embedding)        (None, 100, 87)      13050000    input_31[0][0]                   
__________________________________________________________________________________________________
model_1 (Model)                 (None, 339)          207921      embedding_31[0][0]               
__________________________________________________________________________________________________
lambda_91 (Lambda)              (None, 12)           0           model_1[1][0]                    
__________________________________________________________________________________________________
lambda_92 (Lambda)              (None, 220)          0           model_1[1][0]                    
__________________________________________________________________________________________________
lambda_93 (Lambda)              (None, 107)          0           model_1[1][0]                    
__________________________________________________________________________________________________
activation_91 (Activation)      (None, 12)           0           lambda_91[0][0]                  
__________________________________________________________________________________________________
activation_92 (Activation)      (None, 220)          0           lambda_92[0][0]                  
__________________________________________________________________________________________________
activation_93 (Activation)      (None, 107)          0           lambda_93[0][0]                  
==================================================================================================
Total params: 13,257,921
Trainable params: 13,257,921
Non-trainable params: 0
__________________________________________________________________________________________________
TRAINING MODEL SUMMARY ...  None
__________________________________________________________________________________________________
Layer (type)                    Output Shape         Param #     Connected to                     
==================================================================================================
input_31 (InputLayer)           (None, 100)          0                                            
__________________________________________________________________________________________________
embedding_31 (Embedding)        (None, 100, 87)      13050000    input_31[0][0]                   
__________________________________________________________________________________________________
model_1 (Model)                 (None, 339)          207921      embedding_31[0][0]               
__________________________________________________________________________________________________
lambda_91 (Lambda)              (None, 12)           0           model_1[1][0]                    
__________________________________________________________________________________________________
lambda_92 (Lambda)              (None, 220)          0           model_1[1][0]                    
__________________________________________________________________________________________________
lambda_93 (Lambda)              (None, 107)          0           model_1[1][0]                    
__________________________________________________________________________________________________
activation_91 (Activation)      (None, 12)           0           lambda_91[0][0]                  
__________________________________________________________________________________________________
activation_92 (Activation)      (None, 220)          0           lambda_92[0][0]                  
__________________________________________________________________________________________________
activation_93 (Activation)      (None, 107)          0           lambda_93[0][0]                  
==================================================================================================
Total params: 13,257,921
Trainable params: 13,257,921
Non-trainable params: 0
__________________________________________________________________________________________________
$$$$$$$$$$$$$$$$$$$$$$$$$$$$$$$$$$$$$$$$$$$$$$$$$ training_model None
Using SeeNNBlueprint to draw candidate 251
…
std of individual evaluation time: 102.874
mean throughput: 0.047
Population evaluation time:  2093.498
visualizing stats
Using SeeNN to draw candidate 271
$$$$$$$$$$$$$$$$$$$$$$$$$$$$$$$$$$$$$$$$$$$$$$$$$ core_model_output Tensor("model_1_33/densedec_task_00_term_00/Softmax:0", shape=(?, 339), dtype=float32)
__________________________________________________________________________________________________
Layer (type)                    Output Shape         Param #     Connected to                     
==================================================================================================
input_34 (InputLayer)           (None, 100)          0                                            
__________________________________________________________________________________________________
embedding_34 (Embedding)        (None, 100, 87)      13050000    input_34[0][0]                   
__________________________________________________________________________________________________
model_1 (Model)                 (None, 339)          593517      embedding_34[0][0]               
__________________________________________________________________________________________________
lambda_100 (Lambda)             (None, 12)           0           model_1[1][0]                    
__________________________________________________________________________________________________
lambda_101 (Lambda)             (None, 220)          0           model_1[1][0]                    
__________________________________________________________________________________________________
lambda_102 (Lambda)             (None, 107)          0           model_1[1][0]                    
__________________________________________________________________________________________________
activation_100 (Activation)     (None, 12)           0           lambda_100[0][0]                 
__________________________________________________________________________________________________
activation_101 (Activation)     (None, 220)          0           lambda_101[0][0]                 
__________________________________________________________________________________________________
activation_102 (Activation)     (None, 107)          0           lambda_102[0][0]                 
==================================================================================================
Total params: 13,643,517
Trainable params: 13,643,517
Non-trainable params: 0
__________________________________________________________________________________________________
TRAINING MODEL SUMMARY ...  None
__________________________________________________________________________________________________
Layer (type)                    Output Shape         Param #     Connected to                     
==================================================================================================
input_34 (InputLayer)           (None, 100)          0                                            
__________________________________________________________________________________________________
embedding_34 (Embedding)        (None, 100, 87)      13050000    input_34[0][0]                   
__________________________________________________________________________________________________
model_1 (Model)                 (None, 339)          593517      embedding_34[0][0]               
__________________________________________________________________________________________________
lambda_100 (Lambda)             (None, 12)           0           model_1[1][0]                    
__________________________________________________________________________________________________
lambda_101 (Lambda)             (None, 220)          0           model_1[1][0]                    
__________________________________________________________________________________________________
lambda_102 (Lambda)             (None, 107)          0           model_1[1][0]                    
__________________________________________________________________________________________________
activation_100 (Activation)     (None, 12)           0           lambda_100[0][0]                 
__________________________________________________________________________________________________
activation_101 (Activation)     (None, 220)          0           lambda_101[0][0]                 
__________________________________________________________________________________________________
activation_102 (Activation)     (None, 107)          0           lambda_102[0][0]                 
==================================================================================================
Total params: 13,643,517
Trainable params: 13,643,517
Non-trainable params: 0
__________________________________________________________________________________________________
$$$$$$$$$$$$$$$$$$$$$$$$$$$$$$$$$$$$$$$$$$$$$$$$$ training_model None
Using SeeNNBlueprint to draw candidate 271
…
std of individual evaluation time: 31.001
mean throughput: 0.041
Population evaluation time:  693.471
visualizing stats
Using SeeNN to draw candidate 291
$$$$$$$$$$$$$$$$$$$$$$$$$$$$$$$$$$$$$$$$$$$$$$$$$ core_model_output Tensor("model_1_36/densedec_task_00_term_00/Softmax:0", shape=(?, 339), dtype=float32)
__________________________________________________________________________________________________
Layer (type)                    Output Shape         Param #     Connected to                     
==================================================================================================
input_37 (InputLayer)           (None, 100)          0                                            
__________________________________________________________________________________________________
embedding_37 (Embedding)        (None, 100, 122)     18300000    input_37[0][0]                   
__________________________________________________________________________________________________
model_1 (Model)                 (None, 339)          278499      embedding_37[0][0]               
__________________________________________________________________________________________________
lambda_109 (Lambda)             (None, 12)           0           model_1[1][0]                    
__________________________________________________________________________________________________
lambda_110 (Lambda)             (None, 220)          0           model_1[1][0]                    
__________________________________________________________________________________________________
lambda_111 (Lambda)             (None, 107)          0           model_1[1][0]                    
__________________________________________________________________________________________________
activation_109 (Activation)     (None, 12)           0           lambda_109[0][0]                 
__________________________________________________________________________________________________
activation_110 (Activation)     (None, 220)          0           lambda_110[0][0]                 
__________________________________________________________________________________________________
activation_111 (Activation)     (None, 107)          0           lambda_111[0][0]                 
==================================================================================================
Total params: 18,578,499
Trainable params: 18,578,499
Non-trainable params: 0
__________________________________________________________________________________________________
TRAINING MODEL SUMMARY ...  None
__________________________________________________________________________________________________
Layer (type)                    Output Shape         Param #     Connected to                     
==================================================================================================
input_37 (InputLayer)           (None, 100)          0                                            
__________________________________________________________________________________________________
embedding_37 (Embedding)        (None, 100, 122)     18300000    input_37[0][0]                   
__________________________________________________________________________________________________
model_1 (Model)                 (None, 339)          278499      embedding_37[0][0]               
__________________________________________________________________________________________________
lambda_109 (Lambda)             (None, 12)           0           model_1[1][0]                    
__________________________________________________________________________________________________
lambda_110 (Lambda)             (None, 220)          0           model_1[1][0]                    
__________________________________________________________________________________________________
lambda_111 (Lambda)             (None, 107)          0           model_1[1][0]                    
__________________________________________________________________________________________________
activation_109 (Activation)     (None, 12)           0           lambda_109[0][0]                 
__________________________________________________________________________________________________
activation_110 (Activation)     (None, 220)          0           lambda_110[0][0]                 
__________________________________________________________________________________________________
activation_111 (Activation)     (None, 107)          0           lambda_111[0][0]                 
==================================================================================================
Total params: 18,578,499
Trainable params: 18,578,499
Non-trainable params: 0
__________________________________________________________________________________________________
$$$$$$$$$$$$$$$$$$$$$$$$$$$$$$$$$$$$$$$$$$$$$$$$$ training_model None
Using SeeNNBlueprint to draw candidate 291
…
std of individual evaluation time: 23.007
mean throughput: 0.041
Population evaluation time:  755.335
visualizing stats
Using SeeNN to draw candidate 311
$$$$$$$$$$$$$$$$$$$$$$$$$$$$$$$$$$$$$$$$$$$$$$$$$ core_model_output Tensor("model_1_39/densedec_task_00_term_00/Softmax:0", shape=(?, 339), dtype=float32)
__________________________________________________________________________________________________
Layer (type)                    Output Shape         Param #     Connected to                     
==================================================================================================
input_40 (InputLayer)           (None, 100)          0                                            
__________________________________________________________________________________________________
embedding_40 (Embedding)        (None, 100, 130)     19500000    input_40[0][0]                   
__________________________________________________________________________________________________
model_1 (Model)                 (None, 339)          360545      embedding_40[0][0]               
__________________________________________________________________________________________________
lambda_118 (Lambda)             (None, 12)           0           model_1[1][0]                    
__________________________________________________________________________________________________
lambda_119 (Lambda)             (None, 220)          0           model_1[1][0]                    
__________________________________________________________________________________________________
lambda_120 (Lambda)             (None, 107)          0           model_1[1][0]                    
__________________________________________________________________________________________________
activation_118 (Activation)     (None, 12)           0           lambda_118[0][0]                 
__________________________________________________________________________________________________
activation_119 (Activation)     (None, 220)          0           lambda_119[0][0]                 
__________________________________________________________________________________________________
activation_120 (Activation)     (None, 107)          0           lambda_120[0][0]                 
==================================================================================================
Total params: 19,860,545
Trainable params: 19,860,545
Non-trainable params: 0
__________________________________________________________________________________________________
TRAINING MODEL SUMMARY ...  None
__________________________________________________________________________________________________
Layer (type)                    Output Shape         Param #     Connected to                     
==================================================================================================
input_40 (InputLayer)           (None, 100)          0                                            
__________________________________________________________________________________________________
embedding_40 (Embedding)        (None, 100, 130)     19500000    input_40[0][0]                   
__________________________________________________________________________________________________
model_1 (Model)                 (None, 339)          360545      embedding_40[0][0]               
__________________________________________________________________________________________________
lambda_118 (Lambda)             (None, 12)           0           model_1[1][0]                    
__________________________________________________________________________________________________
lambda_119 (Lambda)             (None, 220)          0           model_1[1][0]                    
__________________________________________________________________________________________________
lambda_120 (Lambda)             (None, 107)          0           model_1[1][0]                    
__________________________________________________________________________________________________
activation_118 (Activation)     (None, 12)           0           lambda_118[0][0]                 
__________________________________________________________________________________________________
activation_119 (Activation)     (None, 220)          0           lambda_119[0][0]                 
__________________________________________________________________________________________________
activation_120 (Activation)     (None, 107)          0           lambda_120[0][0]                 
==================================================================================================
Total params: 19,860,545
Trainable params: 19,860,545
Non-trainable params: 0
__________________________________________________________________________________________________
$$$$$$$$$$$$$$$$$$$$$$$$$$$$$$$$$$$$$$$$$$$$$$$$$ training_model None
Using SeeNNBlueprint to draw candidate 311
…
std of individual evaluation time: 41.949
mean throughput: 0.044
Population evaluation time:  1183.485
visualizing stats
Using SeeNN to draw candidate 331
$$$$$$$$$$$$$$$$$$$$$$$$$$$$$$$$$$$$$$$$$$$$$$$$$ core_model_output Tensor("model_1_42/densedec_task_00_term_00/Softmax:0", shape=(?, 339), dtype=float32)
__________________________________________________________________________________________________
Layer (type)                    Output Shape         Param #     Connected to                     
==================================================================================================
input_43 (InputLayer)           (None, 100)          0                                            
__________________________________________________________________________________________________
embedding_43 (Embedding)        (None, 100, 118)     17700000    input_43[0][0]                   
__________________________________________________________________________________________________
model_1 (Model)                 (None, 339)          282477      embedding_43[0][0]               
__________________________________________________________________________________________________
lambda_127 (Lambda)             (None, 12)           0           model_1[1][0]                    
__________________________________________________________________________________________________
lambda_128 (Lambda)             (None, 220)          0           model_1[1][0]                    
__________________________________________________________________________________________________
lambda_129 (Lambda)             (None, 107)          0           model_1[1][0]                    
__________________________________________________________________________________________________
activation_127 (Activation)     (None, 12)           0           lambda_127[0][0]                 
__________________________________________________________________________________________________
activation_128 (Activation)     (None, 220)          0           lambda_128[0][0]                 
__________________________________________________________________________________________________
activation_129 (Activation)     (None, 107)          0           lambda_129[0][0]                 
==================================================================================================
Total params: 17,982,477
Trainable params: 17,982,477
Non-trainable params: 0
__________________________________________________________________________________________________
TRAINING MODEL SUMMARY ...  None
__________________________________________________________________________________________________
Layer (type)                    Output Shape         Param #     Connected to                     
==================================================================================================
input_43 (InputLayer)           (None, 100)          0                                            
__________________________________________________________________________________________________
embedding_43 (Embedding)        (None, 100, 118)     17700000    input_43[0][0]                   
__________________________________________________________________________________________________
model_1 (Model)                 (None, 339)          282477      embedding_43[0][0]               
__________________________________________________________________________________________________
lambda_127 (Lambda)             (None, 12)           0           model_1[1][0]                    
__________________________________________________________________________________________________
lambda_128 (Lambda)             (None, 220)          0           model_1[1][0]                    
__________________________________________________________________________________________________
lambda_129 (Lambda)             (None, 107)          0           model_1[1][0]                    
__________________________________________________________________________________________________
activation_127 (Activation)     (None, 12)           0           lambda_127[0][0]                 
__________________________________________________________________________________________________
activation_128 (Activation)     (None, 220)          0           lambda_128[0][0]                 
__________________________________________________________________________________________________
activation_129 (Activation)     (None, 107)          0           lambda_129[0][0]                 
==================================================================================================
Total params: 17,982,477
Trainable params: 17,982,477
Non-trainable params: 0
__________________________________________________________________________________________________
$$$$$$$$$$$$$$$$$$$$$$$$$$$$$$$$$$$$$$$$$$$$$$$$$ training_model None
Using SeeNNBlueprint to draw candidate 331
…
std of individual evaluation time: 36.718
mean throughput: 0.045
Population evaluation time:  1242.874
visualizing stats
Using SeeNN to draw candidate 351
$$$$$$$$$$$$$$$$$$$$$$$$$$$$$$$$$$$$$$$$$$$$$$$$$ core_model_output Tensor("model_1_45/densedec_task_00_term_00/Softmax:0", shape=(?, 339), dtype=float32)
__________________________________________________________________________________________________
Layer (type)                    Output Shape         Param #     Connected to                     
==================================================================================================
input_46 (InputLayer)           (None, 100)          0                                            
__________________________________________________________________________________________________
embedding_46 (Embedding)        (None, 100, 118)     17700000    input_46[0][0]                   
__________________________________________________________________________________________________
model_1 (Model)                 (None, 339)          568767      embedding_46[0][0]               
__________________________________________________________________________________________________
lambda_136 (Lambda)             (None, 12)           0           model_1[1][0]                    
__________________________________________________________________________________________________
lambda_137 (Lambda)             (None, 220)          0           model_1[1][0]                    
__________________________________________________________________________________________________
lambda_138 (Lambda)             (None, 107)          0           model_1[1][0]                    
__________________________________________________________________________________________________
activation_136 (Activation)     (None, 12)           0           lambda_136[0][0]                 
__________________________________________________________________________________________________
activation_137 (Activation)     (None, 220)          0           lambda_137[0][0]                 
__________________________________________________________________________________________________
activation_138 (Activation)     (None, 107)          0           lambda_138[0][0]                 
==================================================================================================
Total params: 18,268,767
Trainable params: 18,268,767
Non-trainable params: 0
__________________________________________________________________________________________________
TRAINING MODEL SUMMARY ...  None
__________________________________________________________________________________________________
Layer (type)                    Output Shape         Param #     Connected to                     
==================================================================================================
input_46 (InputLayer)           (None, 100)          0                                            
__________________________________________________________________________________________________
embedding_46 (Embedding)        (None, 100, 118)     17700000    input_46[0][0]                   
__________________________________________________________________________________________________
model_1 (Model)                 (None, 339)          568767      embedding_46[0][0]               
__________________________________________________________________________________________________
lambda_136 (Lambda)             (None, 12)           0           model_1[1][0]                    
__________________________________________________________________________________________________
lambda_137 (Lambda)             (None, 220)          0           model_1[1][0]                    
__________________________________________________________________________________________________
lambda_138 (Lambda)             (None, 107)          0           model_1[1][0]                    
__________________________________________________________________________________________________
activation_136 (Activation)     (None, 12)           0           lambda_136[0][0]                 
__________________________________________________________________________________________________
activation_137 (Activation)     (None, 220)          0           lambda_137[0][0]                 
__________________________________________________________________________________________________
activation_138 (Activation)     (None, 107)          0           lambda_138[0][0]                 
==================================================================================================
Total params: 18,268,767
Trainable params: 18,268,767
Non-trainable params: 0
__________________________________________________________________________________________________
$$$$$$$$$$$$$$$$$$$$$$$$$$$$$$$$$$$$$$$$$$$$$$$$$ training_model None
Using SeeNNBlueprint to draw candidate 351
…
std of individual evaluation time: 39.561
mean throughput: 0.046
Population evaluation time:  1610.094
visualizing stats
Using SeeNN to draw candidate 371
$$$$$$$$$$$$$$$$$$$$$$$$$$$$$$$$$$$$$$$$$$$$$$$$$ core_model_output Tensor("model_1_48/densedec_task_00_term_00/Softmax:0", shape=(?, 339), dtype=float32)
__________________________________________________________________________________________________
Layer (type)                    Output Shape         Param #     Connected to                     
==================================================================================================
input_49 (InputLayer)           (None, 100)          0                                            
__________________________________________________________________________________________________
embedding_49 (Embedding)        (None, 100, 141)     21150000    input_49[0][0]                   
__________________________________________________________________________________________________
model_1 (Model)                 (None, 339)          442923      embedding_49[0][0]               
__________________________________________________________________________________________________
lambda_145 (Lambda)             (None, 12)           0           model_1[1][0]                    
__________________________________________________________________________________________________
lambda_146 (Lambda)             (None, 220)          0           model_1[1][0]                    
__________________________________________________________________________________________________
lambda_147 (Lambda)             (None, 107)          0           model_1[1][0]                    
__________________________________________________________________________________________________
activation_145 (Activation)     (None, 12)           0           lambda_145[0][0]                 
__________________________________________________________________________________________________
activation_146 (Activation)     (None, 220)          0           lambda_146[0][0]                 
__________________________________________________________________________________________________
activation_147 (Activation)     (None, 107)          0           lambda_147[0][0]                 
==================================================================================================
Total params: 21,592,923
Trainable params: 21,592,923
Non-trainable params: 0
__________________________________________________________________________________________________
TRAINING MODEL SUMMARY ...  None
__________________________________________________________________________________________________
Layer (type)                    Output Shape         Param #     Connected to                     
==================================================================================================
input_49 (InputLayer)           (None, 100)          0                                            
__________________________________________________________________________________________________
embedding_49 (Embedding)        (None, 100, 141)     21150000    input_49[0][0]                   
__________________________________________________________________________________________________
model_1 (Model)                 (None, 339)          442923      embedding_49[0][0]               
__________________________________________________________________________________________________
lambda_145 (Lambda)             (None, 12)           0           model_1[1][0]                    
__________________________________________________________________________________________________
lambda_146 (Lambda)             (None, 220)          0           model_1[1][0]                    
__________________________________________________________________________________________________
lambda_147 (Lambda)             (None, 107)          0           model_1[1][0]                    
__________________________________________________________________________________________________
activation_145 (Activation)     (None, 12)           0           lambda_145[0][0]                 
__________________________________________________________________________________________________
activation_146 (Activation)     (None, 220)          0           lambda_146[0][0]                 
__________________________________________________________________________________________________
activation_147 (Activation)     (None, 107)          0           lambda_147[0][0]                 
==================================================================================================
Total params: 21,592,923
Trainable params: 21,592,923
Non-trainable params: 0
__________________________________________________________________________________________________
$$$$$$$$$$$$$$$$$$$$$$$$$$$$$$$$$$$$$$$$$$$$$$$$$ training_model None
Using SeeNNBlueprint to draw candidate 371
…
std of individual evaluation time: 42.081
mean throughput: 0.045
Population evaluation time:  1488.591
visualizing stats
Using SeeNN to draw candidate 391
$$$$$$$$$$$$$$$$$$$$$$$$$$$$$$$$$$$$$$$$$$$$$$$$$ core_model_output Tensor("model_1_51/densedec_task_00_term_00/Softmax:0", shape=(?, 339), dtype=float32)
__________________________________________________________________________________________________
Layer (type)                    Output Shape         Param #     Connected to                     
==================================================================================================
input_52 (InputLayer)           (None, 100)          0                                            
__________________________________________________________________________________________________
embedding_52 (Embedding)        (None, 100, 107)     16050000    input_52[0][0]                   
__________________________________________________________________________________________________
model_1 (Model)                 (None, 339)          528705      embedding_52[0][0]               
__________________________________________________________________________________________________
lambda_154 (Lambda)             (None, 12)           0           model_1[1][0]                    
__________________________________________________________________________________________________
lambda_155 (Lambda)             (None, 220)          0           model_1[1][0]                    
__________________________________________________________________________________________________
lambda_156 (Lambda)             (None, 107)          0           model_1[1][0]                    
__________________________________________________________________________________________________
activation_154 (Activation)     (None, 12)           0           lambda_154[0][0]                 
__________________________________________________________________________________________________
activation_155 (Activation)     (None, 220)          0           lambda_155[0][0]                 
__________________________________________________________________________________________________
activation_156 (Activation)     (None, 107)          0           lambda_156[0][0]                 
==================================================================================================
Total params: 16,578,705
Trainable params: 16,578,705
Non-trainable params: 0
__________________________________________________________________________________________________
TRAINING MODEL SUMMARY ...  None
__________________________________________________________________________________________________
Layer (type)                    Output Shape         Param #     Connected to                     
==================================================================================================
input_52 (InputLayer)           (None, 100)          0                                            
__________________________________________________________________________________________________
embedding_52 (Embedding)        (None, 100, 107)     16050000    input_52[0][0]                   
__________________________________________________________________________________________________
model_1 (Model)                 (None, 339)          528705      embedding_52[0][0]               
__________________________________________________________________________________________________
lambda_154 (Lambda)             (None, 12)           0           model_1[1][0]                    
__________________________________________________________________________________________________
lambda_155 (Lambda)             (None, 220)          0           model_1[1][0]                    
__________________________________________________________________________________________________
lambda_156 (Lambda)             (None, 107)          0           model_1[1][0]                    
__________________________________________________________________________________________________
activation_154 (Activation)     (None, 12)           0           lambda_154[0][0]                 
__________________________________________________________________________________________________
activation_155 (Activation)     (None, 220)          0           lambda_155[0][0]                 
__________________________________________________________________________________________________
activation_156 (Activation)     (None, 107)          0           lambda_156[0][0]                 
==================================================================================================
Total params: 16,578,705
Trainable params: 16,578,705
Non-trainable params: 0
__________________________________________________________________________________________________
$$$$$$$$$$$$$$$$$$$$$$$$$$$$$$$$$$$$$$$$$$$$$$$$$ training_model None
Using SeeNNBlueprint to draw candidate 391
…
std of individual evaluation time: 40.42
mean throughput: 0.046
Population evaluation time:  1485.812
visualizing stats
Using SeeNN to draw candidate 411
$$$$$$$$$$$$$$$$$$$$$$$$$$$$$$$$$$$$$$$$$$$$$$$$$ core_model_output Tensor("model_1_54/densedec_task_00_term_00/Softmax:0", shape=(?, 339), dtype=float32)
__________________________________________________________________________________________________
Layer (type)                    Output Shape         Param #     Connected to                     
==================================================================================================
input_55 (InputLayer)           (None, 100)          0                                            
__________________________________________________________________________________________________
embedding_55 (Embedding)        (None, 100, 108)     16200000    input_55[0][0]                   
__________________________________________________________________________________________________
model_1 (Model)                 (None, 339)          605670      embedding_55[0][0]               
__________________________________________________________________________________________________
lambda_163 (Lambda)             (None, 12)           0           model_1[1][0]                    
__________________________________________________________________________________________________
lambda_164 (Lambda)             (None, 220)          0           model_1[1][0]                    
__________________________________________________________________________________________________
lambda_165 (Lambda)             (None, 107)          0           model_1[1][0]                    
__________________________________________________________________________________________________
activation_163 (Activation)     (None, 12)           0           lambda_163[0][0]                 
__________________________________________________________________________________________________
activation_164 (Activation)     (None, 220)          0           lambda_164[0][0]                 
__________________________________________________________________________________________________
activation_165 (Activation)     (None, 107)          0           lambda_165[0][0]                 
==================================================================================================
Total params: 16,805,670
Trainable params: 16,805,670
Non-trainable params: 0
__________________________________________________________________________________________________
TRAINING MODEL SUMMARY ...  None
__________________________________________________________________________________________________
Layer (type)                    Output Shape         Param #     Connected to                     
==================================================================================================
input_55 (InputLayer)           (None, 100)          0                                            
__________________________________________________________________________________________________
embedding_55 (Embedding)        (None, 100, 108)     16200000    input_55[0][0]                   
__________________________________________________________________________________________________
model_1 (Model)                 (None, 339)          605670      embedding_55[0][0]               
__________________________________________________________________________________________________
lambda_163 (Lambda)             (None, 12)           0           model_1[1][0]                    
__________________________________________________________________________________________________
lambda_164 (Lambda)             (None, 220)          0           model_1[1][0]                    
__________________________________________________________________________________________________
lambda_165 (Lambda)             (None, 107)          0           model_1[1][0]                    
__________________________________________________________________________________________________
activation_163 (Activation)     (None, 12)           0           lambda_163[0][0]                 
__________________________________________________________________________________________________
activation_164 (Activation)     (None, 220)          0           lambda_164[0][0]                 
__________________________________________________________________________________________________
activation_165 (Activation)     (None, 107)          0           lambda_165[0][0]                 
==================================================================================================
Total params: 16,805,670
Trainable params: 16,805,670
Non-trainable params: 0
__________________________________________________________________________________________________
$$$$$$$$$$$$$$$$$$$$$$$$$$$$$$$$$$$$$$$$$$$$$$$$$ training_model None
Using SeeNNBlueprint to draw candidate 411
…
std of individual evaluation time: 57.8
mean throughput: 0.047
Population evaluation time:  1979.612
visualizing stats
Using SeeNN to draw candidate 431
$$$$$$$$$$$$$$$$$$$$$$$$$$$$$$$$$$$$$$$$$$$$$$$$$ core_model_output Tensor("model_1_57/densedec_task_00_term_00/Softmax:0", shape=(?, 339), dtype=float32)
__________________________________________________________________________________________________
Layer (type)                    Output Shape         Param #     Connected to                     
==================================================================================================
input_58 (InputLayer)           (None, 100)          0                                            
__________________________________________________________________________________________________
embedding_58 (Embedding)        (None, 100, 119)     17850000    input_58[0][0]                   
__________________________________________________________________________________________________
model_1 (Model)                 (None, 339)          754053      embedding_58[0][0]               
__________________________________________________________________________________________________
lambda_172 (Lambda)             (None, 12)           0           model_1[1][0]                    
__________________________________________________________________________________________________
lambda_173 (Lambda)             (None, 220)          0           model_1[1][0]                    
__________________________________________________________________________________________________
lambda_174 (Lambda)             (None, 107)          0           model_1[1][0]                    
__________________________________________________________________________________________________
activation_172 (Activation)     (None, 12)           0           lambda_172[0][0]                 
__________________________________________________________________________________________________
activation_173 (Activation)     (None, 220)          0           lambda_173[0][0]                 
__________________________________________________________________________________________________
activation_174 (Activation)     (None, 107)          0           lambda_174[0][0]                 
==================================================================================================
Total params: 18,604,053
Trainable params: 18,604,053
Non-trainable params: 0
__________________________________________________________________________________________________
TRAINING MODEL SUMMARY ...  None
__________________________________________________________________________________________________
Layer (type)                    Output Shape         Param #     Connected to                     
==================================================================================================
input_58 (InputLayer)           (None, 100)          0                                            
__________________________________________________________________________________________________
embedding_58 (Embedding)        (None, 100, 119)     17850000    input_58[0][0]                   
__________________________________________________________________________________________________
model_1 (Model)                 (None, 339)          754053      embedding_58[0][0]               
__________________________________________________________________________________________________
lambda_172 (Lambda)             (None, 12)           0           model_1[1][0]                    
__________________________________________________________________________________________________
lambda_173 (Lambda)             (None, 220)          0           model_1[1][0]                    
__________________________________________________________________________________________________
lambda_174 (Lambda)             (None, 107)          0           model_1[1][0]                    
__________________________________________________________________________________________________
activation_172 (Activation)     (None, 12)           0           lambda_172[0][0]                 
__________________________________________________________________________________________________
activation_173 (Activation)     (None, 220)          0           lambda_173[0][0]                 
__________________________________________________________________________________________________
activation_174 (Activation)     (None, 107)          0           lambda_174[0][0]                 
==================================================================================================
Total params: 18,604,053
Trainable params: 18,604,053
Non-trainable params: 0
__________________________________________________________________________________________________
$$$$$$$$$$$$$$$$$$$$$$$$$$$$$$$$$$$$$$$$$$$$$$$$$ training_model None
Using SeeNNBlueprint to draw candidate 431
…
std of individual evaluation time: 46.465
mean throughput: 0.046
Population evaluation time:  2058.24
visualizing stats
Using SeeNN to draw candidate 451
$$$$$$$$$$$$$$$$$$$$$$$$$$$$$$$$$$$$$$$$$$$$$$$$$ core_model_output Tensor("model_1_60/densedec_task_00_term_00/Softmax:0", shape=(?, 339), dtype=float32)
__________________________________________________________________________________________________
Layer (type)                    Output Shape         Param #     Connected to                     
==================================================================================================
input_61 (InputLayer)           (None, 100)          0                                            
__________________________________________________________________________________________________
embedding_61 (Embedding)        (None, 100, 102)     15300000    input_61[0][0]                   
__________________________________________________________________________________________________
model_1 (Model)                 (None, 339)          430503      embedding_61[0][0]               
__________________________________________________________________________________________________
lambda_181 (Lambda)             (None, 12)           0           model_1[1][0]                    
__________________________________________________________________________________________________
lambda_182 (Lambda)             (None, 220)          0           model_1[1][0]                    
__________________________________________________________________________________________________
lambda_183 (Lambda)             (None, 107)          0           model_1[1][0]                    
__________________________________________________________________________________________________
activation_181 (Activation)     (None, 12)           0           lambda_181[0][0]                 
__________________________________________________________________________________________________
activation_182 (Activation)     (None, 220)          0           lambda_182[0][0]                 
__________________________________________________________________________________________________
activation_183 (Activation)     (None, 107)          0           lambda_183[0][0]                 
==================================================================================================
Total params: 15,730,503
Trainable params: 15,730,503
Non-trainable params: 0
__________________________________________________________________________________________________
TRAINING MODEL SUMMARY ...  None
__________________________________________________________________________________________________
Layer (type)                    Output Shape         Param #     Connected to                     
==================================================================================================
input_61 (InputLayer)           (None, 100)          0                                            
__________________________________________________________________________________________________
embedding_61 (Embedding)        (None, 100, 102)     15300000    input_61[0][0]                   
__________________________________________________________________________________________________
model_1 (Model)                 (None, 339)          430503      embedding_61[0][0]               
__________________________________________________________________________________________________
lambda_181 (Lambda)             (None, 12)           0           model_1[1][0]                    
__________________________________________________________________________________________________
lambda_182 (Lambda)             (None, 220)          0           model_1[1][0]                    
__________________________________________________________________________________________________
lambda_183 (Lambda)             (None, 107)          0           model_1[1][0]                    
__________________________________________________________________________________________________
activation_181 (Activation)     (None, 12)           0           lambda_181[0][0]                 
__________________________________________________________________________________________________
activation_182 (Activation)     (None, 220)          0           lambda_182[0][0]                 
__________________________________________________________________________________________________
activation_183 (Activation)     (None, 107)          0           lambda_183[0][0]                 
==================================================================================================
Total params: 15,730,503
Trainable params: 15,730,503
Non-trainable params: 0
__________________________________________________________________________________________________
$$$$$$$$$$$$$$$$$$$$$$$$$$$$$$$$$$$$$$$$$$$$$$$$$ training_model None
Using SeeNNBlueprint to draw candidate 451
…
std of individual evaluation time: 54.567
mean throughput: 0.047
Population evaluation time:  2191.349
visualizing stats
Using SeeNN to draw candidate 471
$$$$$$$$$$$$$$$$$$$$$$$$$$$$$$$$$$$$$$$$$$$$$$$$$ core_model_output Tensor("model_1_63/densedec_task_00_term_00/Softmax:0", shape=(?, 339), dtype=float32)
__________________________________________________________________________________________________
Layer (type)                    Output Shape         Param #     Connected to                     
==================================================================================================
input_64 (InputLayer)           (None, 100)          0                                            
__________________________________________________________________________________________________
embedding_64 (Embedding)        (None, 100, 119)     17850000    input_64[0][0]                   
__________________________________________________________________________________________________
model_1 (Model)                 (None, 339)          785945      embedding_64[0][0]               
__________________________________________________________________________________________________
lambda_190 (Lambda)             (None, 12)           0           model_1[1][0]                    
__________________________________________________________________________________________________
lambda_191 (Lambda)             (None, 220)          0           model_1[1][0]                    
__________________________________________________________________________________________________
lambda_192 (Lambda)             (None, 107)          0           model_1[1][0]                    
__________________________________________________________________________________________________
activation_190 (Activation)     (None, 12)           0           lambda_190[0][0]                 
__________________________________________________________________________________________________
activation_191 (Activation)     (None, 220)          0           lambda_191[0][0]                 
__________________________________________________________________________________________________
activation_192 (Activation)     (None, 107)          0           lambda_192[0][0]                 
==================================================================================================
Total params: 18,635,945
Trainable params: 18,635,945
Non-trainable params: 0
__________________________________________________________________________________________________
TRAINING MODEL SUMMARY ...  None
__________________________________________________________________________________________________
Layer (type)                    Output Shape         Param #     Connected to                     
==================================================================================================
input_64 (InputLayer)           (None, 100)          0                                            
__________________________________________________________________________________________________
embedding_64 (Embedding)        (None, 100, 119)     17850000    input_64[0][0]                   
__________________________________________________________________________________________________
model_1 (Model)                 (None, 339)          785945      embedding_64[0][0]               
__________________________________________________________________________________________________
lambda_190 (Lambda)             (None, 12)           0           model_1[1][0]                    
__________________________________________________________________________________________________
lambda_191 (Lambda)             (None, 220)          0           model_1[1][0]                    
__________________________________________________________________________________________________
lambda_192 (Lambda)             (None, 107)          0           model_1[1][0]                    
__________________________________________________________________________________________________
activation_190 (Activation)     (None, 12)           0           lambda_190[0][0]                 
__________________________________________________________________________________________________
activation_191 (Activation)     (None, 220)          0           lambda_191[0][0]                 
__________________________________________________________________________________________________
activation_192 (Activation)     (None, 107)          0           lambda_192[0][0]                 
==================================================================================================
Total params: 18,635,945
Trainable params: 18,635,945
Non-trainable params: 0
__________________________________________________________________________________________________
$$$$$$$$$$$$$$$$$$$$$$$$$$$$$$$$$$$$$$$$$$$$$$$$$ training_model None
Using SeeNNBlueprint to draw candidate 471
…
std of individual evaluation time: 53.855
mean throughput: 0.047
Population evaluation time:  2051.905
visualizing stats
Using SeeNN to draw candidate 491
$$$$$$$$$$$$$$$$$$$$$$$$$$$$$$$$$$$$$$$$$$$$$$$$$ core_model_output Tensor("model_1_66/densedec_task_00_term_00/Softmax:0", shape=(?, 339), dtype=float32)
__________________________________________________________________________________________________
Layer (type)                    Output Shape         Param #     Connected to                     
==================================================================================================
input_67 (InputLayer)           (None, 100)          0                                            
__________________________________________________________________________________________________
embedding_67 (Embedding)        (None, 100, 91)      13650000    input_67[0][0]                   
__________________________________________________________________________________________________
model_1 (Model)                 (None, 339)          287199      embedding_67[0][0]               
__________________________________________________________________________________________________
lambda_199 (Lambda)             (None, 12)           0           model_1[1][0]                    
__________________________________________________________________________________________________
lambda_200 (Lambda)             (None, 220)          0           model_1[1][0]                    
__________________________________________________________________________________________________
lambda_201 (Lambda)             (None, 107)          0           model_1[1][0]                    
__________________________________________________________________________________________________
activation_199 (Activation)     (None, 12)           0           lambda_199[0][0]                 
__________________________________________________________________________________________________
activation_200 (Activation)     (None, 220)          0           lambda_200[0][0]                 
__________________________________________________________________________________________________
activation_201 (Activation)     (None, 107)          0           lambda_201[0][0]                 
==================================================================================================
Total params: 13,937,199
Trainable params: 13,937,199
Non-trainable params: 0
__________________________________________________________________________________________________
TRAINING MODEL SUMMARY ...  None
__________________________________________________________________________________________________
Layer (type)                    Output Shape         Param #     Connected to                     
==================================================================================================
input_67 (InputLayer)           (None, 100)          0                                            
__________________________________________________________________________________________________
embedding_67 (Embedding)        (None, 100, 91)      13650000    input_67[0][0]                   
__________________________________________________________________________________________________
model_1 (Model)                 (None, 339)          287199      embedding_67[0][0]               
__________________________________________________________________________________________________
lambda_199 (Lambda)             (None, 12)           0           model_1[1][0]                    
__________________________________________________________________________________________________
lambda_200 (Lambda)             (None, 220)          0           model_1[1][0]                    
__________________________________________________________________________________________________
lambda_201 (Lambda)             (None, 107)          0           model_1[1][0]                    
__________________________________________________________________________________________________
activation_199 (Activation)     (None, 12)           0           lambda_199[0][0]                 
__________________________________________________________________________________________________
activation_200 (Activation)     (None, 220)          0           lambda_200[0][0]                 
__________________________________________________________________________________________________
activation_201 (Activation)     (None, 107)          0           lambda_201[0][0]                 
==================================================================================================
Total params: 13,937,199
Trainable params: 13,937,199
Non-trainable params: 0
__________________________________________________________________________________________________
$$$$$$$$$$$$$$$$$$$$$$$$$$$$$$$$$$$$$$$$$$$$$$$$$ training_model None
Using SeeNNBlueprint to draw candidate 491
…
std of individual evaluation time: 56.299
mean throughput: 0.047
Population evaluation time:  2235.94
visualizing stats
Using SeeNN to draw candidate 511
$$$$$$$$$$$$$$$$$$$$$$$$$$$$$$$$$$$$$$$$$$$$$$$$$ core_model_output Tensor("model_1_69/densedec_task_00_term_00/Softmax:0", shape=(?, 339), dtype=float32)
__________________________________________________________________________________________________
Layer (type)                    Output Shape         Param #     Connected to                     
==================================================================================================
input_70 (InputLayer)           (None, 100)          0                                            
__________________________________________________________________________________________________
embedding_70 (Embedding)        (None, 100, 118)     17700000    input_70[0][0]                   
__________________________________________________________________________________________________
model_1 (Model)                 (None, 339)          775731      embedding_70[0][0]               
__________________________________________________________________________________________________
lambda_208 (Lambda)             (None, 12)           0           model_1[1][0]                    
__________________________________________________________________________________________________
lambda_209 (Lambda)             (None, 220)          0           model_1[1][0]                    
__________________________________________________________________________________________________
lambda_210 (Lambda)             (None, 107)          0           model_1[1][0]                    
__________________________________________________________________________________________________
activation_208 (Activation)     (None, 12)           0           lambda_208[0][0]                 
__________________________________________________________________________________________________
activation_209 (Activation)     (None, 220)          0           lambda_209[0][0]                 
__________________________________________________________________________________________________
activation_210 (Activation)     (None, 107)          0           lambda_210[0][0]                 
==================================================================================================
Total params: 18,475,731
Trainable params: 18,475,731
Non-trainable params: 0
__________________________________________________________________________________________________
TRAINING MODEL SUMMARY ...  None
__________________________________________________________________________________________________
Layer (type)                    Output Shape         Param #     Connected to                     
==================================================================================================
input_70 (InputLayer)           (None, 100)          0                                            
__________________________________________________________________________________________________
embedding_70 (Embedding)        (None, 100, 118)     17700000    input_70[0][0]                   
__________________________________________________________________________________________________
model_1 (Model)                 (None, 339)          775731      embedding_70[0][0]               
__________________________________________________________________________________________________
lambda_208 (Lambda)             (None, 12)           0           model_1[1][0]                    
__________________________________________________________________________________________________
lambda_209 (Lambda)             (None, 220)          0           model_1[1][0]                    
__________________________________________________________________________________________________
lambda_210 (Lambda)             (None, 107)          0           model_1[1][0]                    
__________________________________________________________________________________________________
activation_208 (Activation)     (None, 12)           0           lambda_208[0][0]                 
__________________________________________________________________________________________________
activation_209 (Activation)     (None, 220)          0           lambda_209[0][0]                 
__________________________________________________________________________________________________
activation_210 (Activation)     (None, 107)          0           lambda_210[0][0]                 
==================================================================================================
Total params: 18,475,731
Trainable params: 18,475,731
Non-trainable params: 0
__________________________________________________________________________________________________
$$$$$$$$$$$$$$$$$$$$$$$$$$$$$$$$$$$$$$$$$$$$$$$$$ training_model None
Using SeeNNBlueprint to draw candidate 511
…
std of individual evaluation time: 66.645
mean throughput: 0.047
Population evaluation time:  2236.99
visualizing stats
Using SeeNN to draw candidate 531
$$$$$$$$$$$$$$$$$$$$$$$$$$$$$$$$$$$$$$$$$$$$$$$$$ core_model_output Tensor("model_1_72/densedec_task_00_term_00/Softmax:0", shape=(?, 339), dtype=float32)
__________________________________________________________________________________________________
Layer (type)                    Output Shape         Param #     Connected to                     
==================================================================================================
input_73 (InputLayer)           (None, 100)          0                                            
__________________________________________________________________________________________________
embedding_73 (Embedding)        (None, 100, 87)      13050000    input_73[0][0]                   
__________________________________________________________________________________________________
model_1 (Model)                 (None, 339)          238197      embedding_73[0][0]               
__________________________________________________________________________________________________
lambda_217 (Lambda)             (None, 12)           0           model_1[1][0]                    
__________________________________________________________________________________________________
lambda_218 (Lambda)             (None, 220)          0           model_1[1][0]                    
__________________________________________________________________________________________________
lambda_219 (Lambda)             (None, 107)          0           model_1[1][0]                    
__________________________________________________________________________________________________
activation_217 (Activation)     (None, 12)           0           lambda_217[0][0]                 
__________________________________________________________________________________________________
activation_218 (Activation)     (None, 220)          0           lambda_218[0][0]                 
__________________________________________________________________________________________________
activation_219 (Activation)     (None, 107)          0           lambda_219[0][0]                 
==================================================================================================
Total params: 13,288,197
Trainable params: 13,288,197
Non-trainable params: 0
__________________________________________________________________________________________________
TRAINING MODEL SUMMARY ...  None
__________________________________________________________________________________________________
Layer (type)                    Output Shape         Param #     Connected to                     
==================================================================================================
input_73 (InputLayer)           (None, 100)          0                                            
__________________________________________________________________________________________________
embedding_73 (Embedding)        (None, 100, 87)      13050000    input_73[0][0]                   
__________________________________________________________________________________________________
model_1 (Model)                 (None, 339)          238197      embedding_73[0][0]               
__________________________________________________________________________________________________
lambda_217 (Lambda)             (None, 12)           0           model_1[1][0]                    
__________________________________________________________________________________________________
lambda_218 (Lambda)             (None, 220)          0           model_1[1][0]                    
__________________________________________________________________________________________________
lambda_219 (Lambda)             (None, 107)          0           model_1[1][0]                    
__________________________________________________________________________________________________
activation_217 (Activation)     (None, 12)           0           lambda_217[0][0]                 
__________________________________________________________________________________________________
activation_218 (Activation)     (None, 220)          0           lambda_218[0][0]                 
__________________________________________________________________________________________________
activation_219 (Activation)     (None, 107)          0           lambda_219[0][0]                 
==================================================================================================
Total params: 13,288,197
Trainable params: 13,288,197
Non-trainable params: 0
__________________________________________________________________________________________________
$$$$$$$$$$$$$$$$$$$$$$$$$$$$$$$$$$$$$$$$$$$$$$$$$ training_model None
Using SeeNNBlueprint to draw candidate 531
…
std of individual evaluation time: 68.524
mean throughput: 0.047
Population evaluation time:  2354.75
visualizing stats
Using SeeNN to draw candidate 551
$$$$$$$$$$$$$$$$$$$$$$$$$$$$$$$$$$$$$$$$$$$$$$$$$ core_model_output Tensor("model_1_75/densedec_task_00_term_00/Softmax:0", shape=(?, 339), dtype=float32)
__________________________________________________________________________________________________
Layer (type)                    Output Shape         Param #     Connected to                     
==================================================================================================
input_76 (InputLayer)           (None, 100)          0                                            
__________________________________________________________________________________________________
embedding_76 (Embedding)        (None, 100, 127)     19050000    input_76[0][0]                   
__________________________________________________________________________________________________
model_1 (Model)                 (None, 339)          819039      embedding_76[0][0]               
__________________________________________________________________________________________________
lambda_226 (Lambda)             (None, 12)           0           model_1[1][0]                    
__________________________________________________________________________________________________
lambda_227 (Lambda)             (None, 220)          0           model_1[1][0]                    
__________________________________________________________________________________________________
lambda_228 (Lambda)             (None, 107)          0           model_1[1][0]                    
__________________________________________________________________________________________________
activation_226 (Activation)     (None, 12)           0           lambda_226[0][0]                 
__________________________________________________________________________________________________
activation_227 (Activation)     (None, 220)          0           lambda_227[0][0]                 
__________________________________________________________________________________________________
activation_228 (Activation)     (None, 107)          0           lambda_228[0][0]                 
==================================================================================================
Total params: 19,869,039
Trainable params: 19,869,039
Non-trainable params: 0
__________________________________________________________________________________________________
TRAINING MODEL SUMMARY ...  None
__________________________________________________________________________________________________
Layer (type)                    Output Shape         Param #     Connected to                     
==================================================================================================
input_76 (InputLayer)           (None, 100)          0                                            
__________________________________________________________________________________________________
embedding_76 (Embedding)        (None, 100, 127)     19050000    input_76[0][0]                   
__________________________________________________________________________________________________
model_1 (Model)                 (None, 339)          819039      embedding_76[0][0]               
__________________________________________________________________________________________________
lambda_226 (Lambda)             (None, 12)           0           model_1[1][0]                    
__________________________________________________________________________________________________
lambda_227 (Lambda)             (None, 220)          0           model_1[1][0]                    
__________________________________________________________________________________________________
lambda_228 (Lambda)             (None, 107)          0           model_1[1][0]                    
__________________________________________________________________________________________________
activation_226 (Activation)     (None, 12)           0           lambda_226[0][0]                 
__________________________________________________________________________________________________
activation_227 (Activation)     (None, 220)          0           lambda_227[0][0]                 
__________________________________________________________________________________________________
activation_228 (Activation)     (None, 107)          0           lambda_228[0][0]                 
==================================================================================================
Total params: 19,869,039
Trainable params: 19,869,039
Non-trainable params: 0
__________________________________________________________________________________________________
$$$$$$$$$$$$$$$$$$$$$$$$$$$$$$$$$$$$$$$$$$$$$$$$$ training_model None
Using SeeNNBlueprint to draw candidate 551
…
std of individual evaluation time: 82.716
mean throughput: 0.047
Population evaluation time:  2723.72
visualizing stats
Using SeeNN to draw candidate 571
$$$$$$$$$$$$$$$$$$$$$$$$$$$$$$$$$$$$$$$$$$$$$$$$$ core_model_output Tensor("model_1_78/densedec_task_00_term_00/Softmax:0", shape=(?, 339), dtype=float32)
__________________________________________________________________________________________________
Layer (type)                    Output Shape         Param #     Connected to                     
==================================================================================================
input_79 (InputLayer)           (None, 100)          0                                            
__________________________________________________________________________________________________
embedding_79 (Embedding)        (None, 100, 107)     16050000    input_79[0][0]                   
__________________________________________________________________________________________________
model_1 (Model)                 (None, 339)          1059347     embedding_79[0][0]               
__________________________________________________________________________________________________
lambda_235 (Lambda)             (None, 12)           0           model_1[1][0]                    
__________________________________________________________________________________________________
lambda_236 (Lambda)             (None, 220)          0           model_1[1][0]                    
__________________________________________________________________________________________________
lambda_237 (Lambda)             (None, 107)          0           model_1[1][0]                    
__________________________________________________________________________________________________
activation_235 (Activation)     (None, 12)           0           lambda_235[0][0]                 
__________________________________________________________________________________________________
activation_236 (Activation)     (None, 220)          0           lambda_236[0][0]                 
__________________________________________________________________________________________________
activation_237 (Activation)     (None, 107)          0           lambda_237[0][0]                 
==================================================================================================
Total params: 17,109,347
Trainable params: 17,109,347
Non-trainable params: 0
__________________________________________________________________________________________________
TRAINING MODEL SUMMARY ...  None
__________________________________________________________________________________________________
Layer (type)                    Output Shape         Param #     Connected to                     
==================================================================================================
input_79 (InputLayer)           (None, 100)          0                                            
__________________________________________________________________________________________________
embedding_79 (Embedding)        (None, 100, 107)     16050000    input_79[0][0]                   
__________________________________________________________________________________________________
model_1 (Model)                 (None, 339)          1059347     embedding_79[0][0]               
__________________________________________________________________________________________________
lambda_235 (Lambda)             (None, 12)           0           model_1[1][0]                    
__________________________________________________________________________________________________
lambda_236 (Lambda)             (None, 220)          0           model_1[1][0]                    
__________________________________________________________________________________________________
lambda_237 (Lambda)             (None, 107)          0           model_1[1][0]                    
__________________________________________________________________________________________________
activation_235 (Activation)     (None, 12)           0           lambda_235[0][0]                 
__________________________________________________________________________________________________
activation_236 (Activation)     (None, 220)          0           lambda_236[0][0]                 
__________________________________________________________________________________________________
activation_237 (Activation)     (None, 107)          0           lambda_237[0][0]                 
==================================================================================================
Total params: 17,109,347
Trainable params: 17,109,347
Non-trainable params: 0
__________________________________________________________________________________________________
$$$$$$$$$$$$$$$$$$$$$$$$$$$$$$$$$$$$$$$$$$$$$$$$$ training_model None
Using SeeNNBlueprint to draw candidate 571
…
