
******************************************************
*******************STARTING NEW RUN*******************
******************************************************
2019-09-17 04:26:50 PDT-0700
ENN SessionServer Class: SessionServer 

experiment base directory is /home/ubuntu/enn-workspace/enn-release/results/509868_CTStexttest_faceAge_test_config_201909171126
experiment id is 509868-CTStexttest-faceAge-test-config-201909171126
SessionServer no checkpoint found, starting from scratch
Calling next_population() on the ENN Population Submission Service
Connecting to ENN Population Submission Service on test-v10.enn.evolution.ml:80 ...
Connected to ENN Population Submission Service on test-v10.enn.evolution.ml:80.
Calling get_population() on the ENN Population Submission Service
Connecting to ENN Population Submission Service on test-v10.enn.evolution.ml:80 ...
Connected to ENN Population Submission Service on test-v10.enn.evolution.ml:80.
Successfully called next_population().
Processing generation at checkpoint checkpoint_0

2019-09-17 04:26:53 PDT-0700
studio run: submitted experiment completion_service_509868-CTStexttest-faceAge-test-config-201909171126-e890cd58-0891-4b3b-9f77-c5dd53ec7606_9

1/2 [==============>...............] - ETA: 2sstudio run: submitted experiment completion_service_509868-CTStexttest-faceAge-test-config-201909171126-e890cd58-0891-4b3b-9f77-c5dd53ec7606_10

2/2 [==============================] - 3s 2s/step
sent 2 messages for gen 0 at 2019-09-17 04:26:56 PDT-0700
elapsed time/fitness/epochs trained:
[(9, 0.9285714285714286, 1), (11, 0.8571428571428571, 1)]
mean individual evaluation time: 10.0
median individual evaluation time: 10.0
std of individual evaluation time: 1.0
mean throughput: 0.156
Population evaluation time:  64.3
visualizing stats
Using SeeNN to draw candidate 9
&&&&&&&&&&&&&&&&&&&&&&&&&&&&&&&&&&&&&&&&&&&&&&&&&&&&&&&&&&&&&&&&&&&&&&&&&&&&&&&&&&&&&&&&&&&&&&&&&&&&&&&&&&&&&&&&&&&&&&&&&&&&&&&
model_json {"class_name": "Model", "config": {"name": "model_1", "layers": [{"name": "input_task_00_term_00", "class_name": "InputLayer", "config": {"batch_input_shape": [null, 224, 224, 3], "dtype": "float32", "sparse": false, "name": "input_task_00_term_00"}, "inbound_nodes": []}, {"name": "reshape1_enc_task_00_term_00", "class_name": "Reshape", "config": {"name": "reshape1_enc_task_00_term_00", "trainable": true, "target_shape": [224, 224, 3, 1]}, "inbound_nodes": [[["input_task_00_term_00", 0, 0, {}]]]}, {"name": "zeropad_enc_task_00_term_00", "class_name": "ZeroPadding3D", "config": {"name": "zeropad_enc_task_00_term_00", "trainable": true, "padding": [[0, 0], [0, 0], [0, 21]], "data_format": "channels_last"}, "inbound_nodes": [[["reshape1_enc_task_00_term_00", 0, 0, {}]]]}, {"name": "reshape2_enc_task_00_term_00", "class_name": "Reshape", "config": {"name": "reshape2_enc_task_00_term_00", "trainable": true, "target_shape": [224, 224, 24]}, "inbound_nodes": [[["zeropad_enc_task_00_term_00", 0, 0, {}]]]}, {"name": "model_1_module_7_1_5", "class_name": "Model", "config": {"name": "model_1_module_7_1_5", "layers": [{"name": "input_1", "class_name": "InputLayer", "config": {"batch_input_shape": [null, 224, 224, 24], "dtype": "float32", "sparse": false, "name": "input_1"}, "inbound_nodes": []}, {"name": "Conv2D", "class_name": "Conv2D", "config": {"name": "Conv2D", "trainable": true, "filters": 24, "kernel_size": [1, 1], "strides": [1, 1], "padding": "same", "data_format": "channels_last", "dilation_rate": [1, 1], "activation": "linear", "use_bias": true, "kernel_initializer": {"class_name": "VarianceScaling", "config": {"scale": 1.0, "mode": "fan_avg", "distribution": "uniform", "seed": null}}, "bias_initializer": {"class_name": "Zeros", "config": {}}, "kernel_regularizer": {"class_name": "L1L2", "config": {"l1": 0.0, "l2": 7.388308586087078e-05}}, "bias_regularizer": null, "activity_regularizer": null, "kernel_constraint": null, "bias_constraint": null}, "inbound_nodes": [[["input_1", 0, 0, {}]]]}, {"name": "MaxPooling2D", "class_name": "MaxPooling2D", "config": {"name": "MaxPooling2D", "trainable": true, "pool_size": [2, 2], "padding": "valid", "strides": [2, 2], "data_format": "channels_last"}, "inbound_nodes": [[["Conv2D", 0, 0, {}]]]}], "input_layers": [["input_1", 0, 0]], "output_layers": [["MaxPooling2D", 0, 0]]}, "inbound_nodes": [[["reshape2_enc_task_00_term_00", 0, 0, {}]]]}, {"name": "model_2_module_7_1", "class_name": "Model", "config": {"name": "model_2_module_7_1", "layers": [{"name": "input_2", "class_name": "InputLayer", "config": {"batch_input_shape": [null, 112, 112, 24], "dtype": "float32", "sparse": false, "name": "input_2"}, "inbound_nodes": []}, {"name": "Conv2D", "class_name": "Conv2D", "config": {"name": "Conv2D", "trainable": true, "filters": 24, "kernel_size": [1, 1], "strides": [1, 1], "padding": "same", "data_format": "channels_last", "dilation_rate": [1, 1], "activation": "linear", "use_bias": true, "kernel_initializer": {"class_name": "VarianceScaling", "config": {"scale": 1.0, "mode": "fan_avg", "distribution": "uniform", "seed": null}}, "bias_initializer": {"class_name": "Zeros", "config": {}}, "kernel_regularizer": {"class_name": "L1L2", "config": {"l1": 0.0, "l2": 7.388308586087078e-05}}, "bias_regularizer": null, "activity_regularizer": null, "kernel_constraint": null, "bias_constraint": null}, "inbound_nodes": [[["input_2", 0, 0, {}]]]}, {"name": "MaxPooling2D", "class_name": "MaxPooling2D", "config": {"name": "MaxPooling2D", "trainable": true, "pool_size": [2, 2], "padding": "valid", "strides": [2, 2], "data_format": "channels_last"}, "inbound_nodes": [[["Conv2D", 0, 0, {}]]]}], "input_layers": [["input_2", 0, 0]], "output_layers": [["MaxPooling2D", 0, 0]]}, "inbound_nodes": [[["model_1_module_7_1_5", 1, 0, {}]]]}, {"name": "model_2_module_7_1_7", "class_name": "Model", "config": {"name": "model_2_module_7_1_7", "layers": [{"name": "input_2", "class_name": "InputLayer", "config": {"batch_input_shape": [null, 112, 112, 24], "dtype": "float32", "sparse": false, "name": "input_2"}, "inbound_nodes": []}, {"name": "Conv2D", "class_name": "Conv2D", "config": {"name": "Conv2D", "trainable": true, "filters": 24, "kernel_size": [1, 1], "strides": [1, 1], "padding": "same", "data_format": "channels_last", "dilation_rate": [1, 1], "activation": "linear", "use_bias": true, "kernel_initializer": {"class_name": "VarianceScaling", "config": {"scale": 1.0, "mode": "fan_avg", "distribution": "uniform", "seed": null}}, "bias_initializer": {"class_name": "Zeros", "config": {}}, "kernel_regularizer": {"class_name": "L1L2", "config": {"l1": 0.0, "l2": 7.388308586087078e-05}}, "bias_regularizer": null, "activity_regularizer": null, "kernel_constraint": null, "bias_constraint": null}, "inbound_nodes": [[["input_2", 0, 0, {}]]]}, {"name": "MaxPooling2D", "class_name": "MaxPooling2D", "config": {"name": "MaxPooling2D", "trainable": true, "pool_size": [2, 2], "padding": "valid", "strides": [2, 2], "data_format": "channels_last"}, "inbound_nodes": [[["Conv2D", 0, 0, {}]]]}], "input_layers": [["input_2", 0, 0]], "output_layers": [["MaxPooling2D", 0, 0]]}, "inbound_nodes": [[["model_1_module_7_1_5", 1, 0, {}]]]}, {"name": "constant_input", "class_name": "InputLayer", "config": {"batch_input_shape": [null, 1], "dtype": "float32", "sparse": false, "name": "constant_input"}, "inbound_nodes": []}, {"name": "model_3_module_7_1_6", "class_name": "Model", "config": {"name": "model_3_module_7_1_6", "layers": [{"name": "input_3", "class_name": "InputLayer", "config": {"batch_input_shape": [null, 56, 56, 24], "dtype": "float32", "sparse": false, "name": "input_3"}, "inbound_nodes": []}, {"name": "Conv2D", "class_name": "Conv2D", "config": {"name": "Conv2D", "trainable": true, "filters": 24, "kernel_size": [1, 1], "strides": [1, 1], "padding": "same", "data_format": "channels_last", "dilation_rate": [1, 1], "activation": "linear", "use_bias": true, "kernel_initializer": {"class_name": "VarianceScaling", "config": {"scale": 1.0, "mode": "fan_avg", "distribution": "uniform", "seed": null}}, "bias_initializer": {"class_name": "Zeros", "config": {}}, "kernel_regularizer": {"class_name": "L1L2", "config": {"l1": 0.0, "l2": 7.388308586087078e-05}}, "bias_regularizer": null, "activity_regularizer": null, "kernel_constraint": null, "bias_constraint": null}, "inbound_nodes": [[["input_3", 0, 0, {}]]]}, {"name": "MaxPooling2D", "class_name": "MaxPooling2D", "config": {"name": "MaxPooling2D", "trainable": true, "pool_size": [2, 2], "padding": "valid", "strides": [2, 2], "data_format": "channels_last"}, "inbound_nodes": [[["Conv2D", 0, 0, {}]]]}], "input_layers": [["input_3", 0, 0]], "output_layers": [["MaxPooling2D", 0, 0]]}, "inbound_nodes": [[["model_2_module_7_1", 1, 0, {}]]]}, {"name": "maxpool_task_00_node_04_block_01", "class_name": "MaxPooling2D", "config": {"name": "maxpool_task_00_node_04_block_01", "trainable": true, "pool_size": [2, 2], "padding": "valid", "strides": [2, 2], "data_format": "channels_last"}, "inbound_nodes": [[["model_2_module_7_1_7", 1, 0, {}]]]}, {"name": "model_softmod_task_00_node_04", "class_name": "Model", "config": {"name": "model_softmod_task_00_node_04", "layers": [{"name": "constant_input_softmod_task_00_node_04", "class_name": "InputLayer", "config": {"batch_input_shape": [null, 1], "dtype": "float32", "sparse": false, "name": "constant_input_softmod_task_00_node_04"}, "inbound_nodes": []}, {"name": "dense_softmod_task_00_node_04_block_00", "class_name": "Dense", "config": {"name": "dense_softmod_task_00_node_04_block_00", "trainable": true, "units": 1, "activation": "sigmoid", "use_bias": true, "kernel_initializer": {"class_name": "VarianceScaling", "config": {"scale": 1.0, "mode": "fan_avg", "distribution": "uniform", "seed": null}}, "bias_initializer": {"class_name": "Zeros", "config": {}}, "kernel_regularizer": null, "bias_regularizer": null, "activity_regularizer": null, "kernel_constraint": null, "bias_constraint": null}, "inbound_nodes": [[["constant_input_softmod_task_00_node_04", 0, 0, {}]]]}, {"name": "dense_softmod_task_00_node_04_block_01", "class_name": "Dense", "config": {"name": "dense_softmod_task_00_node_04_block_01", "trainable": true, "units": 1, "activation": "sigmoid", "use_bias": true, "kernel_initializer": {"class_name": "VarianceScaling", "config": {"scale": 1.0, "mode": "fan_avg", "distribution": "uniform", "seed": null}}, "bias_initializer": {"class_name": "Zeros", "config": {}}, "kernel_regularizer": null, "bias_regularizer": null, "activity_regularizer": null, "kernel_constraint": null, "bias_constraint": null}, "inbound_nodes": [[["constant_input_softmod_task_00_node_04", 0, 0, {}]]]}, {"name": "repeat_softmod_task_00_node_04_block_00", "class_name": "RepeatVector", "config": {"name": "repeat_softmod_task_00_node_04_block_00", "trainable": true, "n": 18816}, "inbound_nodes": [[["dense_softmod_task_00_node_04_block_00", 0, 0, {}]]]}, {"name": "repeat_softmod_task_00_node_04_block_01", "class_name": "RepeatVector", "config": {"name": "repeat_softmod_task_00_node_04_block_01", "trainable": true, "n": 18816}, "inbound_nodes": [[["dense_softmod_task_00_node_04_block_01", 0, 0, {}]]]}, {"name": "reshape_softmod_task_00_node_04_block_00", "class_name": "Reshape", "config": {"name": "reshape_softmod_task_00_node_04_block_00", "trainable": true, "target_shape": [28, 28, 24]}, "inbound_nodes": [[["repeat_softmod_task_00_node_04_block_00", 0, 0, {}]]]}, {"name": "output_input_softmod_task_00_node_04_block_00", "class_name": "InputLayer", "config": {"batch_input_shape": [null, 28, 28, 24], "dtype": "float32", "sparse": false, "name": "output_input_softmod_task_00_node_04_block_00"}, "inbound_nodes": []}, {"name": "reshape_softmod_task_00_node_04_block_01", "class_name": "Reshape", "config": {"name": "reshape_softmod_task_00_node_04_block_01", "trainable": true, "target_shape": [28, 28, 24]}, "inbound_nodes": [[["repeat_softmod_task_00_node_04_block_01", 0, 0, {}]]]}, {"name": "output_input_softmod_task_00_node_04_block_01", "class_name": "InputLayer", "config": {"batch_input_shape": [null, 28, 28, 24], "dtype": "float32", "sparse": false, "name": "output_input_softmod_task_00_node_04_block_01"}, "inbound_nodes": []}, {"name": "mult_softmod_task_00_node_04_block_00", "class_name": "Multiply", "config": {"name": "mult_softmod_task_00_node_04_block_00", "trainable": true}, "inbound_nodes": [[["reshape_softmod_task_00_node_04_block_00", 0, 0, {}], ["output_input_softmod_task_00_node_04_block_00", 0, 0, {}]]]}, {"name": "mult_softmod_task_00_node_04_block_01", "class_name": "Multiply", "config": {"name": "mult_softmod_task_00_node_04_block_01", "trainable": true}, "inbound_nodes": [[["reshape_softmod_task_00_node_04_block_01", 0, 0, {}], ["output_input_softmod_task_00_node_04_block_01", 0, 0, {}]]]}, {"name": "add_softmod_task_00_node_04", "class_name": "Add", "config": {"name": "add_softmod_task_00_node_04", "trainable": true}, "inbound_nodes": [[["mult_softmod_task_00_node_04_block_00", 0, 0, {}], ["mult_softmod_task_00_node_04_block_01", 0, 0, {}]]]}], "input_layers": [["constant_input_softmod_task_00_node_04", 0, 0], ["output_input_softmod_task_00_node_04_block_00", 0, 0], ["output_input_softmod_task_00_node_04_block_01", 0, 0]], "output_layers": [["add_softmod_task_00_node_04", 0, 0]]}, "inbound_nodes": [[["constant_input", 0, 0, {}], ["model_3_module_7_1_6", 1, 0, {}], ["maxpool_task_00_node_04_block_01", 0, 0, {}]]]}, {"name": "model_4_module_7_1", "class_name": "Model", "config": {"name": "model_4_module_7_1", "layers": [{"name": "input_4", "class_name": "InputLayer", "config": {"batch_input_shape": [null, 28, 28, 24], "dtype": "float32", "sparse": false, "name": "input_4"}, "inbound_nodes": []}, {"name": "Conv2D", "class_name": "Conv2D", "config": {"name": "Conv2D", "trainable": true, "filters": 24, "kernel_size": [1, 1], "strides": [1, 1], "padding": "same", "data_format": "channels_last", "dilation_rate": [1, 1], "activation": "linear", "use_bias": true, "kernel_initializer": {"class_name": "VarianceScaling", "config": {"scale": 1.0, "mode": "fan_avg", "distribution": "uniform", "seed": null}}, "bias_initializer": {"class_name": "Zeros", "config": {}}, "kernel_regularizer": {"class_name": "L1L2", "config": {"l1": 0.0, "l2": 7.388308586087078e-05}}, "bias_regularizer": null, "activity_regularizer": null, "kernel_constraint": null, "bias_constraint": null}, "inbound_nodes": [[["input_4", 0, 0, {}]]]}, {"name": "MaxPooling2D", "class_name": "MaxPooling2D", "config": {"name": "MaxPooling2D", "trainable": true, "pool_size": [2, 2], "padding": "valid", "strides": [2, 2], "data_format": "channels_last"}, "inbound_nodes": [[["Conv2D", 0, 0, {}]]]}], "input_layers": [["input_4", 0, 0]], "output_layers": [["MaxPooling2D", 0, 0]]}, "inbound_nodes": [[["model_softmod_task_00_node_04", 1, 0, {}]]]}, {"name": "maxpool_task_00_node_03_block_01", "class_name": "MaxPooling2D", "config": {"name": "maxpool_task_00_node_03_block_01", "trainable": true, "pool_size": [4, 4], "padding": "valid", "strides": [4, 4], "data_format": "channels_last"}, "inbound_nodes": [[["model_2_module_7_1_7", 1, 0, {}]]]}, {"name": "maxpool_task_00_node_09_block_01", "class_name": "MaxPooling2D", "config": {"name": "maxpool_task_00_node_09_block_01", "trainable": true, "pool_size": [16, 16], "padding": "valid", "strides": [16, 16], "data_format": "channels_last"}, "inbound_nodes": [[["reshape2_enc_task_00_term_00", 0, 0, {}]]]}, {"name": "model_softmod_task_00_node_03", "class_name": "Model", "config": {"name": "model_softmod_task_00_node_03", "layers": [{"name": "constant_input_softmod_task_00_node_03", "class_name": "InputLayer", "config": {"batch_input_shape": [null, 1], "dtype": "float32", "sparse": false, "name": "constant_input_softmod_task_00_node_03"}, "inbound_nodes": []}, {"name": "dense_softmod_task_00_node_03_block_00", "class_name": "Dense", "config": {"name": "dense_softmod_task_00_node_03_block_00", "trainable": true, "units": 1, "activation": "sigmoid", "use_bias": true, "kernel_initializer": {"class_name": "VarianceScaling", "config": {"scale": 1.0, "mode": "fan_avg", "distribution": "uniform", "seed": null}}, "bias_initializer": {"class_name": "Zeros", "config": {}}, "kernel_regularizer": null, "bias_regularizer": null, "activity_regularizer": null, "kernel_constraint": null, "bias_constraint": null}, "inbound_nodes": [[["constant_input_softmod_task_00_node_03", 0, 0, {}]]]}, {"name": "dense_softmod_task_00_node_03_block_01", "class_name": "Dense", "config": {"name": "dense_softmod_task_00_node_03_block_01", "trainable": true, "units": 1, "activation": "sigmoid", "use_bias": true, "kernel_initializer": {"class_name": "VarianceScaling", "config": {"scale": 1.0, "mode": "fan_avg", "distribution": "uniform", "seed": null}}, "bias_initializer": {"class_name": "Zeros", "config": {}}, "kernel_regularizer": null, "bias_regularizer": null, "activity_regularizer": null, "kernel_constraint": null, "bias_constraint": null}, "inbound_nodes": [[["constant_input_softmod_task_00_node_03", 0, 0, {}]]]}, {"name": "repeat_softmod_task_00_node_03_block_00", "class_name": "RepeatVector", "config": {"name": "repeat_softmod_task_00_node_03_block_00", "trainable": true, "n": 4704}, "inbound_nodes": [[["dense_softmod_task_00_node_03_block_00", 0, 0, {}]]]}, {"name": "repeat_softmod_task_00_node_03_block_01", "class_name": "RepeatVector", "config": {"name": "repeat_softmod_task_00_node_03_block_01", "trainable": true, "n": 4704}, "inbound_nodes": [[["dense_softmod_task_00_node_03_block_01", 0, 0, {}]]]}, {"name": "reshape_softmod_task_00_node_03_block_00", "class_name": "Reshape", "config": {"name": "reshape_softmod_task_00_node_03_block_00", "trainable": true, "target_shape": [14, 14, 24]}, "inbound_nodes": [[["repeat_softmod_task_00_node_03_block_00", 0, 0, {}]]]}, {"name": "output_input_softmod_task_00_node_03_block_00", "class_name": "InputLayer", "config": {"batch_input_shape": [null, 14, 14, 24], "dtype": "float32", "sparse": false, "name": "output_input_softmod_task_00_node_03_block_00"}, "inbound_nodes": []}, {"name": "reshape_softmod_task_00_node_03_block_01", "class_name": "Reshape", "config": {"name": "reshape_softmod_task_00_node_03_block_01", "trainable": true, "target_shape": [14, 14, 24]}, "inbound_nodes": [[["repeat_softmod_task_00_node_03_block_01", 0, 0, {}]]]}, {"name": "output_input_softmod_task_00_node_03_block_01", "class_name": "InputLayer", "config": {"batch_input_shape": [null, 14, 14, 24], "dtype": "float32", "sparse": false, "name": "output_input_softmod_task_00_node_03_block_01"}, "inbound_nodes": []}, {"name": "mult_softmod_task_00_node_03_block_00", "class_name": "Multiply", "config": {"name": "mult_softmod_task_00_node_03_block_00", "trainable": true}, "inbound_nodes": [[["reshape_softmod_task_00_node_03_block_00", 0, 0, {}], ["output_input_softmod_task_00_node_03_block_00", 0, 0, {}]]]}, {"name": "mult_softmod_task_00_node_03_block_01", "class_name": "Multiply", "config": {"name": "mult_softmod_task_00_node_03_block_01", "trainable": true}, "inbound_nodes": [[["reshape_softmod_task_00_node_03_block_01", 0, 0, {}], ["output_input_softmod_task_00_node_03_block_01", 0, 0, {}]]]}, {"name": "add_softmod_task_00_node_03", "class_name": "Add", "config": {"name": "add_softmod_task_00_node_03", "trainable": true}, "inbound_nodes": [[["mult_softmod_task_00_node_03_block_00", 0, 0, {}], ["mult_softmod_task_00_node_03_block_01", 0, 0, {}]]]}], "input_layers": [["constant_input_softmod_task_00_node_03", 0, 0], ["output_input_softmod_task_00_node_03_block_00", 0, 0], ["output_input_softmod_task_00_node_03_block_01", 0, 0]], "output_layers": [["add_softmod_task_00_node_03", 0, 0]]}, "inbound_nodes": [[["constant_input", 0, 0, {}], ["model_4_module_7_1", 1, 0, {}], ["maxpool_task_00_node_03_block_01", 0, 0, {}]]]}, {"name": "model_softmod_task_00_node_09", "class_name": "Model", "config": {"name": "model_softmod_task_00_node_09", "layers": [{"name": "constant_input_softmod_task_00_node_09", "class_name": "InputLayer", "config": {"batch_input_shape": [null, 1], "dtype": "float32", "sparse": false, "name": "constant_input_softmod_task_00_node_09"}, "inbound_nodes": []}, {"name": "dense_softmod_task_00_node_09_block_00", "class_name": "Dense", "config": {"name": "dense_softmod_task_00_node_09_block_00", "trainable": true, "units": 1, "activation": "sigmoid", "use_bias": true, "kernel_initializer": {"class_name": "VarianceScaling", "config": {"scale": 1.0, "mode": "fan_avg", "distribution": "uniform", "seed": null}}, "bias_initializer": {"class_name": "Zeros", "config": {}}, "kernel_regularizer": null, "bias_regularizer": null, "activity_regularizer": null, "kernel_constraint": null, "bias_constraint": null}, "inbound_nodes": [[["constant_input_softmod_task_00_node_09", 0, 0, {}]]]}, {"name": "dense_softmod_task_00_node_09_block_01", "class_name": "Dense", "config": {"name": "dense_softmod_task_00_node_09_block_01", "trainable": true, "units": 1, "activation": "sigmoid", "use_bias": true, "kernel_initializer": {"class_name": "VarianceScaling", "config": {"scale": 1.0, "mode": "fan_avg", "distribution": "uniform", "seed": null}}, "bias_initializer": {"class_name": "Zeros", "config": {}}, "kernel_regularizer": null, "bias_regularizer": null, "activity_regularizer": null, "kernel_constraint": null, "bias_constraint": null}, "inbound_nodes": [[["constant_input_softmod_task_00_node_09", 0, 0, {}]]]}, {"name": "repeat_softmod_task_00_node_09_block_00", "class_name": "RepeatVector", "config": {"name": "repeat_softmod_task_00_node_09_block_00", "trainable": true, "n": 4704}, "inbound_nodes": [[["dense_softmod_task_00_node_09_block_00", 0, 0, {}]]]}, {"name": "repeat_softmod_task_00_node_09_block_01", "class_name": "RepeatVector", "config": {"name": "repeat_softmod_task_00_node_09_block_01", "trainable": true, "n": 4704}, "inbound_nodes": [[["dense_softmod_task_00_node_09_block_01", 0, 0, {}]]]}, {"name": "reshape_softmod_task_00_node_09_block_00", "class_name": "Reshape", "config": {"name": "reshape_softmod_task_00_node_09_block_00", "trainable": true, "target_shape": [14, 14, 24]}, "inbound_nodes": [[["repeat_softmod_task_00_node_09_block_00", 0, 0, {}]]]}, {"name": "output_input_softmod_task_00_node_09_block_00", "class_name": "InputLayer", "config": {"batch_input_shape": [null, 14, 14, 24], "dtype": "float32", "sparse": false, "name": "output_input_softmod_task_00_node_09_block_00"}, "inbound_nodes": []}, {"name": "reshape_softmod_task_00_node_09_block_01", "class_name": "Reshape", "config": {"name": "reshape_softmod_task_00_node_09_block_01", "trainable": true, "target_shape": [14, 14, 24]}, "inbound_nodes": [[["repeat_softmod_task_00_node_09_block_01", 0, 0, {}]]]}, {"name": "output_input_softmod_task_00_node_09_block_01", "class_name": "InputLayer", "config": {"batch_input_shape": [null, 14, 14, 24], "dtype": "float32", "sparse": false, "name": "output_input_softmod_task_00_node_09_block_01"}, "inbound_nodes": []}, {"name": "mult_softmod_task_00_node_09_block_00", "class_name": "Multiply", "config": {"name": "mult_softmod_task_00_node_09_block_00", "trainable": true}, "inbound_nodes": [[["reshape_softmod_task_00_node_09_block_00", 0, 0, {}], ["output_input_softmod_task_00_node_09_block_00", 0, 0, {}]]]}, {"name": "mult_softmod_task_00_node_09_block_01", "class_name": "Multiply", "config": {"name": "mult_softmod_task_00_node_09_block_01", "trainable": true}, "inbound_nodes": [[["reshape_softmod_task_00_node_09_block_01", 0, 0, {}], ["output_input_softmod_task_00_node_09_block_01", 0, 0, {}]]]}, {"name": "add_softmod_task_00_node_09", "class_name": "Add", "config": {"name": "add_softmod_task_00_node_09", "trainable": true}, "inbound_nodes": [[["mult_softmod_task_00_node_09_block_00", 0, 0, {}], ["mult_softmod_task_00_node_09_block_01", 0, 0, {}]]]}], "input_layers": [["constant_input_softmod_task_00_node_09", 0, 0], ["output_input_softmod_task_00_node_09_block_00", 0, 0], ["output_input_softmod_task_00_node_09_block_01", 0, 0]], "output_layers": [["add_softmod_task_00_node_09", 0, 0]]}, "inbound_nodes": [[["constant_input", 0, 0, {}], ["model_4_module_7_1", 1, 0, {}], ["maxpool_task_00_node_09_block_01", 0, 0, {}]]]}, {"name": "model_5_module_7_1_3", "class_name": "Model", "config": {"name": "model_5_module_7_1_3", "layers": [{"name": "input_5", "class_name": "InputLayer", "config": {"batch_input_shape": [null, 14, 14, 24], "dtype": "float32", "sparse": false, "name": "input_5"}, "inbound_nodes": []}, {"name": "Conv2D", "class_name": "Conv2D", "config": {"name": "Conv2D", "trainable": true, "filters": 24, "kernel_size": [1, 1], "strides": [1, 1], "padding": "same", "data_format": "channels_last", "dilation_rate": [1, 1], "activation": "linear", "use_bias": true, "kernel_initializer": {"class_name": "VarianceScaling", "config": {"scale": 1.0, "mode": "fan_avg", "distribution": "uniform", "seed": null}}, "bias_initializer": {"class_name": "Zeros", "config": {}}, "kernel_regularizer": {"class_name": "L1L2", "config": {"l1": 0.0, "l2": 7.388308586087078e-05}}, "bias_regularizer": null, "activity_regularizer": null, "kernel_constraint": null, "bias_constraint": null}, "inbound_nodes": [[["input_5", 0, 0, {}]]]}, {"name": "MaxPooling2D", "class_name": "MaxPooling2D", "config": {"name": "MaxPooling2D", "trainable": true, "pool_size": [2, 2], "padding": "valid", "strides": [2, 2], "data_format": "channels_last"}, "inbound_nodes": [[["Conv2D", 0, 0, {}]]]}], "input_layers": [["input_5", 0, 0]], "output_layers": [["MaxPooling2D", 0, 0]]}, "inbound_nodes": [[["model_softmod_task_00_node_03", 1, 0, {}]]]}, {"name": "model_5_module_7_1", "class_name": "Model", "config": {"name": "model_5_module_7_1", "layers": [{"name": "input_5", "class_name": "InputLayer", "config": {"batch_input_shape": [null, 14, 14, 24], "dtype": "float32", "sparse": false, "name": "input_5"}, "inbound_nodes": []}, {"name": "Conv2D", "class_name": "Conv2D", "config": {"name": "Conv2D", "trainable": true, "filters": 24, "kernel_size": [1, 1], "strides": [1, 1], "padding": "same", "data_format": "channels_last", "dilation_rate": [1, 1], "activation": "linear", "use_bias": true, "kernel_initializer": {"class_name": "VarianceScaling", "config": {"scale": 1.0, "mode": "fan_avg", "distribution": "uniform", "seed": null}}, "bias_initializer": {"class_name": "Zeros", "config": {}}, "kernel_regularizer": {"class_name": "L1L2", "config": {"l1": 0.0, "l2": 7.388308586087078e-05}}, "bias_regularizer": null, "activity_regularizer": null, "kernel_constraint": null, "bias_constraint": null}, "inbound_nodes": [[["input_5", 0, 0, {}]]]}, {"name": "MaxPooling2D", "class_name": "MaxPooling2D", "config": {"name": "MaxPooling2D", "trainable": true, "pool_size": [2, 2], "padding": "valid", "strides": [2, 2], "data_format": "channels_last"}, "inbound_nodes": [[["Conv2D", 0, 0, {}]]]}], "input_layers": [["input_5", 0, 0]], "output_layers": [["MaxPooling2D", 0, 0]]}, "inbound_nodes": [[["model_softmod_task_00_node_09", 1, 0, {}]]]}, {"name": "model_softmod_task_00_node_02", "class_name": "Model", "config": {"name": "model_softmod_task_00_node_02", "layers": [{"name": "constant_input_softmod_task_00_node_02", "class_name": "InputLayer", "config": {"batch_input_shape": [null, 1], "dtype": "float32", "sparse": false, "name": "constant_input_softmod_task_00_node_02"}, "inbound_nodes": []}, {"name": "dense_softmod_task_00_node_02_block_00", "class_name": "Dense", "config": {"name": "dense_softmod_task_00_node_02_block_00", "trainable": true, "units": 1, "activation": "sigmoid", "use_bias": true, "kernel_initializer": {"class_name": "VarianceScaling", "config": {"scale": 1.0, "mode": "fan_avg", "distribution": "uniform", "seed": null}}, "bias_initializer": {"class_name": "Zeros", "config": {}}, "kernel_regularizer": null, "bias_regularizer": null, "activity_regularizer": null, "kernel_constraint": null, "bias_constraint": null}, "inbound_nodes": [[["constant_input_softmod_task_00_node_02", 0, 0, {}]]]}, {"name": "dense_softmod_task_00_node_02_block_01", "class_name": "Dense", "config": {"name": "dense_softmod_task_00_node_02_block_01", "trainable": true, "units": 1, "activation": "sigmoid", "use_bias": true, "kernel_initializer": {"class_name": "VarianceScaling", "config": {"scale": 1.0, "mode": "fan_avg", "distribution": "uniform", "seed": null}}, "bias_initializer": {"class_name": "Zeros", "config": {}}, "kernel_regularizer": null, "bias_regularizer": null, "activity_regularizer": null, "kernel_constraint": null, "bias_constraint": null}, "inbound_nodes": [[["constant_input_softmod_task_00_node_02", 0, 0, {}]]]}, {"name": "repeat_softmod_task_00_node_02_block_00", "class_name": "RepeatVector", "config": {"name": "repeat_softmod_task_00_node_02_block_00", "trainable": true, "n": 1176}, "inbound_nodes": [[["dense_softmod_task_00_node_02_block_00", 0, 0, {}]]]}, {"name": "repeat_softmod_task_00_node_02_block_01", "class_name": "RepeatVector", "config": {"name": "repeat_softmod_task_00_node_02_block_01", "trainable": true, "n": 1176}, "inbound_nodes": [[["dense_softmod_task_00_node_02_block_01", 0, 0, {}]]]}, {"name": "reshape_softmod_task_00_node_02_block_00", "class_name": "Reshape", "config": {"name": "reshape_softmod_task_00_node_02_block_00", "trainable": true, "target_shape": [7, 7, 24]}, "inbound_nodes": [[["repeat_softmod_task_00_node_02_block_00", 0, 0, {}]]]}, {"name": "output_input_softmod_task_00_node_02_block_00", "class_name": "InputLayer", "config": {"batch_input_shape": [null, 7, 7, 24], "dtype": "float32", "sparse": false, "name": "output_input_softmod_task_00_node_02_block_00"}, "inbound_nodes": []}, {"name": "reshape_softmod_task_00_node_02_block_01", "class_name": "Reshape", "config": {"name": "reshape_softmod_task_00_node_02_block_01", "trainable": true, "target_shape": [7, 7, 24]}, "inbound_nodes": [[["repeat_softmod_task_00_node_02_block_01", 0, 0, {}]]]}, {"name": "output_input_softmod_task_00_node_02_block_01", "class_name": "InputLayer", "config": {"batch_input_shape": [null, 7, 7, 24], "dtype": "float32", "sparse": false, "name": "output_input_softmod_task_00_node_02_block_01"}, "inbound_nodes": []}, {"name": "mult_softmod_task_00_node_02_block_00", "class_name": "Multiply", "config": {"name": "mult_softmod_task_00_node_02_block_00", "trainable": true}, "inbound_nodes": [[["reshape_softmod_task_00_node_02_block_00", 0, 0, {}], ["output_input_softmod_task_00_node_02_block_00", 0, 0, {}]]]}, {"name": "mult_softmod_task_00_node_02_block_01", "class_name": "Multiply", "config": {"name": "mult_softmod_task_00_node_02_block_01", "trainable": true}, "inbound_nodes": [[["reshape_softmod_task_00_node_02_block_01", 0, 0, {}], ["output_input_softmod_task_00_node_02_block_01", 0, 0, {}]]]}, {"name": "add_softmod_task_00_node_02", "class_name": "Add", "config": {"name": "add_softmod_task_00_node_02", "trainable": true}, "inbound_nodes": [[["mult_softmod_task_00_node_02_block_00", 0, 0, {}], ["mult_softmod_task_00_node_02_block_01", 0, 0, {}]]]}], "input_layers": [["constant_input_softmod_task_00_node_02", 0, 0], ["output_input_softmod_task_00_node_02_block_00", 0, 0], ["output_input_softmod_task_00_node_02_block_01", 0, 0]], "output_layers": [["add_softmod_task_00_node_02", 0, 0]]}, "inbound_nodes": [[["constant_input", 0, 0, {}], ["model_5_module_7_1_3", 1, 0, {}], ["model_5_module_7_1", 1, 0, {}]]]}, {"name": "flattendec_task_00_term_00", "class_name": "Flatten", "config": {"name": "flattendec_task_00_term_00", "trainable": true, "data_format": "channels_last"}, "inbound_nodes": [[["model_softmod_task_00_node_02", 1, 0, {}]]]}, {"name": "densedec_task_00_term_00", "class_name": "Dense", "config": {"name": "densedec_task_00_term_00", "trainable": true, "units": 7, "activation": "softmax", "use_bias": true, "kernel_initializer": {"class_name": "VarianceScaling", "config": {"scale": 1.0, "mode": "fan_avg", "distribution": "uniform", "seed": null}}, "bias_initializer": {"class_name": "Zeros", "config": {}}, "kernel_regularizer": null, "bias_regularizer": null, "activity_regularizer": null, "kernel_constraint": null, "bias_constraint": null}, "inbound_nodes": [[["flattendec_task_00_term_00", 0, 0, {}]]]}], "input_layers": [["constant_input", 0, 0], ["input_task_00_term_00", 0, 0]], "output_layers": [["densedec_task_00_term_00", 0, 0]]}, "keras_version": "2.2.4", "backend": "tensorflow"}
&&&&&&&&&&&&&&&&&&&&&&&&&&&&&&&&&&&&&&&&&&&&&&&&&&&&&&&&&&&&&&&&&&&&&&&&&&&&&&&&&&&&&&&&&&&&&&&&&&&&&&&&&&&&&&&&&&&&&&&&&&&&&&&
global_hyperparameters {'id': '9', 'learning_rate': 0.00017941124770046206}
&&&&&&&&&&&&&&&&&&&&&&&&&&&&&&&&&&&&&&&&&&&&&&&&&&&&&&&&&&&&&&&&&&&&&&&&&&&&&&&&&&&&&&&&&&&&&&&&&&&&&&&&&&&&&&&&&&&&&&&&&&&&&&&
domain_config {'dummy_load': False, 'local_data_cachedir': '~/enn_datacache', 'data_basedir': '/home/ubuntu/Data_face/', 'send_data': True, 'verbose': False, 'gpu_mem_frac': None, 'stop_cond': {'min_improve_hist_length': 999, 'min_improvement': 0, 'timeout_seconds': 999999}, 'evaluator_class_name': 'faceAgeEvaluator', 'dummy_run': 'real', 'train_dataset': 'train', 'test_dataset': 'test', 'subsample': True, 'subsample_amount': 5, 'test_subsample': True, 'test_subsample_amount': 5, 'num_iterations_per_epoch': 1, 'upload_best_model': False, 'upload_trained_model': False, 'custom_train_seed': None, 'test_val_only': True, 'test_every_epoch': False, 'checkpoint_dir': '.', 'timestamp_chkpt_dir': False, 'load_checkpoint': False, 'num_epochs': 1, 'batch_size': 5, 'checkpoint_interval': None, 'persist_weights': False, 'shuffle_data': False, 'train_abs_num_epochs': False, 'extra_config': None, 'info': {'image_size': 224, 'num_channels': 3, 'num_classes': 7, 'multitask': False, 'num_tasks': 1, 'loss_function': 'categorical_crossentropy', 'augment': False, 'test_augment': None, 'lr_scale': 1.0, 'lr_floor': 0.0, 'lr_decay': 10, 'lr_decay_amount': 0.1, 'encoder': None, 'encoder_layer_name': None, 'encoder_output_size': None, 'encoder_weights': None, 'enable_alt_obj': False, 'dummy_fitness': False, 'unzip_curr_dir': False, 'train_subsample_tau': 0.6}, 'filename_dict': {'datafile': 'images_224_compressed.tar.gz', 'partition': 'py3_chex_partition14_unormalized_cleaned.pickle', 'labels': 'py3_chex_labels14_unormalized_cleaned.pickle'}}
Using SeeNNBlueprint to draw candidate 9
&&&&&&&&&&&&&&&&&&&&&&&&&&&&&&&&&&&&&&&&&&&&&&&&&&&&&&&&&&&&&&&&&&&&&&&&&&&&&&&&&&&&&&&&&&&&&&&&&&&&&&&&&&&&&&&&&&&&&&&&&&&&&&&
model_json {"class_name": "Model", "config": {"name": "model_1", "layers": [{"name": "input_task_00_term_00", "class_name": "InputLayer", "config": {"batch_input_shape": [null, 224, 224, 3], "dtype": "float32", "sparse": false, "name": "input_task_00_term_00"}, "inbound_nodes": []}, {"name": "reshape1_enc_task_00_term_00", "class_name": "Reshape", "config": {"name": "reshape1_enc_task_00_term_00", "trainable": true, "target_shape": [224, 224, 3, 1]}, "inbound_nodes": [[["input_task_00_term_00", 0, 0, {}]]]}, {"name": "zeropad_enc_task_00_term_00", "class_name": "ZeroPadding3D", "config": {"name": "zeropad_enc_task_00_term_00", "trainable": true, "padding": [[0, 0], [0, 0], [0, 21]], "data_format": "channels_last"}, "inbound_nodes": [[["reshape1_enc_task_00_term_00", 0, 0, {}]]]}, {"name": "reshape2_enc_task_00_term_00", "class_name": "Reshape", "config": {"name": "reshape2_enc_task_00_term_00", "trainable": true, "target_shape": [224, 224, 24]}, "inbound_nodes": [[["zeropad_enc_task_00_term_00", 0, 0, {}]]]}, {"name": "model_1_module_7_1_5", "class_name": "Model", "config": {"name": "model_1_module_7_1_5", "layers": [{"name": "input_1", "class_name": "InputLayer", "config": {"batch_input_shape": [null, 224, 224, 24], "dtype": "float32", "sparse": false, "name": "input_1"}, "inbound_nodes": []}, {"name": "Conv2D", "class_name": "Conv2D", "config": {"name": "Conv2D", "trainable": true, "filters": 24, "kernel_size": [1, 1], "strides": [1, 1], "padding": "same", "data_format": "channels_last", "dilation_rate": [1, 1], "activation": "linear", "use_bias": true, "kernel_initializer": {"class_name": "VarianceScaling", "config": {"scale": 1.0, "mode": "fan_avg", "distribution": "uniform", "seed": null}}, "bias_initializer": {"class_name": "Zeros", "config": {}}, "kernel_regularizer": {"class_name": "L1L2", "config": {"l1": 0.0, "l2": 7.388308586087078e-05}}, "bias_regularizer": null, "activity_regularizer": null, "kernel_constraint": null, "bias_constraint": null}, "inbound_nodes": [[["input_1", 0, 0, {}]]]}, {"name": "MaxPooling2D", "class_name": "MaxPooling2D", "config": {"name": "MaxPooling2D", "trainable": true, "pool_size": [2, 2], "padding": "valid", "strides": [2, 2], "data_format": "channels_last"}, "inbound_nodes": [[["Conv2D", 0, 0, {}]]]}], "input_layers": [["input_1", 0, 0]], "output_layers": [["MaxPooling2D", 0, 0]]}, "inbound_nodes": [[["reshape2_enc_task_00_term_00", 0, 0, {}]]]}, {"name": "model_2_module_7_1", "class_name": "Model", "config": {"name": "model_2_module_7_1", "layers": [{"name": "input_2", "class_name": "InputLayer", "config": {"batch_input_shape": [null, 112, 112, 24], "dtype": "float32", "sparse": false, "name": "input_2"}, "inbound_nodes": []}, {"name": "Conv2D", "class_name": "Conv2D", "config": {"name": "Conv2D", "trainable": true, "filters": 24, "kernel_size": [1, 1], "strides": [1, 1], "padding": "same", "data_format": "channels_last", "dilation_rate": [1, 1], "activation": "linear", "use_bias": true, "kernel_initializer": {"class_name": "VarianceScaling", "config": {"scale": 1.0, "mode": "fan_avg", "distribution": "uniform", "seed": null}}, "bias_initializer": {"class_name": "Zeros", "config": {}}, "kernel_regularizer": {"class_name": "L1L2", "config": {"l1": 0.0, "l2": 7.388308586087078e-05}}, "bias_regularizer": null, "activity_regularizer": null, "kernel_constraint": null, "bias_constraint": null}, "inbound_nodes": [[["input_2", 0, 0, {}]]]}, {"name": "MaxPooling2D", "class_name": "MaxPooling2D", "config": {"name": "MaxPooling2D", "trainable": true, "pool_size": [2, 2], "padding": "valid", "strides": [2, 2], "data_format": "channels_last"}, "inbound_nodes": [[["Conv2D", 0, 0, {}]]]}], "input_layers": [["input_2", 0, 0]], "output_layers": [["MaxPooling2D", 0, 0]]}, "inbound_nodes": [[["model_1_module_7_1_5", 1, 0, {}]]]}, {"name": "model_2_module_7_1_7", "class_name": "Model", "config": {"name": "model_2_module_7_1_7", "layers": [{"name": "input_2", "class_name": "InputLayer", "config": {"batch_input_shape": [null, 112, 112, 24], "dtype": "float32", "sparse": false, "name": "input_2"}, "inbound_nodes": []}, {"name": "Conv2D", "class_name": "Conv2D", "config": {"name": "Conv2D", "trainable": true, "filters": 24, "kernel_size": [1, 1], "strides": [1, 1], "padding": "same", "data_format": "channels_last", "dilation_rate": [1, 1], "activation": "linear", "use_bias": true, "kernel_initializer": {"class_name": "VarianceScaling", "config": {"scale": 1.0, "mode": "fan_avg", "distribution": "uniform", "seed": null}}, "bias_initializer": {"class_name": "Zeros", "config": {}}, "kernel_regularizer": {"class_name": "L1L2", "config": {"l1": 0.0, "l2": 7.388308586087078e-05}}, "bias_regularizer": null, "activity_regularizer": null, "kernel_constraint": null, "bias_constraint": null}, "inbound_nodes": [[["input_2", 0, 0, {}]]]}, {"name": "MaxPooling2D", "class_name": "MaxPooling2D", "config": {"name": "MaxPooling2D", "trainable": true, "pool_size": [2, 2], "padding": "valid", "strides": [2, 2], "data_format": "channels_last"}, "inbound_nodes": [[["Conv2D", 0, 0, {}]]]}], "input_layers": [["input_2", 0, 0]], "output_layers": [["MaxPooling2D", 0, 0]]}, "inbound_nodes": [[["model_1_module_7_1_5", 1, 0, {}]]]}, {"name": "constant_input", "class_name": "InputLayer", "config": {"batch_input_shape": [null, 1], "dtype": "float32", "sparse": false, "name": "constant_input"}, "inbound_nodes": []}, {"name": "model_3_module_7_1_6", "class_name": "Model", "config": {"name": "model_3_module_7_1_6", "layers": [{"name": "input_3", "class_name": "InputLayer", "config": {"batch_input_shape": [null, 56, 56, 24], "dtype": "float32", "sparse": false, "name": "input_3"}, "inbound_nodes": []}, {"name": "Conv2D", "class_name": "Conv2D", "config": {"name": "Conv2D", "trainable": true, "filters": 24, "kernel_size": [1, 1], "strides": [1, 1], "padding": "same", "data_format": "channels_last", "dilation_rate": [1, 1], "activation": "linear", "use_bias": true, "kernel_initializer": {"class_name": "VarianceScaling", "config": {"scale": 1.0, "mode": "fan_avg", "distribution": "uniform", "seed": null}}, "bias_initializer": {"class_name": "Zeros", "config": {}}, "kernel_regularizer": {"class_name": "L1L2", "config": {"l1": 0.0, "l2": 7.388308586087078e-05}}, "bias_regularizer": null, "activity_regularizer": null, "kernel_constraint": null, "bias_constraint": null}, "inbound_nodes": [[["input_3", 0, 0, {}]]]}, {"name": "MaxPooling2D", "class_name": "MaxPooling2D", "config": {"name": "MaxPooling2D", "trainable": true, "pool_size": [2, 2], "padding": "valid", "strides": [2, 2], "data_format": "channels_last"}, "inbound_nodes": [[["Conv2D", 0, 0, {}]]]}], "input_layers": [["input_3", 0, 0]], "output_layers": [["MaxPooling2D", 0, 0]]}, "inbound_nodes": [[["model_2_module_7_1", 1, 0, {}]]]}, {"name": "maxpool_task_00_node_04_block_01", "class_name": "MaxPooling2D", "config": {"name": "maxpool_task_00_node_04_block_01", "trainable": true, "pool_size": [2, 2], "padding": "valid", "strides": [2, 2], "data_format": "channels_last"}, "inbound_nodes": [[["model_2_module_7_1_7", 1, 0, {}]]]}, {"name": "model_softmod_task_00_node_04", "class_name": "Model", "config": {"name": "model_softmod_task_00_node_04", "layers": [{"name": "constant_input_softmod_task_00_node_04", "class_name": "InputLayer", "config": {"batch_input_shape": [null, 1], "dtype": "float32", "sparse": false, "name": "constant_input_softmod_task_00_node_04"}, "inbound_nodes": []}, {"name": "dense_softmod_task_00_node_04_block_00", "class_name": "Dense", "config": {"name": "dense_softmod_task_00_node_04_block_00", "trainable": true, "units": 1, "activation": "sigmoid", "use_bias": true, "kernel_initializer": {"class_name": "VarianceScaling", "config": {"scale": 1.0, "mode": "fan_avg", "distribution": "uniform", "seed": null}}, "bias_initializer": {"class_name": "Zeros", "config": {}}, "kernel_regularizer": null, "bias_regularizer": null, "activity_regularizer": null, "kernel_constraint": null, "bias_constraint": null}, "inbound_nodes": [[["constant_input_softmod_task_00_node_04", 0, 0, {}]]]}, {"name": "dense_softmod_task_00_node_04_block_01", "class_name": "Dense", "config": {"name": "dense_softmod_task_00_node_04_block_01", "trainable": true, "units": 1, "activation": "sigmoid", "use_bias": true, "kernel_initializer": {"class_name": "VarianceScaling", "config": {"scale": 1.0, "mode": "fan_avg", "distribution": "uniform", "seed": null}}, "bias_initializer": {"class_name": "Zeros", "config": {}}, "kernel_regularizer": null, "bias_regularizer": null, "activity_regularizer": null, "kernel_constraint": null, "bias_constraint": null}, "inbound_nodes": [[["constant_input_softmod_task_00_node_04", 0, 0, {}]]]}, {"name": "repeat_softmod_task_00_node_04_block_00", "class_name": "RepeatVector", "config": {"name": "repeat_softmod_task_00_node_04_block_00", "trainable": true, "n": 18816}, "inbound_nodes": [[["dense_softmod_task_00_node_04_block_00", 0, 0, {}]]]}, {"name": "repeat_softmod_task_00_node_04_block_01", "class_name": "RepeatVector", "config": {"name": "repeat_softmod_task_00_node_04_block_01", "trainable": true, "n": 18816}, "inbound_nodes": [[["dense_softmod_task_00_node_04_block_01", 0, 0, {}]]]}, {"name": "reshape_softmod_task_00_node_04_block_00", "class_name": "Reshape", "config": {"name": "reshape_softmod_task_00_node_04_block_00", "trainable": true, "target_shape": [28, 28, 24]}, "inbound_nodes": [[["repeat_softmod_task_00_node_04_block_00", 0, 0, {}]]]}, {"name": "output_input_softmod_task_00_node_04_block_00", "class_name": "InputLayer", "config": {"batch_input_shape": [null, 28, 28, 24], "dtype": "float32", "sparse": false, "name": "output_input_softmod_task_00_node_04_block_00"}, "inbound_nodes": []}, {"name": "reshape_softmod_task_00_node_04_block_01", "class_name": "Reshape", "config": {"name": "reshape_softmod_task_00_node_04_block_01", "trainable": true, "target_shape": [28, 28, 24]}, "inbound_nodes": [[["repeat_softmod_task_00_node_04_block_01", 0, 0, {}]]]}, {"name": "output_input_softmod_task_00_node_04_block_01", "class_name": "InputLayer", "config": {"batch_input_shape": [null, 28, 28, 24], "dtype": "float32", "sparse": false, "name": "output_input_softmod_task_00_node_04_block_01"}, "inbound_nodes": []}, {"name": "mult_softmod_task_00_node_04_block_00", "class_name": "Multiply", "config": {"name": "mult_softmod_task_00_node_04_block_00", "trainable": true}, "inbound_nodes": [[["reshape_softmod_task_00_node_04_block_00", 0, 0, {}], ["output_input_softmod_task_00_node_04_block_00", 0, 0, {}]]]}, {"name": "mult_softmod_task_00_node_04_block_01", "class_name": "Multiply", "config": {"name": "mult_softmod_task_00_node_04_block_01", "trainable": true}, "inbound_nodes": [[["reshape_softmod_task_00_node_04_block_01", 0, 0, {}], ["output_input_softmod_task_00_node_04_block_01", 0, 0, {}]]]}, {"name": "add_softmod_task_00_node_04", "class_name": "Add", "config": {"name": "add_softmod_task_00_node_04", "trainable": true}, "inbound_nodes": [[["mult_softmod_task_00_node_04_block_00", 0, 0, {}], ["mult_softmod_task_00_node_04_block_01", 0, 0, {}]]]}], "input_layers": [["constant_input_softmod_task_00_node_04", 0, 0], ["output_input_softmod_task_00_node_04_block_00", 0, 0], ["output_input_softmod_task_00_node_04_block_01", 0, 0]], "output_layers": [["add_softmod_task_00_node_04", 0, 0]]}, "inbound_nodes": [[["constant_input", 0, 0, {}], ["model_3_module_7_1_6", 1, 0, {}], ["maxpool_task_00_node_04_block_01", 0, 0, {}]]]}, {"name": "model_4_module_7_1", "class_name": "Model", "config": {"name": "model_4_module_7_1", "layers": [{"name": "input_4", "class_name": "InputLayer", "config": {"batch_input_shape": [null, 28, 28, 24], "dtype": "float32", "sparse": false, "name": "input_4"}, "inbound_nodes": []}, {"name": "Conv2D", "class_name": "Conv2D", "config": {"name": "Conv2D", "trainable": true, "filters": 24, "kernel_size": [1, 1], "strides": [1, 1], "padding": "same", "data_format": "channels_last", "dilation_rate": [1, 1], "activation": "linear", "use_bias": true, "kernel_initializer": {"class_name": "VarianceScaling", "config": {"scale": 1.0, "mode": "fan_avg", "distribution": "uniform", "seed": null}}, "bias_initializer": {"class_name": "Zeros", "config": {}}, "kernel_regularizer": {"class_name": "L1L2", "config": {"l1": 0.0, "l2": 7.388308586087078e-05}}, "bias_regularizer": null, "activity_regularizer": null, "kernel_constraint": null, "bias_constraint": null}, "inbound_nodes": [[["input_4", 0, 0, {}]]]}, {"name": "MaxPooling2D", "class_name": "MaxPooling2D", "config": {"name": "MaxPooling2D", "trainable": true, "pool_size": [2, 2], "padding": "valid", "strides": [2, 2], "data_format": "channels_last"}, "inbound_nodes": [[["Conv2D", 0, 0, {}]]]}], "input_layers": [["input_4", 0, 0]], "output_layers": [["MaxPooling2D", 0, 0]]}, "inbound_nodes": [[["model_softmod_task_00_node_04", 1, 0, {}]]]}, {"name": "maxpool_task_00_node_03_block_01", "class_name": "MaxPooling2D", "config": {"name": "maxpool_task_00_node_03_block_01", "trainable": true, "pool_size": [4, 4], "padding": "valid", "strides": [4, 4], "data_format": "channels_last"}, "inbound_nodes": [[["model_2_module_7_1_7", 1, 0, {}]]]}, {"name": "maxpool_task_00_node_09_block_01", "class_name": "MaxPooling2D", "config": {"name": "maxpool_task_00_node_09_block_01", "trainable": true, "pool_size": [16, 16], "padding": "valid", "strides": [16, 16], "data_format": "channels_last"}, "inbound_nodes": [[["reshape2_enc_task_00_term_00", 0, 0, {}]]]}, {"name": "model_softmod_task_00_node_03", "class_name": "Model", "config": {"name": "model_softmod_task_00_node_03", "layers": [{"name": "constant_input_softmod_task_00_node_03", "class_name": "InputLayer", "config": {"batch_input_shape": [null, 1], "dtype": "float32", "sparse": false, "name": "constant_input_softmod_task_00_node_03"}, "inbound_nodes": []}, {"name": "dense_softmod_task_00_node_03_block_00", "class_name": "Dense", "config": {"name": "dense_softmod_task_00_node_03_block_00", "trainable": true, "units": 1, "activation": "sigmoid", "use_bias": true, "kernel_initializer": {"class_name": "VarianceScaling", "config": {"scale": 1.0, "mode": "fan_avg", "distribution": "uniform", "seed": null}}, "bias_initializer": {"class_name": "Zeros", "config": {}}, "kernel_regularizer": null, "bias_regularizer": null, "activity_regularizer": null, "kernel_constraint": null, "bias_constraint": null}, "inbound_nodes": [[["constant_input_softmod_task_00_node_03", 0, 0, {}]]]}, {"name": "dense_softmod_task_00_node_03_block_01", "class_name": "Dense", "config": {"name": "dense_softmod_task_00_node_03_block_01", "trainable": true, "units": 1, "activation": "sigmoid", "use_bias": true, "kernel_initializer": {"class_name": "VarianceScaling", "config": {"scale": 1.0, "mode": "fan_avg", "distribution": "uniform", "seed": null}}, "bias_initializer": {"class_name": "Zeros", "config": {}}, "kernel_regularizer": null, "bias_regularizer": null, "activity_regularizer": null, "kernel_constraint": null, "bias_constraint": null}, "inbound_nodes": [[["constant_input_softmod_task_00_node_03", 0, 0, {}]]]}, {"name": "repeat_softmod_task_00_node_03_block_00", "class_name": "RepeatVector", "config": {"name": "repeat_softmod_task_00_node_03_block_00", "trainable": true, "n": 4704}, "inbound_nodes": [[["dense_softmod_task_00_node_03_block_00", 0, 0, {}]]]}, {"name": "repeat_softmod_task_00_node_03_block_01", "class_name": "RepeatVector", "config": {"name": "repeat_softmod_task_00_node_03_block_01", "trainable": true, "n": 4704}, "inbound_nodes": [[["dense_softmod_task_00_node_03_block_01", 0, 0, {}]]]}, {"name": "reshape_softmod_task_00_node_03_block_00", "class_name": "Reshape", "config": {"name": "reshape_softmod_task_00_node_03_block_00", "trainable": true, "target_shape": [14, 14, 24]}, "inbound_nodes": [[["repeat_softmod_task_00_node_03_block_00", 0, 0, {}]]]}, {"name": "output_input_softmod_task_00_node_03_block_00", "class_name": "InputLayer", "config": {"batch_input_shape": [null, 14, 14, 24], "dtype": "float32", "sparse": false, "name": "output_input_softmod_task_00_node_03_block_00"}, "inbound_nodes": []}, {"name": "reshape_softmod_task_00_node_03_block_01", "class_name": "Reshape", "config": {"name": "reshape_softmod_task_00_node_03_block_01", "trainable": true, "target_shape": [14, 14, 24]}, "inbound_nodes": [[["repeat_softmod_task_00_node_03_block_01", 0, 0, {}]]]}, {"name": "output_input_softmod_task_00_node_03_block_01", "class_name": "InputLayer", "config": {"batch_input_shape": [null, 14, 14, 24], "dtype": "float32", "sparse": false, "name": "output_input_softmod_task_00_node_03_block_01"}, "inbound_nodes": []}, {"name": "mult_softmod_task_00_node_03_block_00", "class_name": "Multiply", "config": {"name": "mult_softmod_task_00_node_03_block_00", "trainable": true}, "inbound_nodes": [[["reshape_softmod_task_00_node_03_block_00", 0, 0, {}], ["output_input_softmod_task_00_node_03_block_00", 0, 0, {}]]]}, {"name": "mult_softmod_task_00_node_03_block_01", "class_name": "Multiply", "config": {"name": "mult_softmod_task_00_node_03_block_01", "trainable": true}, "inbound_nodes": [[["reshape_softmod_task_00_node_03_block_01", 0, 0, {}], ["output_input_softmod_task_00_node_03_block_01", 0, 0, {}]]]}, {"name": "add_softmod_task_00_node_03", "class_name": "Add", "config": {"name": "add_softmod_task_00_node_03", "trainable": true}, "inbound_nodes": [[["mult_softmod_task_00_node_03_block_00", 0, 0, {}], ["mult_softmod_task_00_node_03_block_01", 0, 0, {}]]]}], "input_layers": [["constant_input_softmod_task_00_node_03", 0, 0], ["output_input_softmod_task_00_node_03_block_00", 0, 0], ["output_input_softmod_task_00_node_03_block_01", 0, 0]], "output_layers": [["add_softmod_task_00_node_03", 0, 0]]}, "inbound_nodes": [[["constant_input", 0, 0, {}], ["model_4_module_7_1", 1, 0, {}], ["maxpool_task_00_node_03_block_01", 0, 0, {}]]]}, {"name": "model_softmod_task_00_node_09", "class_name": "Model", "config": {"name": "model_softmod_task_00_node_09", "layers": [{"name": "constant_input_softmod_task_00_node_09", "class_name": "InputLayer", "config": {"batch_input_shape": [null, 1], "dtype": "float32", "sparse": false, "name": "constant_input_softmod_task_00_node_09"}, "inbound_nodes": []}, {"name": "dense_softmod_task_00_node_09_block_00", "class_name": "Dense", "config": {"name": "dense_softmod_task_00_node_09_block_00", "trainable": true, "units": 1, "activation": "sigmoid", "use_bias": true, "kernel_initializer": {"class_name": "VarianceScaling", "config": {"scale": 1.0, "mode": "fan_avg", "distribution": "uniform", "seed": null}}, "bias_initializer": {"class_name": "Zeros", "config": {}}, "kernel_regularizer": null, "bias_regularizer": null, "activity_regularizer": null, "kernel_constraint": null, "bias_constraint": null}, "inbound_nodes": [[["constant_input_softmod_task_00_node_09", 0, 0, {}]]]}, {"name": "dense_softmod_task_00_node_09_block_01", "class_name": "Dense", "config": {"name": "dense_softmod_task_00_node_09_block_01", "trainable": true, "units": 1, "activation": "sigmoid", "use_bias": true, "kernel_initializer": {"class_name": "VarianceScaling", "config": {"scale": 1.0, "mode": "fan_avg", "distribution": "uniform", "seed": null}}, "bias_initializer": {"class_name": "Zeros", "config": {}}, "kernel_regularizer": null, "bias_regularizer": null, "activity_regularizer": null, "kernel_constraint": null, "bias_constraint": null}, "inbound_nodes": [[["constant_input_softmod_task_00_node_09", 0, 0, {}]]]}, {"name": "repeat_softmod_task_00_node_09_block_00", "class_name": "RepeatVector", "config": {"name": "repeat_softmod_task_00_node_09_block_00", "trainable": true, "n": 4704}, "inbound_nodes": [[["dense_softmod_task_00_node_09_block_00", 0, 0, {}]]]}, {"name": "repeat_softmod_task_00_node_09_block_01", "class_name": "RepeatVector", "config": {"name": "repeat_softmod_task_00_node_09_block_01", "trainable": true, "n": 4704}, "inbound_nodes": [[["dense_softmod_task_00_node_09_block_01", 0, 0, {}]]]}, {"name": "reshape_softmod_task_00_node_09_block_00", "class_name": "Reshape", "config": {"name": "reshape_softmod_task_00_node_09_block_00", "trainable": true, "target_shape": [14, 14, 24]}, "inbound_nodes": [[["repeat_softmod_task_00_node_09_block_00", 0, 0, {}]]]}, {"name": "output_input_softmod_task_00_node_09_block_00", "class_name": "InputLayer", "config": {"batch_input_shape": [null, 14, 14, 24], "dtype": "float32", "sparse": false, "name": "output_input_softmod_task_00_node_09_block_00"}, "inbound_nodes": []}, {"name": "reshape_softmod_task_00_node_09_block_01", "class_name": "Reshape", "config": {"name": "reshape_softmod_task_00_node_09_block_01", "trainable": true, "target_shape": [14, 14, 24]}, "inbound_nodes": [[["repeat_softmod_task_00_node_09_block_01", 0, 0, {}]]]}, {"name": "output_input_softmod_task_00_node_09_block_01", "class_name": "InputLayer", "config": {"batch_input_shape": [null, 14, 14, 24], "dtype": "float32", "sparse": false, "name": "output_input_softmod_task_00_node_09_block_01"}, "inbound_nodes": []}, {"name": "mult_softmod_task_00_node_09_block_00", "class_name": "Multiply", "config": {"name": "mult_softmod_task_00_node_09_block_00", "trainable": true}, "inbound_nodes": [[["reshape_softmod_task_00_node_09_block_00", 0, 0, {}], ["output_input_softmod_task_00_node_09_block_00", 0, 0, {}]]]}, {"name": "mult_softmod_task_00_node_09_block_01", "class_name": "Multiply", "config": {"name": "mult_softmod_task_00_node_09_block_01", "trainable": true}, "inbound_nodes": [[["reshape_softmod_task_00_node_09_block_01", 0, 0, {}], ["output_input_softmod_task_00_node_09_block_01", 0, 0, {}]]]}, {"name": "add_softmod_task_00_node_09", "class_name": "Add", "config": {"name": "add_softmod_task_00_node_09", "trainable": true}, "inbound_nodes": [[["mult_softmod_task_00_node_09_block_00", 0, 0, {}], ["mult_softmod_task_00_node_09_block_01", 0, 0, {}]]]}], "input_layers": [["constant_input_softmod_task_00_node_09", 0, 0], ["output_input_softmod_task_00_node_09_block_00", 0, 0], ["output_input_softmod_task_00_node_09_block_01", 0, 0]], "output_layers": [["add_softmod_task_00_node_09", 0, 0]]}, "inbound_nodes": [[["constant_input", 0, 0, {}], ["model_4_module_7_1", 1, 0, {}], ["maxpool_task_00_node_09_block_01", 0, 0, {}]]]}, {"name": "model_5_module_7_1_3", "class_name": "Model", "config": {"name": "model_5_module_7_1_3", "layers": [{"name": "input_5", "class_name": "InputLayer", "config": {"batch_input_shape": [null, 14, 14, 24], "dtype": "float32", "sparse": false, "name": "input_5"}, "inbound_nodes": []}, {"name": "Conv2D", "class_name": "Conv2D", "config": {"name": "Conv2D", "trainable": true, "filters": 24, "kernel_size": [1, 1], "strides": [1, 1], "padding": "same", "data_format": "channels_last", "dilation_rate": [1, 1], "activation": "linear", "use_bias": true, "kernel_initializer": {"class_name": "VarianceScaling", "config": {"scale": 1.0, "mode": "fan_avg", "distribution": "uniform", "seed": null}}, "bias_initializer": {"class_name": "Zeros", "config": {}}, "kernel_regularizer": {"class_name": "L1L2", "config": {"l1": 0.0, "l2": 7.388308586087078e-05}}, "bias_regularizer": null, "activity_regularizer": null, "kernel_constraint": null, "bias_constraint": null}, "inbound_nodes": [[["input_5", 0, 0, {}]]]}, {"name": "MaxPooling2D", "class_name": "MaxPooling2D", "config": {"name": "MaxPooling2D", "trainable": true, "pool_size": [2, 2], "padding": "valid", "strides": [2, 2], "data_format": "channels_last"}, "inbound_nodes": [[["Conv2D", 0, 0, {}]]]}], "input_layers": [["input_5", 0, 0]], "output_layers": [["MaxPooling2D", 0, 0]]}, "inbound_nodes": [[["model_softmod_task_00_node_03", 1, 0, {}]]]}, {"name": "model_5_module_7_1", "class_name": "Model", "config": {"name": "model_5_module_7_1", "layers": [{"name": "input_5", "class_name": "InputLayer", "config": {"batch_input_shape": [null, 14, 14, 24], "dtype": "float32", "sparse": false, "name": "input_5"}, "inbound_nodes": []}, {"name": "Conv2D", "class_name": "Conv2D", "config": {"name": "Conv2D", "trainable": true, "filters": 24, "kernel_size": [1, 1], "strides": [1, 1], "padding": "same", "data_format": "channels_last", "dilation_rate": [1, 1], "activation": "linear", "use_bias": true, "kernel_initializer": {"class_name": "VarianceScaling", "config": {"scale": 1.0, "mode": "fan_avg", "distribution": "uniform", "seed": null}}, "bias_initializer": {"class_name": "Zeros", "config": {}}, "kernel_regularizer": {"class_name": "L1L2", "config": {"l1": 0.0, "l2": 7.388308586087078e-05}}, "bias_regularizer": null, "activity_regularizer": null, "kernel_constraint": null, "bias_constraint": null}, "inbound_nodes": [[["input_5", 0, 0, {}]]]}, {"name": "MaxPooling2D", "class_name": "MaxPooling2D", "config": {"name": "MaxPooling2D", "trainable": true, "pool_size": [2, 2], "padding": "valid", "strides": [2, 2], "data_format": "channels_last"}, "inbound_nodes": [[["Conv2D", 0, 0, {}]]]}], "input_layers": [["input_5", 0, 0]], "output_layers": [["MaxPooling2D", 0, 0]]}, "inbound_nodes": [[["model_softmod_task_00_node_09", 1, 0, {}]]]}, {"name": "model_softmod_task_00_node_02", "class_name": "Model", "config": {"name": "model_softmod_task_00_node_02", "layers": [{"name": "constant_input_softmod_task_00_node_02", "class_name": "InputLayer", "config": {"batch_input_shape": [null, 1], "dtype": "float32", "sparse": false, "name": "constant_input_softmod_task_00_node_02"}, "inbound_nodes": []}, {"name": "dense_softmod_task_00_node_02_block_00", "class_name": "Dense", "config": {"name": "dense_softmod_task_00_node_02_block_00", "trainable": true, "units": 1, "activation": "sigmoid", "use_bias": true, "kernel_initializer": {"class_name": "VarianceScaling", "config": {"scale": 1.0, "mode": "fan_avg", "distribution": "uniform", "seed": null}}, "bias_initializer": {"class_name": "Zeros", "config": {}}, "kernel_regularizer": null, "bias_regularizer": null, "activity_regularizer": null, "kernel_constraint": null, "bias_constraint": null}, "inbound_nodes": [[["constant_input_softmod_task_00_node_02", 0, 0, {}]]]}, {"name": "dense_softmod_task_00_node_02_block_01", "class_name": "Dense", "config": {"name": "dense_softmod_task_00_node_02_block_01", "trainable": true, "units": 1, "activation": "sigmoid", "use_bias": true, "kernel_initializer": {"class_name": "VarianceScaling", "config": {"scale": 1.0, "mode": "fan_avg", "distribution": "uniform", "seed": null}}, "bias_initializer": {"class_name": "Zeros", "config": {}}, "kernel_regularizer": null, "bias_regularizer": null, "activity_regularizer": null, "kernel_constraint": null, "bias_constraint": null}, "inbound_nodes": [[["constant_input_softmod_task_00_node_02", 0, 0, {}]]]}, {"name": "repeat_softmod_task_00_node_02_block_00", "class_name": "RepeatVector", "config": {"name": "repeat_softmod_task_00_node_02_block_00", "trainable": true, "n": 1176}, "inbound_nodes": [[["dense_softmod_task_00_node_02_block_00", 0, 0, {}]]]}, {"name": "repeat_softmod_task_00_node_02_block_01", "class_name": "RepeatVector", "config": {"name": "repeat_softmod_task_00_node_02_block_01", "trainable": true, "n": 1176}, "inbound_nodes": [[["dense_softmod_task_00_node_02_block_01", 0, 0, {}]]]}, {"name": "reshape_softmod_task_00_node_02_block_00", "class_name": "Reshape", "config": {"name": "reshape_softmod_task_00_node_02_block_00", "trainable": true, "target_shape": [7, 7, 24]}, "inbound_nodes": [[["repeat_softmod_task_00_node_02_block_00", 0, 0, {}]]]}, {"name": "output_input_softmod_task_00_node_02_block_00", "class_name": "InputLayer", "config": {"batch_input_shape": [null, 7, 7, 24], "dtype": "float32", "sparse": false, "name": "output_input_softmod_task_00_node_02_block_00"}, "inbound_nodes": []}, {"name": "reshape_softmod_task_00_node_02_block_01", "class_name": "Reshape", "config": {"name": "reshape_softmod_task_00_node_02_block_01", "trainable": true, "target_shape": [7, 7, 24]}, "inbound_nodes": [[["repeat_softmod_task_00_node_02_block_01", 0, 0, {}]]]}, {"name": "output_input_softmod_task_00_node_02_block_01", "class_name": "InputLayer", "config": {"batch_input_shape": [null, 7, 7, 24], "dtype": "float32", "sparse": false, "name": "output_input_softmod_task_00_node_02_block_01"}, "inbound_nodes": []}, {"name": "mult_softmod_task_00_node_02_block_00", "class_name": "Multiply", "config": {"name": "mult_softmod_task_00_node_02_block_00", "trainable": true}, "inbound_nodes": [[["reshape_softmod_task_00_node_02_block_00", 0, 0, {}], ["output_input_softmod_task_00_node_02_block_00", 0, 0, {}]]]}, {"name": "mult_softmod_task_00_node_02_block_01", "class_name": "Multiply", "config": {"name": "mult_softmod_task_00_node_02_block_01", "trainable": true}, "inbound_nodes": [[["reshape_softmod_task_00_node_02_block_01", 0, 0, {}], ["output_input_softmod_task_00_node_02_block_01", 0, 0, {}]]]}, {"name": "add_softmod_task_00_node_02", "class_name": "Add", "config": {"name": "add_softmod_task_00_node_02", "trainable": true}, "inbound_nodes": [[["mult_softmod_task_00_node_02_block_00", 0, 0, {}], ["mult_softmod_task_00_node_02_block_01", 0, 0, {}]]]}], "input_layers": [["constant_input_softmod_task_00_node_02", 0, 0], ["output_input_softmod_task_00_node_02_block_00", 0, 0], ["output_input_softmod_task_00_node_02_block_01", 0, 0]], "output_layers": [["add_softmod_task_00_node_02", 0, 0]]}, "inbound_nodes": [[["constant_input", 0, 0, {}], ["model_5_module_7_1_3", 1, 0, {}], ["model_5_module_7_1", 1, 0, {}]]]}, {"name": "flattendec_task_00_term_00", "class_name": "Flatten", "config": {"name": "flattendec_task_00_term_00", "trainable": true, "data_format": "channels_last"}, "inbound_nodes": [[["model_softmod_task_00_node_02", 1, 0, {}]]]}, {"name": "densedec_task_00_term_00", "class_name": "Dense", "config": {"name": "densedec_task_00_term_00", "trainable": true, "units": 7, "activation": "softmax", "use_bias": true, "kernel_initializer": {"class_name": "VarianceScaling", "config": {"scale": 1.0, "mode": "fan_avg", "distribution": "uniform", "seed": null}}, "bias_initializer": {"class_name": "Zeros", "config": {}}, "kernel_regularizer": null, "bias_regularizer": null, "activity_regularizer": null, "kernel_constraint": null, "bias_constraint": null}, "inbound_nodes": [[["flattendec_task_00_term_00", 0, 0, {}]]]}], "input_layers": [["constant_input", 0, 0], ["input_task_00_term_00", 0, 0]], "output_layers": [["densedec_task_00_term_00", 0, 0]]}, "keras_version": "2.2.4", "backend": "tensorflow"}
&&&&&&&&&&&&&&&&&&&&&&&&&&&&&&&&&&&&&&&&&&&&&&&&&&&&&&&&&&&&&&&&&&&&&&&&&&&&&&&&&&&&&&&&&&&&&&&&&&&&&&&&&&&&&&&&&&&&&&&&&&&&&&&
global_hyperparameters {'id': '9', 'learning_rate': 0.00017941124770046206}
&&&&&&&&&&&&&&&&&&&&&&&&&&&&&&&&&&&&&&&&&&&&&&&&&&&&&&&&&&&&&&&&&&&&&&&&&&&&&&&&&&&&&&&&&&&&&&&&&&&&&&&&&&&&&&&&&&&&&&&&&&&&&&&
domain_config {'dummy_load': False, 'local_data_cachedir': '~/enn_datacache', 'data_basedir': '/home/ubuntu/Data_face/', 'send_data': True, 'verbose': False, 'gpu_mem_frac': None, 'stop_cond': {'min_improve_hist_length': 999, 'min_improvement': 0, 'timeout_seconds': 999999}, 'evaluator_class_name': 'faceAgeEvaluator', 'dummy_run': 'real', 'train_dataset': 'train', 'test_dataset': 'test', 'subsample': True, 'subsample_amount': 5, 'test_subsample': True, 'test_subsample_amount': 5, 'num_iterations_per_epoch': 1, 'upload_best_model': False, 'upload_trained_model': False, 'custom_train_seed': None, 'test_val_only': True, 'test_every_epoch': False, 'checkpoint_dir': '.', 'timestamp_chkpt_dir': False, 'load_checkpoint': False, 'num_epochs': 1, 'batch_size': 5, 'checkpoint_interval': None, 'persist_weights': False, 'shuffle_data': False, 'train_abs_num_epochs': False, 'extra_config': None, 'info': {'image_size': 224, 'num_channels': 3, 'num_classes': 7, 'multitask': False, 'num_tasks': 1, 'loss_function': 'categorical_crossentropy', 'augment': False, 'test_augment': None, 'lr_scale': 1.0, 'lr_floor': 0.0, 'lr_decay': 10, 'lr_decay_amount': 0.1, 'encoder': None, 'encoder_layer_name': None, 'encoder_output_size': None, 'encoder_weights': None, 'enable_alt_obj': False, 'dummy_fitness': False, 'unzip_curr_dir': False, 'train_subsample_tau': 0.6}, 'filename_dict': {'datafile': 'images_224_compressed.tar.gz', 'partition': 'py3_chex_partition14_unormalized_cleaned.pickle', 'labels': 'py3_chex_labels14_unormalized_cleaned.pickle'}}
Using SeeNNModuleCatalog to draw candidate 9
&&&&&&&&&&&&&&&&&&&&&&&&&&&&&&&&&&&&&&&&&&&&&&&&&&&&&&&&&&&&&&&&&&&&&&&&&&&&&&&&&&&&&&&&&&&&&&&&&&&&&&&&&&&&&&&&&&&&&&&&&&&&&&&
model_json {"class_name": "Model", "config": {"name": "model_1", "layers": [{"name": "input_task_00_term_00", "class_name": "InputLayer", "config": {"batch_input_shape": [null, 224, 224, 3], "dtype": "float32", "sparse": false, "name": "input_task_00_term_00"}, "inbound_nodes": []}, {"name": "reshape1_enc_task_00_term_00", "class_name": "Reshape", "config": {"name": "reshape1_enc_task_00_term_00", "trainable": true, "target_shape": [224, 224, 3, 1]}, "inbound_nodes": [[["input_task_00_term_00", 0, 0, {}]]]}, {"name": "zeropad_enc_task_00_term_00", "class_name": "ZeroPadding3D", "config": {"name": "zeropad_enc_task_00_term_00", "trainable": true, "padding": [[0, 0], [0, 0], [0, 21]], "data_format": "channels_last"}, "inbound_nodes": [[["reshape1_enc_task_00_term_00", 0, 0, {}]]]}, {"name": "reshape2_enc_task_00_term_00", "class_name": "Reshape", "config": {"name": "reshape2_enc_task_00_term_00", "trainable": true, "target_shape": [224, 224, 24]}, "inbound_nodes": [[["zeropad_enc_task_00_term_00", 0, 0, {}]]]}, {"name": "model_1_module_7_1_5", "class_name": "Model", "config": {"name": "model_1_module_7_1_5", "layers": [{"name": "input_1", "class_name": "InputLayer", "config": {"batch_input_shape": [null, 224, 224, 24], "dtype": "float32", "sparse": false, "name": "input_1"}, "inbound_nodes": []}, {"name": "Conv2D", "class_name": "Conv2D", "config": {"name": "Conv2D", "trainable": true, "filters": 24, "kernel_size": [1, 1], "strides": [1, 1], "padding": "same", "data_format": "channels_last", "dilation_rate": [1, 1], "activation": "linear", "use_bias": true, "kernel_initializer": {"class_name": "VarianceScaling", "config": {"scale": 1.0, "mode": "fan_avg", "distribution": "uniform", "seed": null}}, "bias_initializer": {"class_name": "Zeros", "config": {}}, "kernel_regularizer": {"class_name": "L1L2", "config": {"l1": 0.0, "l2": 7.388308586087078e-05}}, "bias_regularizer": null, "activity_regularizer": null, "kernel_constraint": null, "bias_constraint": null}, "inbound_nodes": [[["input_1", 0, 0, {}]]]}, {"name": "MaxPooling2D", "class_name": "MaxPooling2D", "config": {"name": "MaxPooling2D", "trainable": true, "pool_size": [2, 2], "padding": "valid", "strides": [2, 2], "data_format": "channels_last"}, "inbound_nodes": [[["Conv2D", 0, 0, {}]]]}], "input_layers": [["input_1", 0, 0]], "output_layers": [["MaxPooling2D", 0, 0]]}, "inbound_nodes": [[["reshape2_enc_task_00_term_00", 0, 0, {}]]]}, {"name": "model_2_module_7_1", "class_name": "Model", "config": {"name": "model_2_module_7_1", "layers": [{"name": "input_2", "class_name": "InputLayer", "config": {"batch_input_shape": [null, 112, 112, 24], "dtype": "float32", "sparse": false, "name": "input_2"}, "inbound_nodes": []}, {"name": "Conv2D", "class_name": "Conv2D", "config": {"name": "Conv2D", "trainable": true, "filters": 24, "kernel_size": [1, 1], "strides": [1, 1], "padding": "same", "data_format": "channels_last", "dilation_rate": [1, 1], "activation": "linear", "use_bias": true, "kernel_initializer": {"class_name": "VarianceScaling", "config": {"scale": 1.0, "mode": "fan_avg", "distribution": "uniform", "seed": null}}, "bias_initializer": {"class_name": "Zeros", "config": {}}, "kernel_regularizer": {"class_name": "L1L2", "config": {"l1": 0.0, "l2": 7.388308586087078e-05}}, "bias_regularizer": null, "activity_regularizer": null, "kernel_constraint": null, "bias_constraint": null}, "inbound_nodes": [[["input_2", 0, 0, {}]]]}, {"name": "MaxPooling2D", "class_name": "MaxPooling2D", "config": {"name": "MaxPooling2D", "trainable": true, "pool_size": [2, 2], "padding": "valid", "strides": [2, 2], "data_format": "channels_last"}, "inbound_nodes": [[["Conv2D", 0, 0, {}]]]}], "input_layers": [["input_2", 0, 0]], "output_layers": [["MaxPooling2D", 0, 0]]}, "inbound_nodes": [[["model_1_module_7_1_5", 1, 0, {}]]]}, {"name": "model_2_module_7_1_7", "class_name": "Model", "config": {"name": "model_2_module_7_1_7", "layers": [{"name": "input_2", "class_name": "InputLayer", "config": {"batch_input_shape": [null, 112, 112, 24], "dtype": "float32", "sparse": false, "name": "input_2"}, "inbound_nodes": []}, {"name": "Conv2D", "class_name": "Conv2D", "config": {"name": "Conv2D", "trainable": true, "filters": 24, "kernel_size": [1, 1], "strides": [1, 1], "padding": "same", "data_format": "channels_last", "dilation_rate": [1, 1], "activation": "linear", "use_bias": true, "kernel_initializer": {"class_name": "VarianceScaling", "config": {"scale": 1.0, "mode": "fan_avg", "distribution": "uniform", "seed": null}}, "bias_initializer": {"class_name": "Zeros", "config": {}}, "kernel_regularizer": {"class_name": "L1L2", "config": {"l1": 0.0, "l2": 7.388308586087078e-05}}, "bias_regularizer": null, "activity_regularizer": null, "kernel_constraint": null, "bias_constraint": null}, "inbound_nodes": [[["input_2", 0, 0, {}]]]}, {"name": "MaxPooling2D", "class_name": "MaxPooling2D", "config": {"name": "MaxPooling2D", "trainable": true, "pool_size": [2, 2], "padding": "valid", "strides": [2, 2], "data_format": "channels_last"}, "inbound_nodes": [[["Conv2D", 0, 0, {}]]]}], "input_layers": [["input_2", 0, 0]], "output_layers": [["MaxPooling2D", 0, 0]]}, "inbound_nodes": [[["model_1_module_7_1_5", 1, 0, {}]]]}, {"name": "constant_input", "class_name": "InputLayer", "config": {"batch_input_shape": [null, 1], "dtype": "float32", "sparse": false, "name": "constant_input"}, "inbound_nodes": []}, {"name": "model_3_module_7_1_6", "class_name": "Model", "config": {"name": "model_3_module_7_1_6", "layers": [{"name": "input_3", "class_name": "InputLayer", "config": {"batch_input_shape": [null, 56, 56, 24], "dtype": "float32", "sparse": false, "name": "input_3"}, "inbound_nodes": []}, {"name": "Conv2D", "class_name": "Conv2D", "config": {"name": "Conv2D", "trainable": true, "filters": 24, "kernel_size": [1, 1], "strides": [1, 1], "padding": "same", "data_format": "channels_last", "dilation_rate": [1, 1], "activation": "linear", "use_bias": true, "kernel_initializer": {"class_name": "VarianceScaling", "config": {"scale": 1.0, "mode": "fan_avg", "distribution": "uniform", "seed": null}}, "bias_initializer": {"class_name": "Zeros", "config": {}}, "kernel_regularizer": {"class_name": "L1L2", "config": {"l1": 0.0, "l2": 7.388308586087078e-05}}, "bias_regularizer": null, "activity_regularizer": null, "kernel_constraint": null, "bias_constraint": null}, "inbound_nodes": [[["input_3", 0, 0, {}]]]}, {"name": "MaxPooling2D", "class_name": "MaxPooling2D", "config": {"name": "MaxPooling2D", "trainable": true, "pool_size": [2, 2], "padding": "valid", "strides": [2, 2], "data_format": "channels_last"}, "inbound_nodes": [[["Conv2D", 0, 0, {}]]]}], "input_layers": [["input_3", 0, 0]], "output_layers": [["MaxPooling2D", 0, 0]]}, "inbound_nodes": [[["model_2_module_7_1", 1, 0, {}]]]}, {"name": "maxpool_task_00_node_04_block_01", "class_name": "MaxPooling2D", "config": {"name": "maxpool_task_00_node_04_block_01", "trainable": true, "pool_size": [2, 2], "padding": "valid", "strides": [2, 2], "data_format": "channels_last"}, "inbound_nodes": [[["model_2_module_7_1_7", 1, 0, {}]]]}, {"name": "model_softmod_task_00_node_04", "class_name": "Model", "config": {"name": "model_softmod_task_00_node_04", "layers": [{"name": "constant_input_softmod_task_00_node_04", "class_name": "InputLayer", "config": {"batch_input_shape": [null, 1], "dtype": "float32", "sparse": false, "name": "constant_input_softmod_task_00_node_04"}, "inbound_nodes": []}, {"name": "dense_softmod_task_00_node_04_block_00", "class_name": "Dense", "config": {"name": "dense_softmod_task_00_node_04_block_00", "trainable": true, "units": 1, "activation": "sigmoid", "use_bias": true, "kernel_initializer": {"class_name": "VarianceScaling", "config": {"scale": 1.0, "mode": "fan_avg", "distribution": "uniform", "seed": null}}, "bias_initializer": {"class_name": "Zeros", "config": {}}, "kernel_regularizer": null, "bias_regularizer": null, "activity_regularizer": null, "kernel_constraint": null, "bias_constraint": null}, "inbound_nodes": [[["constant_input_softmod_task_00_node_04", 0, 0, {}]]]}, {"name": "dense_softmod_task_00_node_04_block_01", "class_name": "Dense", "config": {"name": "dense_softmod_task_00_node_04_block_01", "trainable": true, "units": 1, "activation": "sigmoid", "use_bias": true, "kernel_initializer": {"class_name": "VarianceScaling", "config": {"scale": 1.0, "mode": "fan_avg", "distribution": "uniform", "seed": null}}, "bias_initializer": {"class_name": "Zeros", "config": {}}, "kernel_regularizer": null, "bias_regularizer": null, "activity_regularizer": null, "kernel_constraint": null, "bias_constraint": null}, "inbound_nodes": [[["constant_input_softmod_task_00_node_04", 0, 0, {}]]]}, {"name": "repeat_softmod_task_00_node_04_block_00", "class_name": "RepeatVector", "config": {"name": "repeat_softmod_task_00_node_04_block_00", "trainable": true, "n": 18816}, "inbound_nodes": [[["dense_softmod_task_00_node_04_block_00", 0, 0, {}]]]}, {"name": "repeat_softmod_task_00_node_04_block_01", "class_name": "RepeatVector", "config": {"name": "repeat_softmod_task_00_node_04_block_01", "trainable": true, "n": 18816}, "inbound_nodes": [[["dense_softmod_task_00_node_04_block_01", 0, 0, {}]]]}, {"name": "reshape_softmod_task_00_node_04_block_00", "class_name": "Reshape", "config": {"name": "reshape_softmod_task_00_node_04_block_00", "trainable": true, "target_shape": [28, 28, 24]}, "inbound_nodes": [[["repeat_softmod_task_00_node_04_block_00", 0, 0, {}]]]}, {"name": "output_input_softmod_task_00_node_04_block_00", "class_name": "InputLayer", "config": {"batch_input_shape": [null, 28, 28, 24], "dtype": "float32", "sparse": false, "name": "output_input_softmod_task_00_node_04_block_00"}, "inbound_nodes": []}, {"name": "reshape_softmod_task_00_node_04_block_01", "class_name": "Reshape", "config": {"name": "reshape_softmod_task_00_node_04_block_01", "trainable": true, "target_shape": [28, 28, 24]}, "inbound_nodes": [[["repeat_softmod_task_00_node_04_block_01", 0, 0, {}]]]}, {"name": "output_input_softmod_task_00_node_04_block_01", "class_name": "InputLayer", "config": {"batch_input_shape": [null, 28, 28, 24], "dtype": "float32", "sparse": false, "name": "output_input_softmod_task_00_node_04_block_01"}, "inbound_nodes": []}, {"name": "mult_softmod_task_00_node_04_block_00", "class_name": "Multiply", "config": {"name": "mult_softmod_task_00_node_04_block_00", "trainable": true}, "inbound_nodes": [[["reshape_softmod_task_00_node_04_block_00", 0, 0, {}], ["output_input_softmod_task_00_node_04_block_00", 0, 0, {}]]]}, {"name": "mult_softmod_task_00_node_04_block_01", "class_name": "Multiply", "config": {"name": "mult_softmod_task_00_node_04_block_01", "trainable": true}, "inbound_nodes": [[["reshape_softmod_task_00_node_04_block_01", 0, 0, {}], ["output_input_softmod_task_00_node_04_block_01", 0, 0, {}]]]}, {"name": "add_softmod_task_00_node_04", "class_name": "Add", "config": {"name": "add_softmod_task_00_node_04", "trainable": true}, "inbound_nodes": [[["mult_softmod_task_00_node_04_block_00", 0, 0, {}], ["mult_softmod_task_00_node_04_block_01", 0, 0, {}]]]}], "input_layers": [["constant_input_softmod_task_00_node_04", 0, 0], ["output_input_softmod_task_00_node_04_block_00", 0, 0], ["output_input_softmod_task_00_node_04_block_01", 0, 0]], "output_layers": [["add_softmod_task_00_node_04", 0, 0]]}, "inbound_nodes": [[["constant_input", 0, 0, {}], ["model_3_module_7_1_6", 1, 0, {}], ["maxpool_task_00_node_04_block_01", 0, 0, {}]]]}, {"name": "model_4_module_7_1", "class_name": "Model", "config": {"name": "model_4_module_7_1", "layers": [{"name": "input_4", "class_name": "InputLayer", "config": {"batch_input_shape": [null, 28, 28, 24], "dtype": "float32", "sparse": false, "name": "input_4"}, "inbound_nodes": []}, {"name": "Conv2D", "class_name": "Conv2D", "config": {"name": "Conv2D", "trainable": true, "filters": 24, "kernel_size": [1, 1], "strides": [1, 1], "padding": "same", "data_format": "channels_last", "dilation_rate": [1, 1], "activation": "linear", "use_bias": true, "kernel_initializer": {"class_name": "VarianceScaling", "config": {"scale": 1.0, "mode": "fan_avg", "distribution": "uniform", "seed": null}}, "bias_initializer": {"class_name": "Zeros", "config": {}}, "kernel_regularizer": {"class_name": "L1L2", "config": {"l1": 0.0, "l2": 7.388308586087078e-05}}, "bias_regularizer": null, "activity_regularizer": null, "kernel_constraint": null, "bias_constraint": null}, "inbound_nodes": [[["input_4", 0, 0, {}]]]}, {"name": "MaxPooling2D", "class_name": "MaxPooling2D", "config": {"name": "MaxPooling2D", "trainable": true, "pool_size": [2, 2], "padding": "valid", "strides": [2, 2], "data_format": "channels_last"}, "inbound_nodes": [[["Conv2D", 0, 0, {}]]]}], "input_layers": [["input_4", 0, 0]], "output_layers": [["MaxPooling2D", 0, 0]]}, "inbound_nodes": [[["model_softmod_task_00_node_04", 1, 0, {}]]]}, {"name": "maxpool_task_00_node_03_block_01", "class_name": "MaxPooling2D", "config": {"name": "maxpool_task_00_node_03_block_01", "trainable": true, "pool_size": [4, 4], "padding": "valid", "strides": [4, 4], "data_format": "channels_last"}, "inbound_nodes": [[["model_2_module_7_1_7", 1, 0, {}]]]}, {"name": "maxpool_task_00_node_09_block_01", "class_name": "MaxPooling2D", "config": {"name": "maxpool_task_00_node_09_block_01", "trainable": true, "pool_size": [16, 16], "padding": "valid", "strides": [16, 16], "data_format": "channels_last"}, "inbound_nodes": [[["reshape2_enc_task_00_term_00", 0, 0, {}]]]}, {"name": "model_softmod_task_00_node_03", "class_name": "Model", "config": {"name": "model_softmod_task_00_node_03", "layers": [{"name": "constant_input_softmod_task_00_node_03", "class_name": "InputLayer", "config": {"batch_input_shape": [null, 1], "dtype": "float32", "sparse": false, "name": "constant_input_softmod_task_00_node_03"}, "inbound_nodes": []}, {"name": "dense_softmod_task_00_node_03_block_00", "class_name": "Dense", "config": {"name": "dense_softmod_task_00_node_03_block_00", "trainable": true, "units": 1, "activation": "sigmoid", "use_bias": true, "kernel_initializer": {"class_name": "VarianceScaling", "config": {"scale": 1.0, "mode": "fan_avg", "distribution": "uniform", "seed": null}}, "bias_initializer": {"class_name": "Zeros", "config": {}}, "kernel_regularizer": null, "bias_regularizer": null, "activity_regularizer": null, "kernel_constraint": null, "bias_constraint": null}, "inbound_nodes": [[["constant_input_softmod_task_00_node_03", 0, 0, {}]]]}, {"name": "dense_softmod_task_00_node_03_block_01", "class_name": "Dense", "config": {"name": "dense_softmod_task_00_node_03_block_01", "trainable": true, "units": 1, "activation": "sigmoid", "use_bias": true, "kernel_initializer": {"class_name": "VarianceScaling", "config": {"scale": 1.0, "mode": "fan_avg", "distribution": "uniform", "seed": null}}, "bias_initializer": {"class_name": "Zeros", "config": {}}, "kernel_regularizer": null, "bias_regularizer": null, "activity_regularizer": null, "kernel_constraint": null, "bias_constraint": null}, "inbound_nodes": [[["constant_input_softmod_task_00_node_03", 0, 0, {}]]]}, {"name": "repeat_softmod_task_00_node_03_block_00", "class_name": "RepeatVector", "config": {"name": "repeat_softmod_task_00_node_03_block_00", "trainable": true, "n": 4704}, "inbound_nodes": [[["dense_softmod_task_00_node_03_block_00", 0, 0, {}]]]}, {"name": "repeat_softmod_task_00_node_03_block_01", "class_name": "RepeatVector", "config": {"name": "repeat_softmod_task_00_node_03_block_01", "trainable": true, "n": 4704}, "inbound_nodes": [[["dense_softmod_task_00_node_03_block_01", 0, 0, {}]]]}, {"name": "reshape_softmod_task_00_node_03_block_00", "class_name": "Reshape", "config": {"name": "reshape_softmod_task_00_node_03_block_00", "trainable": true, "target_shape": [14, 14, 24]}, "inbound_nodes": [[["repeat_softmod_task_00_node_03_block_00", 0, 0, {}]]]}, {"name": "output_input_softmod_task_00_node_03_block_00", "class_name": "InputLayer", "config": {"batch_input_shape": [null, 14, 14, 24], "dtype": "float32", "sparse": false, "name": "output_input_softmod_task_00_node_03_block_00"}, "inbound_nodes": []}, {"name": "reshape_softmod_task_00_node_03_block_01", "class_name": "Reshape", "config": {"name": "reshape_softmod_task_00_node_03_block_01", "trainable": true, "target_shape": [14, 14, 24]}, "inbound_nodes": [[["repeat_softmod_task_00_node_03_block_01", 0, 0, {}]]]}, {"name": "output_input_softmod_task_00_node_03_block_01", "class_name": "InputLayer", "config": {"batch_input_shape": [null, 14, 14, 24], "dtype": "float32", "sparse": false, "name": "output_input_softmod_task_00_node_03_block_01"}, "inbound_nodes": []}, {"name": "mult_softmod_task_00_node_03_block_00", "class_name": "Multiply", "config": {"name": "mult_softmod_task_00_node_03_block_00", "trainable": true}, "inbound_nodes": [[["reshape_softmod_task_00_node_03_block_00", 0, 0, {}], ["output_input_softmod_task_00_node_03_block_00", 0, 0, {}]]]}, {"name": "mult_softmod_task_00_node_03_block_01", "class_name": "Multiply", "config": {"name": "mult_softmod_task_00_node_03_block_01", "trainable": true}, "inbound_nodes": [[["reshape_softmod_task_00_node_03_block_01", 0, 0, {}], ["output_input_softmod_task_00_node_03_block_01", 0, 0, {}]]]}, {"name": "add_softmod_task_00_node_03", "class_name": "Add", "config": {"name": "add_softmod_task_00_node_03", "trainable": true}, "inbound_nodes": [[["mult_softmod_task_00_node_03_block_00", 0, 0, {}], ["mult_softmod_task_00_node_03_block_01", 0, 0, {}]]]}], "input_layers": [["constant_input_softmod_task_00_node_03", 0, 0], ["output_input_softmod_task_00_node_03_block_00", 0, 0], ["output_input_softmod_task_00_node_03_block_01", 0, 0]], "output_layers": [["add_softmod_task_00_node_03", 0, 0]]}, "inbound_nodes": [[["constant_input", 0, 0, {}], ["model_4_module_7_1", 1, 0, {}], ["maxpool_task_00_node_03_block_01", 0, 0, {}]]]}, {"name": "model_softmod_task_00_node_09", "class_name": "Model", "config": {"name": "model_softmod_task_00_node_09", "layers": [{"name": "constant_input_softmod_task_00_node_09", "class_name": "InputLayer", "config": {"batch_input_shape": [null, 1], "dtype": "float32", "sparse": false, "name": "constant_input_softmod_task_00_node_09"}, "inbound_nodes": []}, {"name": "dense_softmod_task_00_node_09_block_00", "class_name": "Dense", "config": {"name": "dense_softmod_task_00_node_09_block_00", "trainable": true, "units": 1, "activation": "sigmoid", "use_bias": true, "kernel_initializer": {"class_name": "VarianceScaling", "config": {"scale": 1.0, "mode": "fan_avg", "distribution": "uniform", "seed": null}}, "bias_initializer": {"class_name": "Zeros", "config": {}}, "kernel_regularizer": null, "bias_regularizer": null, "activity_regularizer": null, "kernel_constraint": null, "bias_constraint": null}, "inbound_nodes": [[["constant_input_softmod_task_00_node_09", 0, 0, {}]]]}, {"name": "dense_softmod_task_00_node_09_block_01", "class_name": "Dense", "config": {"name": "dense_softmod_task_00_node_09_block_01", "trainable": true, "units": 1, "activation": "sigmoid", "use_bias": true, "kernel_initializer": {"class_name": "VarianceScaling", "config": {"scale": 1.0, "mode": "fan_avg", "distribution": "uniform", "seed": null}}, "bias_initializer": {"class_name": "Zeros", "config": {}}, "kernel_regularizer": null, "bias_regularizer": null, "activity_regularizer": null, "kernel_constraint": null, "bias_constraint": null}, "inbound_nodes": [[["constant_input_softmod_task_00_node_09", 0, 0, {}]]]}, {"name": "repeat_softmod_task_00_node_09_block_00", "class_name": "RepeatVector", "config": {"name": "repeat_softmod_task_00_node_09_block_00", "trainable": true, "n": 4704}, "inbound_nodes": [[["dense_softmod_task_00_node_09_block_00", 0, 0, {}]]]}, {"name": "repeat_softmod_task_00_node_09_block_01", "class_name": "RepeatVector", "config": {"name": "repeat_softmod_task_00_node_09_block_01", "trainable": true, "n": 4704}, "inbound_nodes": [[["dense_softmod_task_00_node_09_block_01", 0, 0, {}]]]}, {"name": "reshape_softmod_task_00_node_09_block_00", "class_name": "Reshape", "config": {"name": "reshape_softmod_task_00_node_09_block_00", "trainable": true, "target_shape": [14, 14, 24]}, "inbound_nodes": [[["repeat_softmod_task_00_node_09_block_00", 0, 0, {}]]]}, {"name": "output_input_softmod_task_00_node_09_block_00", "class_name": "InputLayer", "config": {"batch_input_shape": [null, 14, 14, 24], "dtype": "float32", "sparse": false, "name": "output_input_softmod_task_00_node_09_block_00"}, "inbound_nodes": []}, {"name": "reshape_softmod_task_00_node_09_block_01", "class_name": "Reshape", "config": {"name": "reshape_softmod_task_00_node_09_block_01", "trainable": true, "target_shape": [14, 14, 24]}, "inbound_nodes": [[["repeat_softmod_task_00_node_09_block_01", 0, 0, {}]]]}, {"name": "output_input_softmod_task_00_node_09_block_01", "class_name": "InputLayer", "config": {"batch_input_shape": [null, 14, 14, 24], "dtype": "float32", "sparse": false, "name": "output_input_softmod_task_00_node_09_block_01"}, "inbound_nodes": []}, {"name": "mult_softmod_task_00_node_09_block_00", "class_name": "Multiply", "config": {"name": "mult_softmod_task_00_node_09_block_00", "trainable": true}, "inbound_nodes": [[["reshape_softmod_task_00_node_09_block_00", 0, 0, {}], ["output_input_softmod_task_00_node_09_block_00", 0, 0, {}]]]}, {"name": "mult_softmod_task_00_node_09_block_01", "class_name": "Multiply", "config": {"name": "mult_softmod_task_00_node_09_block_01", "trainable": true}, "inbound_nodes": [[["reshape_softmod_task_00_node_09_block_01", 0, 0, {}], ["output_input_softmod_task_00_node_09_block_01", 0, 0, {}]]]}, {"name": "add_softmod_task_00_node_09", "class_name": "Add", "config": {"name": "add_softmod_task_00_node_09", "trainable": true}, "inbound_nodes": [[["mult_softmod_task_00_node_09_block_00", 0, 0, {}], ["mult_softmod_task_00_node_09_block_01", 0, 0, {}]]]}], "input_layers": [["constant_input_softmod_task_00_node_09", 0, 0], ["output_input_softmod_task_00_node_09_block_00", 0, 0], ["output_input_softmod_task_00_node_09_block_01", 0, 0]], "output_layers": [["add_softmod_task_00_node_09", 0, 0]]}, "inbound_nodes": [[["constant_input", 0, 0, {}], ["model_4_module_7_1", 1, 0, {}], ["maxpool_task_00_node_09_block_01", 0, 0, {}]]]}, {"name": "model_5_module_7_1_3", "class_name": "Model", "config": {"name": "model_5_module_7_1_3", "layers": [{"name": "input_5", "class_name": "InputLayer", "config": {"batch_input_shape": [null, 14, 14, 24], "dtype": "float32", "sparse": false, "name": "input_5"}, "inbound_nodes": []}, {"name": "Conv2D", "class_name": "Conv2D", "config": {"name": "Conv2D", "trainable": true, "filters": 24, "kernel_size": [1, 1], "strides": [1, 1], "padding": "same", "data_format": "channels_last", "dilation_rate": [1, 1], "activation": "linear", "use_bias": true, "kernel_initializer": {"class_name": "VarianceScaling", "config": {"scale": 1.0, "mode": "fan_avg", "distribution": "uniform", "seed": null}}, "bias_initializer": {"class_name": "Zeros", "config": {}}, "kernel_regularizer": {"class_name": "L1L2", "config": {"l1": 0.0, "l2": 7.388308586087078e-05}}, "bias_regularizer": null, "activity_regularizer": null, "kernel_constraint": null, "bias_constraint": null}, "inbound_nodes": [[["input_5", 0, 0, {}]]]}, {"name": "MaxPooling2D", "class_name": "MaxPooling2D", "config": {"name": "MaxPooling2D", "trainable": true, "pool_size": [2, 2], "padding": "valid", "strides": [2, 2], "data_format": "channels_last"}, "inbound_nodes": [[["Conv2D", 0, 0, {}]]]}], "input_layers": [["input_5", 0, 0]], "output_layers": [["MaxPooling2D", 0, 0]]}, "inbound_nodes": [[["model_softmod_task_00_node_03", 1, 0, {}]]]}, {"name": "model_5_module_7_1", "class_name": "Model", "config": {"name": "model_5_module_7_1", "layers": [{"name": "input_5", "class_name": "InputLayer", "config": {"batch_input_shape": [null, 14, 14, 24], "dtype": "float32", "sparse": false, "name": "input_5"}, "inbound_nodes": []}, {"name": "Conv2D", "class_name": "Conv2D", "config": {"name": "Conv2D", "trainable": true, "filters": 24, "kernel_size": [1, 1], "strides": [1, 1], "padding": "same", "data_format": "channels_last", "dilation_rate": [1, 1], "activation": "linear", "use_bias": true, "kernel_initializer": {"class_name": "VarianceScaling", "config": {"scale": 1.0, "mode": "fan_avg", "distribution": "uniform", "seed": null}}, "bias_initializer": {"class_name": "Zeros", "config": {}}, "kernel_regularizer": {"class_name": "L1L2", "config": {"l1": 0.0, "l2": 7.388308586087078e-05}}, "bias_regularizer": null, "activity_regularizer": null, "kernel_constraint": null, "bias_constraint": null}, "inbound_nodes": [[["input_5", 0, 0, {}]]]}, {"name": "MaxPooling2D", "class_name": "MaxPooling2D", "config": {"name": "MaxPooling2D", "trainable": true, "pool_size": [2, 2], "padding": "valid", "strides": [2, 2], "data_format": "channels_last"}, "inbound_nodes": [[["Conv2D", 0, 0, {}]]]}], "input_layers": [["input_5", 0, 0]], "output_layers": [["MaxPooling2D", 0, 0]]}, "inbound_nodes": [[["model_softmod_task_00_node_09", 1, 0, {}]]]}, {"name": "model_softmod_task_00_node_02", "class_name": "Model", "config": {"name": "model_softmod_task_00_node_02", "layers": [{"name": "constant_input_softmod_task_00_node_02", "class_name": "InputLayer", "config": {"batch_input_shape": [null, 1], "dtype": "float32", "sparse": false, "name": "constant_input_softmod_task_00_node_02"}, "inbound_nodes": []}, {"name": "dense_softmod_task_00_node_02_block_00", "class_name": "Dense", "config": {"name": "dense_softmod_task_00_node_02_block_00", "trainable": true, "units": 1, "activation": "sigmoid", "use_bias": true, "kernel_initializer": {"class_name": "VarianceScaling", "config": {"scale": 1.0, "mode": "fan_avg", "distribution": "uniform", "seed": null}}, "bias_initializer": {"class_name": "Zeros", "config": {}}, "kernel_regularizer": null, "bias_regularizer": null, "activity_regularizer": null, "kernel_constraint": null, "bias_constraint": null}, "inbound_nodes": [[["constant_input_softmod_task_00_node_02", 0, 0, {}]]]}, {"name": "dense_softmod_task_00_node_02_block_01", "class_name": "Dense", "config": {"name": "dense_softmod_task_00_node_02_block_01", "trainable": true, "units": 1, "activation": "sigmoid", "use_bias": true, "kernel_initializer": {"class_name": "VarianceScaling", "config": {"scale": 1.0, "mode": "fan_avg", "distribution": "uniform", "seed": null}}, "bias_initializer": {"class_name": "Zeros", "config": {}}, "kernel_regularizer": null, "bias_regularizer": null, "activity_regularizer": null, "kernel_constraint": null, "bias_constraint": null}, "inbound_nodes": [[["constant_input_softmod_task_00_node_02", 0, 0, {}]]]}, {"name": "repeat_softmod_task_00_node_02_block_00", "class_name": "RepeatVector", "config": {"name": "repeat_softmod_task_00_node_02_block_00", "trainable": true, "n": 1176}, "inbound_nodes": [[["dense_softmod_task_00_node_02_block_00", 0, 0, {}]]]}, {"name": "repeat_softmod_task_00_node_02_block_01", "class_name": "RepeatVector", "config": {"name": "repeat_softmod_task_00_node_02_block_01", "trainable": true, "n": 1176}, "inbound_nodes": [[["dense_softmod_task_00_node_02_block_01", 0, 0, {}]]]}, {"name": "reshape_softmod_task_00_node_02_block_00", "class_name": "Reshape", "config": {"name": "reshape_softmod_task_00_node_02_block_00", "trainable": true, "target_shape": [7, 7, 24]}, "inbound_nodes": [[["repeat_softmod_task_00_node_02_block_00", 0, 0, {}]]]}, {"name": "output_input_softmod_task_00_node_02_block_00", "class_name": "InputLayer", "config": {"batch_input_shape": [null, 7, 7, 24], "dtype": "float32", "sparse": false, "name": "output_input_softmod_task_00_node_02_block_00"}, "inbound_nodes": []}, {"name": "reshape_softmod_task_00_node_02_block_01", "class_name": "Reshape", "config": {"name": "reshape_softmod_task_00_node_02_block_01", "trainable": true, "target_shape": [7, 7, 24]}, "inbound_nodes": [[["repeat_softmod_task_00_node_02_block_01", 0, 0, {}]]]}, {"name": "output_input_softmod_task_00_node_02_block_01", "class_name": "InputLayer", "config": {"batch_input_shape": [null, 7, 7, 24], "dtype": "float32", "sparse": false, "name": "output_input_softmod_task_00_node_02_block_01"}, "inbound_nodes": []}, {"name": "mult_softmod_task_00_node_02_block_00", "class_name": "Multiply", "config": {"name": "mult_softmod_task_00_node_02_block_00", "trainable": true}, "inbound_nodes": [[["reshape_softmod_task_00_node_02_block_00", 0, 0, {}], ["output_input_softmod_task_00_node_02_block_00", 0, 0, {}]]]}, {"name": "mult_softmod_task_00_node_02_block_01", "class_name": "Multiply", "config": {"name": "mult_softmod_task_00_node_02_block_01", "trainable": true}, "inbound_nodes": [[["reshape_softmod_task_00_node_02_block_01", 0, 0, {}], ["output_input_softmod_task_00_node_02_block_01", 0, 0, {}]]]}, {"name": "add_softmod_task_00_node_02", "class_name": "Add", "config": {"name": "add_softmod_task_00_node_02", "trainable": true}, "inbound_nodes": [[["mult_softmod_task_00_node_02_block_00", 0, 0, {}], ["mult_softmod_task_00_node_02_block_01", 0, 0, {}]]]}], "input_layers": [["constant_input_softmod_task_00_node_02", 0, 0], ["output_input_softmod_task_00_node_02_block_00", 0, 0], ["output_input_softmod_task_00_node_02_block_01", 0, 0]], "output_layers": [["add_softmod_task_00_node_02", 0, 0]]}, "inbound_nodes": [[["constant_input", 0, 0, {}], ["model_5_module_7_1_3", 1, 0, {}], ["model_5_module_7_1", 1, 0, {}]]]}, {"name": "flattendec_task_00_term_00", "class_name": "Flatten", "config": {"name": "flattendec_task_00_term_00", "trainable": true, "data_format": "channels_last"}, "inbound_nodes": [[["model_softmod_task_00_node_02", 1, 0, {}]]]}, {"name": "densedec_task_00_term_00", "class_name": "Dense", "config": {"name": "densedec_task_00_term_00", "trainable": true, "units": 7, "activation": "softmax", "use_bias": true, "kernel_initializer": {"class_name": "VarianceScaling", "config": {"scale": 1.0, "mode": "fan_avg", "distribution": "uniform", "seed": null}}, "bias_initializer": {"class_name": "Zeros", "config": {}}, "kernel_regularizer": null, "bias_regularizer": null, "activity_regularizer": null, "kernel_constraint": null, "bias_constraint": null}, "inbound_nodes": [[["flattendec_task_00_term_00", 0, 0, {}]]]}], "input_layers": [["constant_input", 0, 0], ["input_task_00_term_00", 0, 0]], "output_layers": [["densedec_task_00_term_00", 0, 0]]}, "keras_version": "2.2.4", "backend": "tensorflow"}
&&&&&&&&&&&&&&&&&&&&&&&&&&&&&&&&&&&&&&&&&&&&&&&&&&&&&&&&&&&&&&&&&&&&&&&&&&&&&&&&&&&&&&&&&&&&&&&&&&&&&&&&&&&&&&&&&&&&&&&&&&&&&&&
global_hyperparameters {'id': '9', 'learning_rate': 0.00017941124770046206}
&&&&&&&&&&&&&&&&&&&&&&&&&&&&&&&&&&&&&&&&&&&&&&&&&&&&&&&&&&&&&&&&&&&&&&&&&&&&&&&&&&&&&&&&&&&&&&&&&&&&&&&&&&&&&&&&&&&&&&&&&&&&&&&
domain_config {'dummy_load': False, 'local_data_cachedir': '~/enn_datacache', 'data_basedir': '/home/ubuntu/Data_face/', 'send_data': True, 'verbose': False, 'gpu_mem_frac': None, 'stop_cond': {'min_improve_hist_length': 999, 'min_improvement': 0, 'timeout_seconds': 999999}, 'evaluator_class_name': 'faceAgeEvaluator', 'dummy_run': 'real', 'train_dataset': 'train', 'test_dataset': 'test', 'subsample': True, 'subsample_amount': 5, 'test_subsample': True, 'test_subsample_amount': 5, 'num_iterations_per_epoch': 1, 'upload_best_model': False, 'upload_trained_model': False, 'custom_train_seed': None, 'test_val_only': True, 'test_every_epoch': False, 'checkpoint_dir': '.', 'timestamp_chkpt_dir': False, 'load_checkpoint': False, 'num_epochs': 1, 'batch_size': 5, 'checkpoint_interval': None, 'persist_weights': False, 'shuffle_data': False, 'train_abs_num_epochs': False, 'extra_config': None, 'info': {'image_size': 224, 'num_channels': 3, 'num_classes': 7, 'multitask': False, 'num_tasks': 1, 'loss_function': 'categorical_crossentropy', 'augment': False, 'test_augment': None, 'lr_scale': 1.0, 'lr_floor': 0.0, 'lr_decay': 10, 'lr_decay_amount': 0.1, 'encoder': None, 'encoder_layer_name': None, 'encoder_output_size': None, 'encoder_weights': None, 'enable_alt_obj': False, 'dummy_fitness': False, 'unzip_curr_dir': False, 'train_subsample_tau': 0.6}, 'filename_dict': {'datafile': 'images_224_compressed.tar.gz', 'partition': 'py3_chex_partition14_unormalized_cleaned.pickle', 'labels': 'py3_chex_labels14_unormalized_cleaned.pickle'}}
Calling next_population() on the ENN Population Submission Service
Connecting to ENN Population Submission Service on test-v10.enn.evolution.ml:80 ...
Connected to ENN Population Submission Service on test-v10.enn.evolution.ml:80.
Calling get_population() on the ENN Population Submission Service
Connecting to ENN Population Submission Service on test-v10.enn.evolution.ml:80 ...
Connected to ENN Population Submission Service on test-v10.enn.evolution.ml:80.
Successfully called next_population().
Processing generation at checkpoint checkpoint_1

2019-09-17 04:28:06 PDT-0700
studio run: submitted experiment completion_service_509868-CTStexttest-faceAge-test-config-201909171126-e890cd58-0891-4b3b-9f77-c5dd53ec7606_11

1/2 [==============>...............] - ETA: 1sstudio run: submitted experiment completion_service_509868-CTStexttest-faceAge-test-config-201909171126-e890cd58-0891-4b3b-9f77-c5dd53ec7606_12

2/2 [==============================] - 2s 1s/step
sent 2 messages for gen 1 at 2019-09-17 04:28:08 PDT-0700
elapsed time/fitness/epochs trained:
[(13, 0.8928571428571429, 1), (13, 0.8531746031746031, 1)]
mean individual evaluation time: 13.0
median individual evaluation time: 13.0
std of individual evaluation time: 0.0
mean throughput: 0.204
Population evaluation time:  63.8
visualizing stats
Using SeeNN to draw candidate 11
&&&&&&&&&&&&&&&&&&&&&&&&&&&&&&&&&&&&&&&&&&&&&&&&&&&&&&&&&&&&&&&&&&&&&&&&&&&&&&&&&&&&&&&&&&&&&&&&&&&&&&&&&&&&&&&&&&&&&&&&&&&&&&&
model_json {"class_name": "Model", "config": {"name": "model_1", "layers": [{"name": "input_task_00_term_00", "class_name": "InputLayer", "config": {"batch_input_shape": [null, 224, 224, 3], "dtype": "float32", "sparse": false, "name": "input_task_00_term_00"}, "inbound_nodes": []}, {"name": "reshape1_enc_task_00_term_00", "class_name": "Reshape", "config": {"name": "reshape1_enc_task_00_term_00", "trainable": true, "target_shape": [224, 224, 3, 1]}, "inbound_nodes": [[["input_task_00_term_00", 0, 0, {}]]]}, {"name": "zeropad_enc_task_00_term_00", "class_name": "ZeroPadding3D", "config": {"name": "zeropad_enc_task_00_term_00", "trainable": true, "padding": [[0, 0], [0, 0], [0, 21]], "data_format": "channels_last"}, "inbound_nodes": [[["reshape1_enc_task_00_term_00", 0, 0, {}]]]}, {"name": "reshape2_enc_task_00_term_00", "class_name": "Reshape", "config": {"name": "reshape2_enc_task_00_term_00", "trainable": true, "target_shape": [224, 224, 24]}, "inbound_nodes": [[["zeropad_enc_task_00_term_00", 0, 0, {}]]]}, {"name": "model_1_module_13_1_5", "class_name": "Model", "config": {"name": "model_1_module_13_1_5", "layers": [{"name": "input_1", "class_name": "InputLayer", "config": {"batch_input_shape": [null, 224, 224, 24], "dtype": "float32", "sparse": false, "name": "input_1"}, "inbound_nodes": []}, {"name": "layer_3_Conv2D_0", "class_name": "Conv2D", "config": {"name": "layer_3_Conv2D_0", "trainable": true, "filters": 3, "kernel_size": [1, 1], "strides": [1, 1], "padding": "same", "data_format": "channels_last", "dilation_rate": [1, 1], "activation": "elu", "use_bias": true, "kernel_initializer": {"class_name": "VarianceScaling", "config": {"scale": 1.0, "mode": "fan_avg", "distribution": "normal", "seed": null}}, "bias_initializer": {"class_name": "Zeros", "config": {}}, "kernel_regularizer": {"class_name": "L1L2", "config": {"l1": 0.0, "l2": 0.00016678252723068}}, "bias_regularizer": null, "activity_regularizer": null, "kernel_constraint": null, "bias_constraint": null}, "inbound_nodes": [[["input_1", 0, 0, {}]]]}, {"name": "layer_3_Dropout_1", "class_name": "Dropout", "config": {"name": "layer_3_Dropout_1", "trainable": true, "rate": 0.304616498040077, "noise_shape": null, "seed": null}, "inbound_nodes": [[["layer_3_Conv2D_0", 0, 0, {}]]]}, {"name": "Conv2D", "class_name": "Conv2D", "config": {"name": "Conv2D", "trainable": true, "filters": 24, "kernel_size": [1, 1], "strides": [1, 1], "padding": "same", "data_format": "channels_last", "dilation_rate": [1, 1], "activation": "linear", "use_bias": true, "kernel_initializer": {"class_name": "VarianceScaling", "config": {"scale": 1.0, "mode": "fan_avg", "distribution": "uniform", "seed": null}}, "bias_initializer": {"class_name": "Zeros", "config": {}}, "kernel_regularizer": {"class_name": "L1L2", "config": {"l1": 0.0, "l2": 7.388308586087078e-05}}, "bias_regularizer": null, "activity_regularizer": null, "kernel_constraint": null, "bias_constraint": null}, "inbound_nodes": [[["layer_3_Dropout_1", 0, 0, {}]]]}, {"name": "MaxPooling2D", "class_name": "MaxPooling2D", "config": {"name": "MaxPooling2D", "trainable": true, "pool_size": [2, 2], "padding": "valid", "strides": [2, 2], "data_format": "channels_last"}, "inbound_nodes": [[["Conv2D", 0, 0, {}]]]}], "input_layers": [["input_1", 0, 0]], "output_layers": [["MaxPooling2D", 0, 0]]}, "inbound_nodes": [[["reshape2_enc_task_00_term_00", 0, 0, {}]]]}, {"name": "constant_input", "class_name": "InputLayer", "config": {"batch_input_shape": [null, 1], "dtype": "float32", "sparse": false, "name": "constant_input"}, "inbound_nodes": []}, {"name": "model_2_module_13_1", "class_name": "Model", "config": {"name": "model_2_module_13_1", "layers": [{"name": "input_2", "class_name": "InputLayer", "config": {"batch_input_shape": [null, 112, 112, 24], "dtype": "float32", "sparse": false, "name": "input_2"}, "inbound_nodes": []}, {"name": "layer_3_Conv2D_0", "class_name": "Conv2D", "config": {"name": "layer_3_Conv2D_0", "trainable": true, "filters": 3, "kernel_size": [1, 1], "strides": [1, 1], "padding": "same", "data_format": "channels_last", "dilation_rate": [1, 1], "activation": "elu", "use_bias": true, "kernel_initializer": {"class_name": "VarianceScaling", "config": {"scale": 1.0, "mode": "fan_avg", "distribution": "normal", "seed": null}}, "bias_initializer": {"class_name": "Zeros", "config": {}}, "kernel_regularizer": {"class_name": "L1L2", "config": {"l1": 0.0, "l2": 0.00016678252723068}}, "bias_regularizer": null, "activity_regularizer": null, "kernel_constraint": null, "bias_constraint": null}, "inbound_nodes": [[["input_2", 0, 0, {}]]]}, {"name": "layer_3_Dropout_1", "class_name": "Dropout", "config": {"name": "layer_3_Dropout_1", "trainable": true, "rate": 0.304616498040077, "noise_shape": null, "seed": null}, "inbound_nodes": [[["layer_3_Conv2D_0", 0, 0, {}]]]}, {"name": "Conv2D", "class_name": "Conv2D", "config": {"name": "Conv2D", "trainable": true, "filters": 24, "kernel_size": [1, 1], "strides": [1, 1], "padding": "same", "data_format": "channels_last", "dilation_rate": [1, 1], "activation": "linear", "use_bias": true, "kernel_initializer": {"class_name": "VarianceScaling", "config": {"scale": 1.0, "mode": "fan_avg", "distribution": "uniform", "seed": null}}, "bias_initializer": {"class_name": "Zeros", "config": {}}, "kernel_regularizer": {"class_name": "L1L2", "config": {"l1": 0.0, "l2": 7.388308586087078e-05}}, "bias_regularizer": null, "activity_regularizer": null, "kernel_constraint": null, "bias_constraint": null}, "inbound_nodes": [[["layer_3_Dropout_1", 0, 0, {}]]]}, {"name": "MaxPooling2D", "class_name": "MaxPooling2D", "config": {"name": "MaxPooling2D", "trainable": true, "pool_size": [2, 2], "padding": "valid", "strides": [2, 2], "data_format": "channels_last"}, "inbound_nodes": [[["Conv2D", 0, 0, {}]]]}], "input_layers": [["input_2", 0, 0]], "output_layers": [["MaxPooling2D", 0, 0]]}, "inbound_nodes": [[["model_1_module_13_1_5", 1, 0, {}]]]}, {"name": "maxpool_task_00_node_07_block_00", "class_name": "MaxPooling2D", "config": {"name": "maxpool_task_00_node_07_block_00", "trainable": true, "pool_size": [2, 2], "padding": "valid", "strides": [2, 2], "data_format": "channels_last"}, "inbound_nodes": [[["model_1_module_13_1_5", 1, 0, {}]]]}, {"name": "model_softmod_task_00_node_07", "class_name": "Model", "config": {"name": "model_softmod_task_00_node_07", "layers": [{"name": "constant_input_softmod_task_00_node_07", "class_name": "InputLayer", "config": {"batch_input_shape": [null, 1], "dtype": "float32", "sparse": false, "name": "constant_input_softmod_task_00_node_07"}, "inbound_nodes": []}, {"name": "dense_softmod_task_00_node_07_block_00", "class_name": "Dense", "config": {"name": "dense_softmod_task_00_node_07_block_00", "trainable": true, "units": 1, "activation": "sigmoid", "use_bias": true, "kernel_initializer": {"class_name": "VarianceScaling", "config": {"scale": 1.0, "mode": "fan_avg", "distribution": "uniform", "seed": null}}, "bias_initializer": {"class_name": "Zeros", "config": {}}, "kernel_regularizer": null, "bias_regularizer": null, "activity_regularizer": null, "kernel_constraint": null, "bias_constraint": null}, "inbound_nodes": [[["constant_input_softmod_task_00_node_07", 0, 0, {}]]]}, {"name": "dense_softmod_task_00_node_07_block_01", "class_name": "Dense", "config": {"name": "dense_softmod_task_00_node_07_block_01", "trainable": true, "units": 1, "activation": "sigmoid", "use_bias": true, "kernel_initializer": {"class_name": "VarianceScaling", "config": {"scale": 1.0, "mode": "fan_avg", "distribution": "uniform", "seed": null}}, "bias_initializer": {"class_name": "Zeros", "config": {}}, "kernel_regularizer": null, "bias_regularizer": null, "activity_regularizer": null, "kernel_constraint": null, "bias_constraint": null}, "inbound_nodes": [[["constant_input_softmod_task_00_node_07", 0, 0, {}]]]}, {"name": "repeat_softmod_task_00_node_07_block_00", "class_name": "RepeatVector", "config": {"name": "repeat_softmod_task_00_node_07_block_00", "trainable": true, "n": 75264}, "inbound_nodes": [[["dense_softmod_task_00_node_07_block_00", 0, 0, {}]]]}, {"name": "repeat_softmod_task_00_node_07_block_01", "class_name": "RepeatVector", "config": {"name": "repeat_softmod_task_00_node_07_block_01", "trainable": true, "n": 75264}, "inbound_nodes": [[["dense_softmod_task_00_node_07_block_01", 0, 0, {}]]]}, {"name": "reshape_softmod_task_00_node_07_block_00", "class_name": "Reshape", "config": {"name": "reshape_softmod_task_00_node_07_block_00", "trainable": true, "target_shape": [56, 56, 24]}, "inbound_nodes": [[["repeat_softmod_task_00_node_07_block_00", 0, 0, {}]]]}, {"name": "output_input_softmod_task_00_node_07_block_00", "class_name": "InputLayer", "config": {"batch_input_shape": [null, 56, 56, 24], "dtype": "float32", "sparse": false, "name": "output_input_softmod_task_00_node_07_block_00"}, "inbound_nodes": []}, {"name": "reshape_softmod_task_00_node_07_block_01", "class_name": "Reshape", "config": {"name": "reshape_softmod_task_00_node_07_block_01", "trainable": true, "target_shape": [56, 56, 24]}, "inbound_nodes": [[["repeat_softmod_task_00_node_07_block_01", 0, 0, {}]]]}, {"name": "output_input_softmod_task_00_node_07_block_01", "class_name": "InputLayer", "config": {"batch_input_shape": [null, 56, 56, 24], "dtype": "float32", "sparse": false, "name": "output_input_softmod_task_00_node_07_block_01"}, "inbound_nodes": []}, {"name": "mult_softmod_task_00_node_07_block_00", "class_name": "Multiply", "config": {"name": "mult_softmod_task_00_node_07_block_00", "trainable": true}, "inbound_nodes": [[["reshape_softmod_task_00_node_07_block_00", 0, 0, {}], ["output_input_softmod_task_00_node_07_block_00", 0, 0, {}]]]}, {"name": "mult_softmod_task_00_node_07_block_01", "class_name": "Multiply", "config": {"name": "mult_softmod_task_00_node_07_block_01", "trainable": true}, "inbound_nodes": [[["reshape_softmod_task_00_node_07_block_01", 0, 0, {}], ["output_input_softmod_task_00_node_07_block_01", 0, 0, {}]]]}, {"name": "add_softmod_task_00_node_07", "class_name": "Add", "config": {"name": "add_softmod_task_00_node_07", "trainable": true}, "inbound_nodes": [[["mult_softmod_task_00_node_07_block_00", 0, 0, {}], ["mult_softmod_task_00_node_07_block_01", 0, 0, {}]]]}], "input_layers": [["constant_input_softmod_task_00_node_07", 0, 0], ["output_input_softmod_task_00_node_07_block_00", 0, 0], ["output_input_softmod_task_00_node_07_block_01", 0, 0]], "output_layers": [["add_softmod_task_00_node_07", 0, 0]]}, "inbound_nodes": [[["constant_input", 0, 0, {}], ["maxpool_task_00_node_07_block_00", 0, 0, {}], ["model_2_module_13_1", 1, 0, {}]]]}, {"name": "model_3_module_13_1_6", "class_name": "Model", "config": {"name": "model_3_module_13_1_6", "layers": [{"name": "input_3", "class_name": "InputLayer", "config": {"batch_input_shape": [null, 56, 56, 24], "dtype": "float32", "sparse": false, "name": "input_3"}, "inbound_nodes": []}, {"name": "layer_3_Conv2D_0", "class_name": "Conv2D", "config": {"name": "layer_3_Conv2D_0", "trainable": true, "filters": 3, "kernel_size": [1, 1], "strides": [1, 1], "padding": "same", "data_format": "channels_last", "dilation_rate": [1, 1], "activation": "elu", "use_bias": true, "kernel_initializer": {"class_name": "VarianceScaling", "config": {"scale": 1.0, "mode": "fan_avg", "distribution": "normal", "seed": null}}, "bias_initializer": {"class_name": "Zeros", "config": {}}, "kernel_regularizer": {"class_name": "L1L2", "config": {"l1": 0.0, "l2": 0.00016678252723068}}, "bias_regularizer": null, "activity_regularizer": null, "kernel_constraint": null, "bias_constraint": null}, "inbound_nodes": [[["input_3", 0, 0, {}]]]}, {"name": "layer_3_Dropout_1", "class_name": "Dropout", "config": {"name": "layer_3_Dropout_1", "trainable": true, "rate": 0.304616498040077, "noise_shape": null, "seed": null}, "inbound_nodes": [[["layer_3_Conv2D_0", 0, 0, {}]]]}, {"name": "Conv2D", "class_name": "Conv2D", "config": {"name": "Conv2D", "trainable": true, "filters": 24, "kernel_size": [1, 1], "strides": [1, 1], "padding": "same", "data_format": "channels_last", "dilation_rate": [1, 1], "activation": "linear", "use_bias": true, "kernel_initializer": {"class_name": "VarianceScaling", "config": {"scale": 1.0, "mode": "fan_avg", "distribution": "uniform", "seed": null}}, "bias_initializer": {"class_name": "Zeros", "config": {}}, "kernel_regularizer": {"class_name": "L1L2", "config": {"l1": 0.0, "l2": 7.388308586087078e-05}}, "bias_regularizer": null, "activity_regularizer": null, "kernel_constraint": null, "bias_constraint": null}, "inbound_nodes": [[["layer_3_Dropout_1", 0, 0, {}]]]}, {"name": "MaxPooling2D", "class_name": "MaxPooling2D", "config": {"name": "MaxPooling2D", "trainable": true, "pool_size": [2, 2], "padding": "valid", "strides": [2, 2], "data_format": "channels_last"}, "inbound_nodes": [[["Conv2D", 0, 0, {}]]]}], "input_layers": [["input_3", 0, 0]], "output_layers": [["MaxPooling2D", 0, 0]]}, "inbound_nodes": [[["model_2_module_13_1", 1, 0, {}]]]}, {"name": "model_3_module_13_1_7", "class_name": "Model", "config": {"name": "model_3_module_13_1_7", "layers": [{"name": "input_3", "class_name": "InputLayer", "config": {"batch_input_shape": [null, 56, 56, 24], "dtype": "float32", "sparse": false, "name": "input_3"}, "inbound_nodes": []}, {"name": "layer_3_Conv2D_0", "class_name": "Conv2D", "config": {"name": "layer_3_Conv2D_0", "trainable": true, "filters": 3, "kernel_size": [1, 1], "strides": [1, 1], "padding": "same", "data_format": "channels_last", "dilation_rate": [1, 1], "activation": "elu", "use_bias": true, "kernel_initializer": {"class_name": "VarianceScaling", "config": {"scale": 1.0, "mode": "fan_avg", "distribution": "normal", "seed": null}}, "bias_initializer": {"class_name": "Zeros", "config": {}}, "kernel_regularizer": {"class_name": "L1L2", "config": {"l1": 0.0, "l2": 0.00016678252723068}}, "bias_regularizer": null, "activity_regularizer": null, "kernel_constraint": null, "bias_constraint": null}, "inbound_nodes": [[["input_3", 0, 0, {}]]]}, {"name": "layer_3_Dropout_1", "class_name": "Dropout", "config": {"name": "layer_3_Dropout_1", "trainable": true, "rate": 0.304616498040077, "noise_shape": null, "seed": null}, "inbound_nodes": [[["layer_3_Conv2D_0", 0, 0, {}]]]}, {"name": "Conv2D", "class_name": "Conv2D", "config": {"name": "Conv2D", "trainable": true, "filters": 24, "kernel_size": [1, 1], "strides": [1, 1], "padding": "same", "data_format": "channels_last", "dilation_rate": [1, 1], "activation": "linear", "use_bias": true, "kernel_initializer": {"class_name": "VarianceScaling", "config": {"scale": 1.0, "mode": "fan_avg", "distribution": "uniform", "seed": null}}, "bias_initializer": {"class_name": "Zeros", "config": {}}, "kernel_regularizer": {"class_name": "L1L2", "config": {"l1": 0.0, "l2": 7.388308586087078e-05}}, "bias_regularizer": null, "activity_regularizer": null, "kernel_constraint": null, "bias_constraint": null}, "inbound_nodes": [[["layer_3_Dropout_1", 0, 0, {}]]]}, {"name": "MaxPooling2D", "class_name": "MaxPooling2D", "config": {"name": "MaxPooling2D", "trainable": true, "pool_size": [2, 2], "padding": "valid", "strides": [2, 2], "data_format": "channels_last"}, "inbound_nodes": [[["Conv2D", 0, 0, {}]]]}], "input_layers": [["input_3", 0, 0]], "output_layers": [["MaxPooling2D", 0, 0]]}, "inbound_nodes": [[["model_softmod_task_00_node_07", 1, 0, {}]]]}, {"name": "model_softmod_task_00_node_04", "class_name": "Model", "config": {"name": "model_softmod_task_00_node_04", "layers": [{"name": "constant_input_softmod_task_00_node_04", "class_name": "InputLayer", "config": {"batch_input_shape": [null, 1], "dtype": "float32", "sparse": false, "name": "constant_input_softmod_task_00_node_04"}, "inbound_nodes": []}, {"name": "dense_softmod_task_00_node_04_block_00", "class_name": "Dense", "config": {"name": "dense_softmod_task_00_node_04_block_00", "trainable": true, "units": 1, "activation": "sigmoid", "use_bias": true, "kernel_initializer": {"class_name": "VarianceScaling", "config": {"scale": 1.0, "mode": "fan_avg", "distribution": "uniform", "seed": null}}, "bias_initializer": {"class_name": "Zeros", "config": {}}, "kernel_regularizer": null, "bias_regularizer": null, "activity_regularizer": null, "kernel_constraint": null, "bias_constraint": null}, "inbound_nodes": [[["constant_input_softmod_task_00_node_04", 0, 0, {}]]]}, {"name": "dense_softmod_task_00_node_04_block_01", "class_name": "Dense", "config": {"name": "dense_softmod_task_00_node_04_block_01", "trainable": true, "units": 1, "activation": "sigmoid", "use_bias": true, "kernel_initializer": {"class_name": "VarianceScaling", "config": {"scale": 1.0, "mode": "fan_avg", "distribution": "uniform", "seed": null}}, "bias_initializer": {"class_name": "Zeros", "config": {}}, "kernel_regularizer": null, "bias_regularizer": null, "activity_regularizer": null, "kernel_constraint": null, "bias_constraint": null}, "inbound_nodes": [[["constant_input_softmod_task_00_node_04", 0, 0, {}]]]}, {"name": "repeat_softmod_task_00_node_04_block_00", "class_name": "RepeatVector", "config": {"name": "repeat_softmod_task_00_node_04_block_00", "trainable": true, "n": 18816}, "inbound_nodes": [[["dense_softmod_task_00_node_04_block_00", 0, 0, {}]]]}, {"name": "repeat_softmod_task_00_node_04_block_01", "class_name": "RepeatVector", "config": {"name": "repeat_softmod_task_00_node_04_block_01", "trainable": true, "n": 18816}, "inbound_nodes": [[["dense_softmod_task_00_node_04_block_01", 0, 0, {}]]]}, {"name": "reshape_softmod_task_00_node_04_block_00", "class_name": "Reshape", "config": {"name": "reshape_softmod_task_00_node_04_block_00", "trainable": true, "target_shape": [28, 28, 24]}, "inbound_nodes": [[["repeat_softmod_task_00_node_04_block_00", 0, 0, {}]]]}, {"name": "output_input_softmod_task_00_node_04_block_00", "class_name": "InputLayer", "config": {"batch_input_shape": [null, 28, 28, 24], "dtype": "float32", "sparse": false, "name": "output_input_softmod_task_00_node_04_block_00"}, "inbound_nodes": []}, {"name": "reshape_softmod_task_00_node_04_block_01", "class_name": "Reshape", "config": {"name": "reshape_softmod_task_00_node_04_block_01", "trainable": true, "target_shape": [28, 28, 24]}, "inbound_nodes": [[["repeat_softmod_task_00_node_04_block_01", 0, 0, {}]]]}, {"name": "output_input_softmod_task_00_node_04_block_01", "class_name": "InputLayer", "config": {"batch_input_shape": [null, 28, 28, 24], "dtype": "float32", "sparse": false, "name": "output_input_softmod_task_00_node_04_block_01"}, "inbound_nodes": []}, {"name": "mult_softmod_task_00_node_04_block_00", "class_name": "Multiply", "config": {"name": "mult_softmod_task_00_node_04_block_00", "trainable": true}, "inbound_nodes": [[["reshape_softmod_task_00_node_04_block_00", 0, 0, {}], ["output_input_softmod_task_00_node_04_block_00", 0, 0, {}]]]}, {"name": "mult_softmod_task_00_node_04_block_01", "class_name": "Multiply", "config": {"name": "mult_softmod_task_00_node_04_block_01", "trainable": true}, "inbound_nodes": [[["reshape_softmod_task_00_node_04_block_01", 0, 0, {}], ["output_input_softmod_task_00_node_04_block_01", 0, 0, {}]]]}, {"name": "add_softmod_task_00_node_04", "class_name": "Add", "config": {"name": "add_softmod_task_00_node_04", "trainable": true}, "inbound_nodes": [[["mult_softmod_task_00_node_04_block_00", 0, 0, {}], ["mult_softmod_task_00_node_04_block_01", 0, 0, {}]]]}], "input_layers": [["constant_input_softmod_task_00_node_04", 0, 0], ["output_input_softmod_task_00_node_04_block_00", 0, 0], ["output_input_softmod_task_00_node_04_block_01", 0, 0]], "output_layers": [["add_softmod_task_00_node_04", 0, 0]]}, "inbound_nodes": [[["constant_input", 0, 0, {}], ["model_3_module_13_1_6", 1, 0, {}], ["model_3_module_13_1_7", 1, 0, {}]]]}, {"name": "model_1_module_13_1", "class_name": "Model", "config": {"name": "model_1_module_13_1", "layers": [{"name": "input_1", "class_name": "InputLayer", "config": {"batch_input_shape": [null, 224, 224, 24], "dtype": "float32", "sparse": false, "name": "input_1"}, "inbound_nodes": []}, {"name": "layer_3_Conv2D_0", "class_name": "Conv2D", "config": {"name": "layer_3_Conv2D_0", "trainable": true, "filters": 3, "kernel_size": [1, 1], "strides": [1, 1], "padding": "same", "data_format": "channels_last", "dilation_rate": [1, 1], "activation": "elu", "use_bias": true, "kernel_initializer": {"class_name": "VarianceScaling", "config": {"scale": 1.0, "mode": "fan_avg", "distribution": "normal", "seed": null}}, "bias_initializer": {"class_name": "Zeros", "config": {}}, "kernel_regularizer": {"class_name": "L1L2", "config": {"l1": 0.0, "l2": 0.00016678252723068}}, "bias_regularizer": null, "activity_regularizer": null, "kernel_constraint": null, "bias_constraint": null}, "inbound_nodes": [[["input_1", 0, 0, {}]]]}, {"name": "layer_3_Dropout_1", "class_name": "Dropout", "config": {"name": "layer_3_Dropout_1", "trainable": true, "rate": 0.304616498040077, "noise_shape": null, "seed": null}, "inbound_nodes": [[["layer_3_Conv2D_0", 0, 0, {}]]]}, {"name": "Conv2D", "class_name": "Conv2D", "config": {"name": "Conv2D", "trainable": true, "filters": 24, "kernel_size": [1, 1], "strides": [1, 1], "padding": "same", "data_format": "channels_last", "dilation_rate": [1, 1], "activation": "linear", "use_bias": true, "kernel_initializer": {"class_name": "VarianceScaling", "config": {"scale": 1.0, "mode": "fan_avg", "distribution": "uniform", "seed": null}}, "bias_initializer": {"class_name": "Zeros", "config": {}}, "kernel_regularizer": {"class_name": "L1L2", "config": {"l1": 0.0, "l2": 7.388308586087078e-05}}, "bias_regularizer": null, "activity_regularizer": null, "kernel_constraint": null, "bias_constraint": null}, "inbound_nodes": [[["layer_3_Dropout_1", 0, 0, {}]]]}, {"name": "MaxPooling2D", "class_name": "MaxPooling2D", "config": {"name": "MaxPooling2D", "trainable": true, "pool_size": [2, 2], "padding": "valid", "strides": [2, 2], "data_format": "channels_last"}, "inbound_nodes": [[["Conv2D", 0, 0, {}]]]}], "input_layers": [["input_1", 0, 0]], "output_layers": [["MaxPooling2D", 0, 0]]}, "inbound_nodes": [[["reshape2_enc_task_00_term_00", 0, 0, {}]]]}, {"name": "model_4_module_13_1", "class_name": "Model", "config": {"name": "model_4_module_13_1", "layers": [{"name": "input_4", "class_name": "InputLayer", "config": {"batch_input_shape": [null, 28, 28, 24], "dtype": "float32", "sparse": false, "name": "input_4"}, "inbound_nodes": []}, {"name": "layer_3_Conv2D_0", "class_name": "Conv2D", "config": {"name": "layer_3_Conv2D_0", "trainable": true, "filters": 3, "kernel_size": [1, 1], "strides": [1, 1], "padding": "same", "data_format": "channels_last", "dilation_rate": [1, 1], "activation": "elu", "use_bias": true, "kernel_initializer": {"class_name": "VarianceScaling", "config": {"scale": 1.0, "mode": "fan_avg", "distribution": "normal", "seed": null}}, "bias_initializer": {"class_name": "Zeros", "config": {}}, "kernel_regularizer": {"class_name": "L1L2", "config": {"l1": 0.0, "l2": 0.00016678252723068}}, "bias_regularizer": null, "activity_regularizer": null, "kernel_constraint": null, "bias_constraint": null}, "inbound_nodes": [[["input_4", 0, 0, {}]]]}, {"name": "layer_3_Dropout_1", "class_name": "Dropout", "config": {"name": "layer_3_Dropout_1", "trainable": true, "rate": 0.304616498040077, "noise_shape": null, "seed": null}, "inbound_nodes": [[["layer_3_Conv2D_0", 0, 0, {}]]]}, {"name": "Conv2D", "class_name": "Conv2D", "config": {"name": "Conv2D", "trainable": true, "filters": 24, "kernel_size": [1, 1], "strides": [1, 1], "padding": "same", "data_format": "channels_last", "dilation_rate": [1, 1], "activation": "linear", "use_bias": true, "kernel_initializer": {"class_name": "VarianceScaling", "config": {"scale": 1.0, "mode": "fan_avg", "distribution": "uniform", "seed": null}}, "bias_initializer": {"class_name": "Zeros", "config": {}}, "kernel_regularizer": {"class_name": "L1L2", "config": {"l1": 0.0, "l2": 7.388308586087078e-05}}, "bias_regularizer": null, "activity_regularizer": null, "kernel_constraint": null, "bias_constraint": null}, "inbound_nodes": [[["layer_3_Dropout_1", 0, 0, {}]]]}, {"name": "MaxPooling2D", "class_name": "MaxPooling2D", "config": {"name": "MaxPooling2D", "trainable": true, "pool_size": [2, 2], "padding": "valid", "strides": [2, 2], "data_format": "channels_last"}, "inbound_nodes": [[["Conv2D", 0, 0, {}]]]}], "input_layers": [["input_4", 0, 0]], "output_layers": [["MaxPooling2D", 0, 0]]}, "inbound_nodes": [[["model_softmod_task_00_node_04", 1, 0, {}]]]}, {"name": "maxpool_task_00_node_03_block_01", "class_name": "MaxPooling2D", "config": {"name": "maxpool_task_00_node_03_block_01", "trainable": true, "pool_size": [2, 2], "padding": "valid", "strides": [2, 2], "data_format": "channels_last"}, "inbound_nodes": [[["model_3_module_13_1_7", 1, 0, {}]]]}, {"name": "maxpool_task_00_node_09_block_01", "class_name": "MaxPooling2D", "config": {"name": "maxpool_task_00_node_09_block_01", "trainable": true, "pool_size": [8, 8], "padding": "valid", "strides": [8, 8], "data_format": "channels_last"}, "inbound_nodes": [[["model_1_module_13_1", 1, 0, {}]]]}, {"name": "model_softmod_task_00_node_03", "class_name": "Model", "config": {"name": "model_softmod_task_00_node_03", "layers": [{"name": "constant_input_softmod_task_00_node_03", "class_name": "InputLayer", "config": {"batch_input_shape": [null, 1], "dtype": "float32", "sparse": false, "name": "constant_input_softmod_task_00_node_03"}, "inbound_nodes": []}, {"name": "dense_softmod_task_00_node_03_block_00", "class_name": "Dense", "config": {"name": "dense_softmod_task_00_node_03_block_00", "trainable": true, "units": 1, "activation": "sigmoid", "use_bias": true, "kernel_initializer": {"class_name": "VarianceScaling", "config": {"scale": 1.0, "mode": "fan_avg", "distribution": "uniform", "seed": null}}, "bias_initializer": {"class_name": "Zeros", "config": {}}, "kernel_regularizer": null, "bias_regularizer": null, "activity_regularizer": null, "kernel_constraint": null, "bias_constraint": null}, "inbound_nodes": [[["constant_input_softmod_task_00_node_03", 0, 0, {}]]]}, {"name": "dense_softmod_task_00_node_03_block_01", "class_name": "Dense", "config": {"name": "dense_softmod_task_00_node_03_block_01", "trainable": true, "units": 1, "activation": "sigmoid", "use_bias": true, "kernel_initializer": {"class_name": "VarianceScaling", "config": {"scale": 1.0, "mode": "fan_avg", "distribution": "uniform", "seed": null}}, "bias_initializer": {"class_name": "Zeros", "config": {}}, "kernel_regularizer": null, "bias_regularizer": null, "activity_regularizer": null, "kernel_constraint": null, "bias_constraint": null}, "inbound_nodes": [[["constant_input_softmod_task_00_node_03", 0, 0, {}]]]}, {"name": "repeat_softmod_task_00_node_03_block_00", "class_name": "RepeatVector", "config": {"name": "repeat_softmod_task_00_node_03_block_00", "trainable": true, "n": 4704}, "inbound_nodes": [[["dense_softmod_task_00_node_03_block_00", 0, 0, {}]]]}, {"name": "repeat_softmod_task_00_node_03_block_01", "class_name": "RepeatVector", "config": {"name": "repeat_softmod_task_00_node_03_block_01", "trainable": true, "n": 4704}, "inbound_nodes": [[["dense_softmod_task_00_node_03_block_01", 0, 0, {}]]]}, {"name": "reshape_softmod_task_00_node_03_block_00", "class_name": "Reshape", "config": {"name": "reshape_softmod_task_00_node_03_block_00", "trainable": true, "target_shape": [14, 14, 24]}, "inbound_nodes": [[["repeat_softmod_task_00_node_03_block_00", 0, 0, {}]]]}, {"name": "output_input_softmod_task_00_node_03_block_00", "class_name": "InputLayer", "config": {"batch_input_shape": [null, 14, 14, 24], "dtype": "float32", "sparse": false, "name": "output_input_softmod_task_00_node_03_block_00"}, "inbound_nodes": []}, {"name": "reshape_softmod_task_00_node_03_block_01", "class_name": "Reshape", "config": {"name": "reshape_softmod_task_00_node_03_block_01", "trainable": true, "target_shape": [14, 14, 24]}, "inbound_nodes": [[["repeat_softmod_task_00_node_03_block_01", 0, 0, {}]]]}, {"name": "output_input_softmod_task_00_node_03_block_01", "class_name": "InputLayer", "config": {"batch_input_shape": [null, 14, 14, 24], "dtype": "float32", "sparse": false, "name": "output_input_softmod_task_00_node_03_block_01"}, "inbound_nodes": []}, {"name": "mult_softmod_task_00_node_03_block_00", "class_name": "Multiply", "config": {"name": "mult_softmod_task_00_node_03_block_00", "trainable": true}, "inbound_nodes": [[["reshape_softmod_task_00_node_03_block_00", 0, 0, {}], ["output_input_softmod_task_00_node_03_block_00", 0, 0, {}]]]}, {"name": "mult_softmod_task_00_node_03_block_01", "class_name": "Multiply", "config": {"name": "mult_softmod_task_00_node_03_block_01", "trainable": true}, "inbound_nodes": [[["reshape_softmod_task_00_node_03_block_01", 0, 0, {}], ["output_input_softmod_task_00_node_03_block_01", 0, 0, {}]]]}, {"name": "add_softmod_task_00_node_03", "class_name": "Add", "config": {"name": "add_softmod_task_00_node_03", "trainable": true}, "inbound_nodes": [[["mult_softmod_task_00_node_03_block_00", 0, 0, {}], ["mult_softmod_task_00_node_03_block_01", 0, 0, {}]]]}], "input_layers": [["constant_input_softmod_task_00_node_03", 0, 0], ["output_input_softmod_task_00_node_03_block_00", 0, 0], ["output_input_softmod_task_00_node_03_block_01", 0, 0]], "output_layers": [["add_softmod_task_00_node_03", 0, 0]]}, "inbound_nodes": [[["constant_input", 0, 0, {}], ["model_4_module_13_1", 1, 0, {}], ["maxpool_task_00_node_03_block_01", 0, 0, {}]]]}, {"name": "model_softmod_task_00_node_09", "class_name": "Model", "config": {"name": "model_softmod_task_00_node_09", "layers": [{"name": "constant_input_softmod_task_00_node_09", "class_name": "InputLayer", "config": {"batch_input_shape": [null, 1], "dtype": "float32", "sparse": false, "name": "constant_input_softmod_task_00_node_09"}, "inbound_nodes": []}, {"name": "dense_softmod_task_00_node_09_block_00", "class_name": "Dense", "config": {"name": "dense_softmod_task_00_node_09_block_00", "trainable": true, "units": 1, "activation": "sigmoid", "use_bias": true, "kernel_initializer": {"class_name": "VarianceScaling", "config": {"scale": 1.0, "mode": "fan_avg", "distribution": "uniform", "seed": null}}, "bias_initializer": {"class_name": "Zeros", "config": {}}, "kernel_regularizer": null, "bias_regularizer": null, "activity_regularizer": null, "kernel_constraint": null, "bias_constraint": null}, "inbound_nodes": [[["constant_input_softmod_task_00_node_09", 0, 0, {}]]]}, {"name": "dense_softmod_task_00_node_09_block_01", "class_name": "Dense", "config": {"name": "dense_softmod_task_00_node_09_block_01", "trainable": true, "units": 1, "activation": "sigmoid", "use_bias": true, "kernel_initializer": {"class_name": "VarianceScaling", "config": {"scale": 1.0, "mode": "fan_avg", "distribution": "uniform", "seed": null}}, "bias_initializer": {"class_name": "Zeros", "config": {}}, "kernel_regularizer": null, "bias_regularizer": null, "activity_regularizer": null, "kernel_constraint": null, "bias_constraint": null}, "inbound_nodes": [[["constant_input_softmod_task_00_node_09", 0, 0, {}]]]}, {"name": "repeat_softmod_task_00_node_09_block_00", "class_name": "RepeatVector", "config": {"name": "repeat_softmod_task_00_node_09_block_00", "trainable": true, "n": 4704}, "inbound_nodes": [[["dense_softmod_task_00_node_09_block_00", 0, 0, {}]]]}, {"name": "repeat_softmod_task_00_node_09_block_01", "class_name": "RepeatVector", "config": {"name": "repeat_softmod_task_00_node_09_block_01", "trainable": true, "n": 4704}, "inbound_nodes": [[["dense_softmod_task_00_node_09_block_01", 0, 0, {}]]]}, {"name": "reshape_softmod_task_00_node_09_block_00", "class_name": "Reshape", "config": {"name": "reshape_softmod_task_00_node_09_block_00", "trainable": true, "target_shape": [14, 14, 24]}, "inbound_nodes": [[["repeat_softmod_task_00_node_09_block_00", 0, 0, {}]]]}, {"name": "output_input_softmod_task_00_node_09_block_00", "class_name": "InputLayer", "config": {"batch_input_shape": [null, 14, 14, 24], "dtype": "float32", "sparse": false, "name": "output_input_softmod_task_00_node_09_block_00"}, "inbound_nodes": []}, {"name": "reshape_softmod_task_00_node_09_block_01", "class_name": "Reshape", "config": {"name": "reshape_softmod_task_00_node_09_block_01", "trainable": true, "target_shape": [14, 14, 24]}, "inbound_nodes": [[["repeat_softmod_task_00_node_09_block_01", 0, 0, {}]]]}, {"name": "output_input_softmod_task_00_node_09_block_01", "class_name": "InputLayer", "config": {"batch_input_shape": [null, 14, 14, 24], "dtype": "float32", "sparse": false, "name": "output_input_softmod_task_00_node_09_block_01"}, "inbound_nodes": []}, {"name": "mult_softmod_task_00_node_09_block_00", "class_name": "Multiply", "config": {"name": "mult_softmod_task_00_node_09_block_00", "trainable": true}, "inbound_nodes": [[["reshape_softmod_task_00_node_09_block_00", 0, 0, {}], ["output_input_softmod_task_00_node_09_block_00", 0, 0, {}]]]}, {"name": "mult_softmod_task_00_node_09_block_01", "class_name": "Multiply", "config": {"name": "mult_softmod_task_00_node_09_block_01", "trainable": true}, "inbound_nodes": [[["reshape_softmod_task_00_node_09_block_01", 0, 0, {}], ["output_input_softmod_task_00_node_09_block_01", 0, 0, {}]]]}, {"name": "add_softmod_task_00_node_09", "class_name": "Add", "config": {"name": "add_softmod_task_00_node_09", "trainable": true}, "inbound_nodes": [[["mult_softmod_task_00_node_09_block_00", 0, 0, {}], ["mult_softmod_task_00_node_09_block_01", 0, 0, {}]]]}], "input_layers": [["constant_input_softmod_task_00_node_09", 0, 0], ["output_input_softmod_task_00_node_09_block_00", 0, 0], ["output_input_softmod_task_00_node_09_block_01", 0, 0]], "output_layers": [["add_softmod_task_00_node_09", 0, 0]]}, "inbound_nodes": [[["constant_input", 0, 0, {}], ["model_4_module_13_1", 1, 0, {}], ["maxpool_task_00_node_09_block_01", 0, 0, {}]]]}, {"name": "model_5_module_13_1_3", "class_name": "Model", "config": {"name": "model_5_module_13_1_3", "layers": [{"name": "input_5", "class_name": "InputLayer", "config": {"batch_input_shape": [null, 14, 14, 24], "dtype": "float32", "sparse": false, "name": "input_5"}, "inbound_nodes": []}, {"name": "layer_3_Conv2D_0", "class_name": "Conv2D", "config": {"name": "layer_3_Conv2D_0", "trainable": true, "filters": 3, "kernel_size": [1, 1], "strides": [1, 1], "padding": "same", "data_format": "channels_last", "dilation_rate": [1, 1], "activation": "elu", "use_bias": true, "kernel_initializer": {"class_name": "VarianceScaling", "config": {"scale": 1.0, "mode": "fan_avg", "distribution": "normal", "seed": null}}, "bias_initializer": {"class_name": "Zeros", "config": {}}, "kernel_regularizer": {"class_name": "L1L2", "config": {"l1": 0.0, "l2": 0.00016678252723068}}, "bias_regularizer": null, "activity_regularizer": null, "kernel_constraint": null, "bias_constraint": null}, "inbound_nodes": [[["input_5", 0, 0, {}]]]}, {"name": "layer_3_Dropout_1", "class_name": "Dropout", "config": {"name": "layer_3_Dropout_1", "trainable": true, "rate": 0.304616498040077, "noise_shape": null, "seed": null}, "inbound_nodes": [[["layer_3_Conv2D_0", 0, 0, {}]]]}, {"name": "Conv2D", "class_name": "Conv2D", "config": {"name": "Conv2D", "trainable": true, "filters": 24, "kernel_size": [1, 1], "strides": [1, 1], "padding": "same", "data_format": "channels_last", "dilation_rate": [1, 1], "activation": "linear", "use_bias": true, "kernel_initializer": {"class_name": "VarianceScaling", "config": {"scale": 1.0, "mode": "fan_avg", "distribution": "uniform", "seed": null}}, "bias_initializer": {"class_name": "Zeros", "config": {}}, "kernel_regularizer": {"class_name": "L1L2", "config": {"l1": 0.0, "l2": 7.388308586087078e-05}}, "bias_regularizer": null, "activity_regularizer": null, "kernel_constraint": null, "bias_constraint": null}, "inbound_nodes": [[["layer_3_Dropout_1", 0, 0, {}]]]}, {"name": "MaxPooling2D", "class_name": "MaxPooling2D", "config": {"name": "MaxPooling2D", "trainable": true, "pool_size": [2, 2], "padding": "valid", "strides": [2, 2], "data_format": "channels_last"}, "inbound_nodes": [[["Conv2D", 0, 0, {}]]]}], "input_layers": [["input_5", 0, 0]], "output_layers": [["MaxPooling2D", 0, 0]]}, "inbound_nodes": [[["model_softmod_task_00_node_03", 1, 0, {}]]]}, {"name": "model_5_module_13_1", "class_name": "Model", "config": {"name": "model_5_module_13_1", "layers": [{"name": "input_5", "class_name": "InputLayer", "config": {"batch_input_shape": [null, 14, 14, 24], "dtype": "float32", "sparse": false, "name": "input_5"}, "inbound_nodes": []}, {"name": "layer_3_Conv2D_0", "class_name": "Conv2D", "config": {"name": "layer_3_Conv2D_0", "trainable": true, "filters": 3, "kernel_size": [1, 1], "strides": [1, 1], "padding": "same", "data_format": "channels_last", "dilation_rate": [1, 1], "activation": "elu", "use_bias": true, "kernel_initializer": {"class_name": "VarianceScaling", "config": {"scale": 1.0, "mode": "fan_avg", "distribution": "normal", "seed": null}}, "bias_initializer": {"class_name": "Zeros", "config": {}}, "kernel_regularizer": {"class_name": "L1L2", "config": {"l1": 0.0, "l2": 0.00016678252723068}}, "bias_regularizer": null, "activity_regularizer": null, "kernel_constraint": null, "bias_constraint": null}, "inbound_nodes": [[["input_5", 0, 0, {}]]]}, {"name": "layer_3_Dropout_1", "class_name": "Dropout", "config": {"name": "layer_3_Dropout_1", "trainable": true, "rate": 0.304616498040077, "noise_shape": null, "seed": null}, "inbound_nodes": [[["layer_3_Conv2D_0", 0, 0, {}]]]}, {"name": "Conv2D", "class_name": "Conv2D", "config": {"name": "Conv2D", "trainable": true, "filters": 24, "kernel_size": [1, 1], "strides": [1, 1], "padding": "same", "data_format": "channels_last", "dilation_rate": [1, 1], "activation": "linear", "use_bias": true, "kernel_initializer": {"class_name": "VarianceScaling", "config": {"scale": 1.0, "mode": "fan_avg", "distribution": "uniform", "seed": null}}, "bias_initializer": {"class_name": "Zeros", "config": {}}, "kernel_regularizer": {"class_name": "L1L2", "config": {"l1": 0.0, "l2": 7.388308586087078e-05}}, "bias_regularizer": null, "activity_regularizer": null, "kernel_constraint": null, "bias_constraint": null}, "inbound_nodes": [[["layer_3_Dropout_1", 0, 0, {}]]]}, {"name": "MaxPooling2D", "class_name": "MaxPooling2D", "config": {"name": "MaxPooling2D", "trainable": true, "pool_size": [2, 2], "padding": "valid", "strides": [2, 2], "data_format": "channels_last"}, "inbound_nodes": [[["Conv2D", 0, 0, {}]]]}], "input_layers": [["input_5", 0, 0]], "output_layers": [["MaxPooling2D", 0, 0]]}, "inbound_nodes": [[["model_softmod_task_00_node_09", 1, 0, {}]]]}, {"name": "model_softmod_task_00_node_02", "class_name": "Model", "config": {"name": "model_softmod_task_00_node_02", "layers": [{"name": "constant_input_softmod_task_00_node_02", "class_name": "InputLayer", "config": {"batch_input_shape": [null, 1], "dtype": "float32", "sparse": false, "name": "constant_input_softmod_task_00_node_02"}, "inbound_nodes": []}, {"name": "dense_softmod_task_00_node_02_block_00", "class_name": "Dense", "config": {"name": "dense_softmod_task_00_node_02_block_00", "trainable": true, "units": 1, "activation": "sigmoid", "use_bias": true, "kernel_initializer": {"class_name": "VarianceScaling", "config": {"scale": 1.0, "mode": "fan_avg", "distribution": "uniform", "seed": null}}, "bias_initializer": {"class_name": "Zeros", "config": {}}, "kernel_regularizer": null, "bias_regularizer": null, "activity_regularizer": null, "kernel_constraint": null, "bias_constraint": null}, "inbound_nodes": [[["constant_input_softmod_task_00_node_02", 0, 0, {}]]]}, {"name": "dense_softmod_task_00_node_02_block_01", "class_name": "Dense", "config": {"name": "dense_softmod_task_00_node_02_block_01", "trainable": true, "units": 1, "activation": "sigmoid", "use_bias": true, "kernel_initializer": {"class_name": "VarianceScaling", "config": {"scale": 1.0, "mode": "fan_avg", "distribution": "uniform", "seed": null}}, "bias_initializer": {"class_name": "Zeros", "config": {}}, "kernel_regularizer": null, "bias_regularizer": null, "activity_regularizer": null, "kernel_constraint": null, "bias_constraint": null}, "inbound_nodes": [[["constant_input_softmod_task_00_node_02", 0, 0, {}]]]}, {"name": "repeat_softmod_task_00_node_02_block_00", "class_name": "RepeatVector", "config": {"name": "repeat_softmod_task_00_node_02_block_00", "trainable": true, "n": 1176}, "inbound_nodes": [[["dense_softmod_task_00_node_02_block_00", 0, 0, {}]]]}, {"name": "repeat_softmod_task_00_node_02_block_01", "class_name": "RepeatVector", "config": {"name": "repeat_softmod_task_00_node_02_block_01", "trainable": true, "n": 1176}, "inbound_nodes": [[["dense_softmod_task_00_node_02_block_01", 0, 0, {}]]]}, {"name": "reshape_softmod_task_00_node_02_block_00", "class_name": "Reshape", "config": {"name": "reshape_softmod_task_00_node_02_block_00", "trainable": true, "target_shape": [7, 7, 24]}, "inbound_nodes": [[["repeat_softmod_task_00_node_02_block_00", 0, 0, {}]]]}, {"name": "output_input_softmod_task_00_node_02_block_00", "class_name": "InputLayer", "config": {"batch_input_shape": [null, 7, 7, 24], "dtype": "float32", "sparse": false, "name": "output_input_softmod_task_00_node_02_block_00"}, "inbound_nodes": []}, {"name": "reshape_softmod_task_00_node_02_block_01", "class_name": "Reshape", "config": {"name": "reshape_softmod_task_00_node_02_block_01", "trainable": true, "target_shape": [7, 7, 24]}, "inbound_nodes": [[["repeat_softmod_task_00_node_02_block_01", 0, 0, {}]]]}, {"name": "output_input_softmod_task_00_node_02_block_01", "class_name": "InputLayer", "config": {"batch_input_shape": [null, 7, 7, 24], "dtype": "float32", "sparse": false, "name": "output_input_softmod_task_00_node_02_block_01"}, "inbound_nodes": []}, {"name": "mult_softmod_task_00_node_02_block_00", "class_name": "Multiply", "config": {"name": "mult_softmod_task_00_node_02_block_00", "trainable": true}, "inbound_nodes": [[["reshape_softmod_task_00_node_02_block_00", 0, 0, {}], ["output_input_softmod_task_00_node_02_block_00", 0, 0, {}]]]}, {"name": "mult_softmod_task_00_node_02_block_01", "class_name": "Multiply", "config": {"name": "mult_softmod_task_00_node_02_block_01", "trainable": true}, "inbound_nodes": [[["reshape_softmod_task_00_node_02_block_01", 0, 0, {}], ["output_input_softmod_task_00_node_02_block_01", 0, 0, {}]]]}, {"name": "add_softmod_task_00_node_02", "class_name": "Add", "config": {"name": "add_softmod_task_00_node_02", "trainable": true}, "inbound_nodes": [[["mult_softmod_task_00_node_02_block_00", 0, 0, {}], ["mult_softmod_task_00_node_02_block_01", 0, 0, {}]]]}], "input_layers": [["constant_input_softmod_task_00_node_02", 0, 0], ["output_input_softmod_task_00_node_02_block_00", 0, 0], ["output_input_softmod_task_00_node_02_block_01", 0, 0]], "output_layers": [["add_softmod_task_00_node_02", 0, 0]]}, "inbound_nodes": [[["constant_input", 0, 0, {}], ["model_5_module_13_1_3", 1, 0, {}], ["model_5_module_13_1", 1, 0, {}]]]}, {"name": "flattendec_task_00_term_00", "class_name": "Flatten", "config": {"name": "flattendec_task_00_term_00", "trainable": true, "data_format": "channels_last"}, "inbound_nodes": [[["model_softmod_task_00_node_02", 1, 0, {}]]]}, {"name": "densedec_task_00_term_00", "class_name": "Dense", "config": {"name": "densedec_task_00_term_00", "trainable": true, "units": 7, "activation": "softmax", "use_bias": true, "kernel_initializer": {"class_name": "VarianceScaling", "config": {"scale": 1.0, "mode": "fan_avg", "distribution": "uniform", "seed": null}}, "bias_initializer": {"class_name": "Zeros", "config": {}}, "kernel_regularizer": null, "bias_regularizer": null, "activity_regularizer": null, "kernel_constraint": null, "bias_constraint": null}, "inbound_nodes": [[["flattendec_task_00_term_00", 0, 0, {}]]]}], "input_layers": [["constant_input", 0, 0], ["input_task_00_term_00", 0, 0]], "output_layers": [["densedec_task_00_term_00", 0, 0]]}, "keras_version": "2.2.4", "backend": "tensorflow"}
&&&&&&&&&&&&&&&&&&&&&&&&&&&&&&&&&&&&&&&&&&&&&&&&&&&&&&&&&&&&&&&&&&&&&&&&&&&&&&&&&&&&&&&&&&&&&&&&&&&&&&&&&&&&&&&&&&&&&&&&&&&&&&&
global_hyperparameters {'id': '11', 'learning_rate': 0.00017941124770046206}
&&&&&&&&&&&&&&&&&&&&&&&&&&&&&&&&&&&&&&&&&&&&&&&&&&&&&&&&&&&&&&&&&&&&&&&&&&&&&&&&&&&&&&&&&&&&&&&&&&&&&&&&&&&&&&&&&&&&&&&&&&&&&&&
domain_config {'dummy_load': False, 'local_data_cachedir': '~/enn_datacache', 'data_basedir': '/home/ubuntu/Data_face/', 'send_data': True, 'verbose': False, 'gpu_mem_frac': None, 'stop_cond': {'min_improve_hist_length': 999, 'min_improvement': 0, 'timeout_seconds': 999999}, 'evaluator_class_name': 'faceAgeEvaluator', 'dummy_run': 'real', 'train_dataset': 'train', 'test_dataset': 'test', 'subsample': True, 'subsample_amount': 5, 'test_subsample': True, 'test_subsample_amount': 5, 'num_iterations_per_epoch': 1, 'upload_best_model': False, 'upload_trained_model': False, 'custom_train_seed': None, 'test_val_only': True, 'test_every_epoch': False, 'checkpoint_dir': '.', 'timestamp_chkpt_dir': False, 'load_checkpoint': False, 'num_epochs': 1, 'batch_size': 5, 'checkpoint_interval': None, 'persist_weights': False, 'shuffle_data': False, 'train_abs_num_epochs': False, 'extra_config': None, 'info': {'image_size': 224, 'num_channels': 3, 'num_classes': 7, 'multitask': False, 'num_tasks': 1, 'loss_function': 'categorical_crossentropy', 'augment': False, 'test_augment': None, 'lr_scale': 1.0, 'lr_floor': 0.0, 'lr_decay': 10, 'lr_decay_amount': 0.1, 'encoder': None, 'encoder_layer_name': None, 'encoder_output_size': None, 'encoder_weights': None, 'enable_alt_obj': False, 'dummy_fitness': False, 'unzip_curr_dir': False, 'train_subsample_tau': 0.6}, 'filename_dict': {'datafile': 'images_224_compressed.tar.gz', 'partition': 'py3_chex_partition14_unormalized_cleaned.pickle', 'labels': 'py3_chex_labels14_unormalized_cleaned.pickle'}}
Using SeeNNBlueprint to draw candidate 11
&&&&&&&&&&&&&&&&&&&&&&&&&&&&&&&&&&&&&&&&&&&&&&&&&&&&&&&&&&&&&&&&&&&&&&&&&&&&&&&&&&&&&&&&&&&&&&&&&&&&&&&&&&&&&&&&&&&&&&&&&&&&&&&
model_json {"class_name": "Model", "config": {"name": "model_1", "layers": [{"name": "input_task_00_term_00", "class_name": "InputLayer", "config": {"batch_input_shape": [null, 224, 224, 3], "dtype": "float32", "sparse": false, "name": "input_task_00_term_00"}, "inbound_nodes": []}, {"name": "reshape1_enc_task_00_term_00", "class_name": "Reshape", "config": {"name": "reshape1_enc_task_00_term_00", "trainable": true, "target_shape": [224, 224, 3, 1]}, "inbound_nodes": [[["input_task_00_term_00", 0, 0, {}]]]}, {"name": "zeropad_enc_task_00_term_00", "class_name": "ZeroPadding3D", "config": {"name": "zeropad_enc_task_00_term_00", "trainable": true, "padding": [[0, 0], [0, 0], [0, 21]], "data_format": "channels_last"}, "inbound_nodes": [[["reshape1_enc_task_00_term_00", 0, 0, {}]]]}, {"name": "reshape2_enc_task_00_term_00", "class_name": "Reshape", "config": {"name": "reshape2_enc_task_00_term_00", "trainable": true, "target_shape": [224, 224, 24]}, "inbound_nodes": [[["zeropad_enc_task_00_term_00", 0, 0, {}]]]}, {"name": "model_1_module_13_1_5", "class_name": "Model", "config": {"name": "model_1_module_13_1_5", "layers": [{"name": "input_1", "class_name": "InputLayer", "config": {"batch_input_shape": [null, 224, 224, 24], "dtype": "float32", "sparse": false, "name": "input_1"}, "inbound_nodes": []}, {"name": "layer_3_Conv2D_0", "class_name": "Conv2D", "config": {"name": "layer_3_Conv2D_0", "trainable": true, "filters": 3, "kernel_size": [1, 1], "strides": [1, 1], "padding": "same", "data_format": "channels_last", "dilation_rate": [1, 1], "activation": "elu", "use_bias": true, "kernel_initializer": {"class_name": "VarianceScaling", "config": {"scale": 1.0, "mode": "fan_avg", "distribution": "normal", "seed": null}}, "bias_initializer": {"class_name": "Zeros", "config": {}}, "kernel_regularizer": {"class_name": "L1L2", "config": {"l1": 0.0, "l2": 0.00016678252723068}}, "bias_regularizer": null, "activity_regularizer": null, "kernel_constraint": null, "bias_constraint": null}, "inbound_nodes": [[["input_1", 0, 0, {}]]]}, {"name": "layer_3_Dropout_1", "class_name": "Dropout", "config": {"name": "layer_3_Dropout_1", "trainable": true, "rate": 0.304616498040077, "noise_shape": null, "seed": null}, "inbound_nodes": [[["layer_3_Conv2D_0", 0, 0, {}]]]}, {"name": "Conv2D", "class_name": "Conv2D", "config": {"name": "Conv2D", "trainable": true, "filters": 24, "kernel_size": [1, 1], "strides": [1, 1], "padding": "same", "data_format": "channels_last", "dilation_rate": [1, 1], "activation": "linear", "use_bias": true, "kernel_initializer": {"class_name": "VarianceScaling", "config": {"scale": 1.0, "mode": "fan_avg", "distribution": "uniform", "seed": null}}, "bias_initializer": {"class_name": "Zeros", "config": {}}, "kernel_regularizer": {"class_name": "L1L2", "config": {"l1": 0.0, "l2": 7.388308586087078e-05}}, "bias_regularizer": null, "activity_regularizer": null, "kernel_constraint": null, "bias_constraint": null}, "inbound_nodes": [[["layer_3_Dropout_1", 0, 0, {}]]]}, {"name": "MaxPooling2D", "class_name": "MaxPooling2D", "config": {"name": "MaxPooling2D", "trainable": true, "pool_size": [2, 2], "padding": "valid", "strides": [2, 2], "data_format": "channels_last"}, "inbound_nodes": [[["Conv2D", 0, 0, {}]]]}], "input_layers": [["input…
00_node_02_block_01", "trainable": true}, "inbound_nodes": [[["reshape_softmod_task_00_node_02_block_01", 0, 0, {}], ["output_input_softmod_task_00_node_02_block_01", 0, 0, {}]]]}, {"name": "add_softmod_task_00_node_02", "class_name": "Add", "config": {"name": "add_softmod_task_00_node_02", "trainable": true}, "inbound_nodes": [[["mult_softmod_task_00_node_02_block_00", 0, 0, {}], ["mult_softmod_task_00_node_02_block_01", 0, 0, {}]]]}], "input_layers": [["constant_input_softmod_task_00_node_02", 0, 0], ["output_input_softmod_task_00_node_02_block_00", 0, 0], ["output_input_softmod_task_00_node_02_block_01", 0, 0]], "output_layers": [["add_softmod_task_00_node_02", 0, 0]]}, "inbound_nodes": [[["constant_input", 0, 0, {}], ["model_5_module_13_1_3", 1, 0, {}], ["model_5_module_13_1", 1, 0, {}]]]}, {"name": "flattendec_task_00_term_00", "class_name": "Flatten", "config": {"name": "flattendec_task_00_term_00", "trainable": true, "data_format": "channels_last"}, "inbound_nodes": [[["model_softmod_task_00_node_02", 1, 0, {}]]]}, {"name": "densedec_task_00_term_00", "class_name": "Dense", "config": {"name": "densedec_task_00_term_00", "trainable": true, "units": 7, "activation": "softmax", "use_bias": true, "kernel_initializer": {"class_name": "VarianceScaling", "config": {"scale": 1.0, "mode": "fan_avg", "distribution": "uniform", "seed": null}}, "bias_initializer": {"class_name": "Zeros", "config": {}}, "kernel_regularizer": null, "bias_regularizer": null, "activity_regularizer": null, "kernel_constraint": null, "bias_constraint": null}, "inbound_nodes": [[["flattendec_task_00_term_00", 0, 0, {}]]]}], "input_layers": [["constant_input", 0, 0], ["input_task_00_term_00", 0, 0]], "output_layers": [["densedec_task_00_term_00", 0, 0]]}, "keras_version": "2.2.4", "backend": "tensorflow"}
&&&&&&&&&&&&&&&&&&&&&&&&&&&&&&&&&&&&&&&&&&&&&&&&&&&&&&&&&&&&&&&&&&&&&&&&&&&&&&&&&&&&&&&&&&&&&&&&&&&&&&&&&&&&&&&&&&&&&&&&&&&&&&&
global_hyperparameters {'id': '11', 'learning_rate': 0.00017941124770046206}
&&&&&&&&&&&&&&&&&&&&&&&&&&&&&&&&&&&&&&&&&&&&&&&&&&&&&&&&&&&&&&&&&&&&&&&&&&&&&&&&&&&&&&&&&&&&&&&&&&&&&&&&&&&&&&&&&&&&&&&&&&&&&&&
domain_config {'dummy_load': False, 'local_data_cachedir': '~/enn_datacache', 'data_basedir': '/home/ubuntu/Data_face/', 'send_data': True, 'verbose': False, 'gpu_mem_frac': None, 'stop_cond': {'min_improve_hist_length': 999, 'min_improvement': 0, 'timeout_seconds': 999999}, 'evaluator_class_name': 'faceAgeEvaluator', 'dummy_run': 'real', 'train_dataset': 'train', 'test_dataset': 'test', 'subsample': True, 'subsample_amount': 5, 'test_subsample': True, 'test_subsample_amount': 5, 'num_iterations_per_epoch': 1, 'upload_best_model': False, 'upload_trained_model': False, 'custom_train_seed': None, 'test_val_only': True, 'test_every_epoch': False, 'checkpoint_dir': '.', 'timestamp_chkpt_dir': False, 'load_checkpoint': False, 'num_epochs': 1, 'batch_size': 5, 'checkpoint_interval': None, 'persist_weights': False, 'shuffle_data': False, 'train_abs_num_epochs': False, 'extra_config': None, 'info': {'image_size': 224, 'num_channels': 3, 'num_classes': 7, 'multitask': False, 'num_tasks': 1, 'loss_function': 'categorical_crossentropy', 'augment': False, 'test_augment': None, 'lr_scale': 1.0, 'lr_floor': 0.0, 'lr_decay': 10, 'lr_decay_amount': 0.1, 'encoder': None, 'encoder_layer_name': None, 'encoder_output_size': None, 'encoder_weights': None, 'enable_alt_obj': False, 'dummy_fitness': False, 'unzip_curr_dir': False, 'train_subsample_tau': 0.6}, 'filename_dict': {'datafile': 'images_224_compressed.tar.gz', 'partition': 'py3_chex_partition14_unormalized_cleaned.pickle', 'labels': 'py3_chex_labels14_unormalized_cleaned.pickle'}}
Using SeeNNModuleCatalog to draw candidate 11
&&&&&&&&&&&&&&&&&&&&&&&&&&&&&&&&&&&&&&&&&&&&&&&&&&&&&&&&&&&&&&&&&&&&&&&&&&&&&&&&&&&&&&&&&&&&&&&&&&&&&&&&&&&&&&&&&&&&&&&&&&&&&&&
model_json {"class_name": "Model", "config": {"name": "model_1", "layers": [{"name": "input_task_00_term_00", "class_name": "InputLayer", "config": {"batch_input_shape": [null, 224, 224, 3], "dtype": "float32", "sparse": false, "name": "input_task_00_term_00"}, "inbound_nodes": []}, {"name": "reshape1_enc_task_00_term_00", "class_name": "Reshape", "config": {"name": "reshape1_enc_task_00_term_00", "trainable": true, "target_shape": [224, 224, 3, 1]}, "inbound_nodes": [[["input_task_00_term_00", 0, 0, {}]]]}, {"name": "zeropad_enc_task_00_term_00", "class_name": "ZeroPadding3D", "config": {"name": "zeropad_enc_task_00_term_00", "trainable": true, "padding": [[0, 0], [0, 0], [0, 21]], "data_format": "channels_last"}, "inbound_nodes": [[["reshape1_enc_task_00_term_00", 0, 0, {}]]]}, {"name": "reshape2_enc_task_00_term_00", "class_name": "Reshape", "config": {"name": "reshape2_enc_task_00_term_00", "trainable": true, "target_shape": [224, 224, 24]}, "inbound_nodes": [[["zeropad_enc_task_00_term_00", 0, 0, {}]]]}, {"name": "model_1_module_13_1_5", "class_name": "Model", "config": {"name": "model_1_module_13_1_5", "layers": [{"name": "input_1", "class_name": "InputLayer", "config": {"batch_input_shape": [null, 224, 224, 24], "dtype": "float32", "sparse": false, "name": "input_1"}, "inbound_nodes": []}, {"name": "layer_3_Conv2D_0", "class_name": "Conv2D", "config": {"name": "layer_3_Conv2D_0", "trainable": true, "filters": 3, "kernel_size": [1, 1], "strides": [1, 1], "padding": "same", "data_format": "channels_last", "dilation_rate": [1, 1], "activation": "elu", "use_bias": true, "kernel_initializer": {"class_name": "VarianceScaling", "config": {"scale": 1.0, "mode": "fan_avg", "distribution": "normal", "seed": null}}, "bias_initializer": {"class_name": "Zeros", "config": {}}, "kernel_regularizer": {"class_name": "L1L2", "config": {"l1": 0.0, "l2": 0.00016678252723068}}, "bias_regularizer": null, "activity_regularizer": null, "kernel_constraint": null, "bias_constraint": null}, "inbound_nodes": [[["input_1", 0, 0, {}]]]}, {"name": "layer_3_Dropout_1", "class_name": "Dropout", "config": {"name": "layer_3_Dropout_1", "trainable": true, "rate": 0.304616498040077, "noise_shape": null, "seed": null}, "inbound_nodes": [[["layer_3_Conv2D_0", 0, 0, {}]]]}, {"name": "Conv2D", "class_name": "Conv2D", "config": {"name": "Conv2D", "trainable": true, "filters": 24, "kernel_size": [1, 1], "strides": [1, 1], "padding": "same", "data_format": "channels_last", "dilation_rate": [1, 1], "activation": "linear", "use_bias": true, "kernel_initializer": {"class_name": "VarianceScaling", "config": {"scale": 1.0, "mode": "fan_avg", "distribution": "uniform", "seed": null}}, "bias_initializer": {"class_name": "Zeros", "config": {}}, "kernel_regularizer": {"class_name": "L1L2", "config": {"l1": 0.0, "l2": 7.388308586087078e-05}}, "bias_regularizer": null, "activity_regularizer": null, "kernel_constraint": null, "bias_constraint": null}, "inbound_nodes": [[["layer_3_Dropout_1", 0, 0, {}]]]}, {"name": "MaxPooling2D", "class_name": "MaxPooling2D", "config": {"name": "MaxPooling2D", "trainable": true, "pool_size": [2, 2], "padding": "valid", "strides": [2, 2], "data_format": "channels_last"}, "inbound_nodes": [[["Conv2D", 0, 0, {}]]]}], "input_layers": [["input_1", 0, 0]], "output_layers": [["MaxPooling2D", 0, 0]]}, "inbound_nodes": [[["reshape2_enc_task_00_term_00", 0, 0, {}]]]}, {"name": "constant_input", "class_name": "InputLayer", "config": {"batch_input_shape": [null, 1], "dtype": "float32", "sparse": false, "name": "constant_input"}, "inbound_nodes": []}, {"name": "model_2_module_13_1", "class_name": "Model", "config": {"name": "model_2_module_13_1", "layers": [{"name": "input_2", "class_name": "InputLayer", "config": {"batch_input_shape": [null, 112, 112, 24], "dtype": "float32", "sparse": false, "name": "input_2"}, "inbound_nodes": []}, {"name": "layer_3_Conv2D_0", "class_name": "Conv2D", "config": {"name": "layer_3_Conv2D_0", "trainable": true, "filters": 3, "kernel_size": [1, 1], "strides": [1, 1], "padding": "same", "data_format": "channels_last", "dilation_rate": [1, 1], "activation": "elu", "use_bias": true, "kernel_initializer": {"class_name": "VarianceScaling", "config": {"scale": 1.0, "mode": "fan_avg", "distribution": "normal", "seed": null}}, "bias_initializer": {"class_name": "Zeros", "config": {}}, "kernel_regularizer": {"class_name": "L1L2", "config": {"l1": 0.0, "l2": 0.00016678252723068}}, "bias_regularizer": null, "activity_regularizer": null, "kernel_constraint": null, "bias_constraint": null}, "inbound_nodes": [[["input_2", 0, 0, {}]]]}, {"name": "layer_3_Dropout_1", "class_name": "Dropout", "config": {"name": "layer_3_Dropout_1", "trainable": true, "rate": 0.304616498040077, "noise_shape": null, "seed": null}, "inbound_nodes": [[["layer_3_Conv2D_0", 0, 0, {}]]]}, {"name": "Conv2D", "class_name": "Conv2D", "config": {"name": "Conv2D", "trainable": true, "filters": 24, "kernel_size": [1, 1], "strides": [1, 1], "padding": "same", "data_format": "channels_last", "dilation_rate": [1, 1], "activation": "linear", "use_bias": true, "kernel_initializer": {"class_name": "VarianceScaling", "config": {"scale": 1.0, "mode": "fan_avg", "distribution": "uniform", "seed": null}}, "bias_initializer": {"class_name": "Zeros", "config": {}}, "kernel_regularizer": {"class_name": "L1L2", "config": {"l1": 0.0, "l2": 7.388308586087078e-05}}, "bias_regularizer": null, "activity_regularizer": null, "kernel_constraint": null, "bias_constraint": null}, "inbound_nodes": [[["layer_3_Dropout_1", 0, 0, {}]]]}, {"name": "MaxPooling2D", "class_name": "MaxPooling2D", "config": {"name": "MaxPooling2D", "trainable": true, "pool_size": [2, 2], "padding": "valid", "strides": [2, 2], "data_format": "channels_last"}, "inbound_nodes": [[["Conv2D", 0, 0, {}]]]}], "input_layers": [["input_2", 0, 0]], "output_layers": [["MaxPooling2D", 0, 0]]}, "inbound_nodes": [[["model_1_module_13_1_5", 1, 0, {}]]]}, {"name": "maxpool_task_00_node_07_block_00", "class_name": "MaxPooling2D", "config": {"name": "maxpool_task_00_node_07_block_00", "trainable": true, "pool_size": [2, 2], "padding": "valid", "strides": [2, 2], "data_format": "channels_last"}, "inbound_nodes": [[["model_1_module_13_1_5", 1, 0, {}]]]}, {"name": "model_softmod_task_00_node_07", "class_name": "Model", "config": {"name": "model_softmod_task_00_node_07", "layers": [{"name": "constant_input_softmod_task_00_node_07", "class_name": "InputLayer", "config": {"batch_input_shape": [null, 1], "dtype": "float32", "sparse": false, "name": "constant_input_softmod_task_00_node_07"}, "inbound_nodes": []}, {"name": "dense_softmod_task_00_node_07_block_00", "class_name": "Dense", "config": {"name": "dense_softmod_task_00_node_07_block_00", "trainable": true, "units": 1, "activation": "sigmoid", "use_bias": true, "kernel_initializer": {"class_name": "VarianceScaling", "config": {"scale": 1.0, "mode": "fan_avg", "distribution": "uniform", "seed": null}}, "bias_initializer": {"class_name": "Zeros", "config": {}}, "kernel_regularizer": null, "bias_regularizer": null, "activity_regularizer": null, "kernel_constraint": null, "bias_constraint": null}, "inbound_nodes": [[["constant_input_softmod_task_00_node_07", 0, 0, {}]]]}, {"name": "dense_softmod_task_00_node_07_block_01", "class_name": "Dense", "config": {"name": "dense_softmod_task_00_node_07_block_01", "trainable": true, "units": 1, "activation": "sigmoid", "use_bias": true, "kernel_initializer": {"class_name": "VarianceScaling", "config": {"scale": 1.0, "mode": "fan_avg", "distribution": "uniform", "seed": null}}, "bias_initializer": {"class_name": "Zeros", "config": {}}, "kernel_regularizer": null, "bias_regularizer": null, "activity_regularizer": null, "kernel_constraint": null, "bias_constraint": null}, "inbound_nodes": [[["constant_input_softmod_task_00_node_07", 0, 0, {}]]]}, {"name": "repeat_softmod_task_00_node_07_block_00", "class_name": "RepeatVector", "config": {"name": "repeat_softmod_task_00_node_07_block_00", "trainable": true, "n": 75264}, "inbound_nodes": [[["dense_softmod_task_00_node_07_block_00", 0, 0, {}]]]}, {"name": "repeat_softmod_task_00_node_07_block_01", "class_name": "RepeatVector", "config": {"name": "repeat_softmod_task_00_node_07_block_01", "trainable": true, "n": 75264}, "inbound_nodes": [[["dense_softmod_task_00_node_07_block_01", 0, 0, {}]]]}, {"name": "reshape_softmod_task_00_node_07_block_00", "class_name": "Reshape", "config": {"name": "reshape_softmod_task_00_node_07_block_00", "trainable": true, "target_shape": [56, 56, 24]}, "inbound_nodes": [[["repeat_softmod_task_00_node_07_block_00", 0, 0, {}]]]}, {"name": "output_input_softmod_task_00_node_07_block_00", "class_name": "InputLayer", "config": {"batch_input_shape": [null, 56, 56, 24], "dtype": "float32", "sparse": false, "name": "output_input_softmod_task_00_node_07_block_00"}, "inbound_nodes": []}, {"name": "reshape_softmod_task_00_node_07_block_01", "class_name": "Reshape", "config": {"name": "reshape_softmod_task_00_node_07_block_01", "trainable": true, "target_shape": [56, 56, 24]}, "inbound_nodes": [[["repeat_softmod_task_00_node_07_block_01", 0, 0, {}]]]}, {"name": "output_input_softmod_task_00_node_07_block_01", "class_name": "InputLayer", "config": {"batch_input_shape": [null, 56, 56, 24], "dtype": "float32", "sparse": false, "name": "output_input_softmod_task_00_node_07_block_01"}, "inbound_nodes": []}, {"name": "mult_softmod_task_00_node_07_block_00", "class_name": "Multiply", "config": {"name": "mult_softmod_task_00_node_07_block_00", "trainable": true}, "inbound_nodes": [[["reshape_softmod_task_00_node_07_block_00", 0, 0, {}], ["output_input_softmod_task_00_node_07_block_00", 0, 0, {}]]]}, {"name": "mult_softmod_task_00_node_07_block_01", "class_name": "Multiply", "config": {"name": "mult_softmod_task_00_node_07_block_01", "trainable": true}, "inbound_nodes": [[["reshape_softmod_task_00_node_07_block_01", 0, 0, {}], ["output_input_softmod_task_00_node_07_block_01", 0, 0, {}]]]}, {"name": "add_softmod_task_00_node_07", "class_name": "Add", "config": {"name": "add_softmod_task_00_node_07", "trainable": true}, "inbound_nodes": [[["mult_softmod_task_00_node_07_block_00", 0, 0, {}], ["mult_softmod_task_00_node_07_block_01", 0, 0, {}]]]}], "input_layers": [["constant_input_softmod_task_00_node_07", 0, 0], ["output_input_softmod_task_00_node_07_block_00", 0, 0], ["output_input_softmod_task_00_node_07_block_01", 0, 0]], "output_layers": [["add_softmod_task_00_node_07", 0, 0]]}, "inbound_nodes": [[["constant_input", 0, 0, {}], ["maxpool_task_00_node_07_block_00", 0, 0, {}], ["model_2_module_13_1", 1, 0, {}]]]}, {"name": "model_3_module_13_1_6", "class_name": "Model", "config": {"name": "model_3_module_13_1_6", "layers": [{"name": "input_3", "class_name": "InputLayer", "config": {"batch_input_shape": [null, 56, 56, 24], "dtype": "float32", "sparse": false, "name": "input_3"}, "inbound_nodes": []}, {"name": "layer_3_Conv2D_0", "class_name": "Conv2D", "config": {"name": "layer_3_Conv2D_0", "trainable": true, "filters": 3, "kernel_size": [1, 1], "strides": [1, 1], "padding": "same", "data_format": "channels_last", "dilation_rate": [1, 1], "activation": "elu", "use_bias": true, "kernel_initializer": {"class_name": "VarianceScaling", "config": {"scale": 1.0, "mode": "fan_avg", "distribution": "normal", "seed": null}}, "bias_initializer": {"class_name": "Zeros", "config": {}}, "kernel_regularizer": {"class_name": "L1L2", "config": {"l1": 0.0, "l2": 0.00016678252723068}}, "bias_regularizer": null, "activity_regularizer": null, "kernel_constraint": null, "bias_constraint": null}, "inbound_nodes": [[["input_3", 0, 0, {}]]]}, {"name": "layer_3_Dropout_1", "class_name": "Dropout", "config": {"name": "layer_3_Dropout_1", "trainable": true, "rate": 0.304616498040077, "noise_shape": null, "seed": null}, "inbound_nodes": [[["layer_3_Conv2D_0", 0, 0, {}]]]}, {"name": "Conv2D", "class_name": "Conv2D", "config": {"name": "Conv2D", "trainable": true, "filters": 24, "kernel_size": [1, 1], "strides": [1, 1], "padding": "same", "data_format": "channels_last", "dilation_rate": [1, 1], "activation": "linear", "use_bias": true, "kernel_initializer": {"class_name": "VarianceScaling", "config": {"scale": 1.0, "mode": "fan_avg", "distribution": "uniform", "seed": null}}, "bias_initializer": {"class_name": "Zeros", "config": {}}, "kernel_regularizer": {"class_name": "L1L2", "config": {"l1": 0.0, "l2": 7.388308586087078e-05}}, "bias_regularizer": null, "activity_regularizer": null, "kernel_constraint": null, "bias_constraint": null}, "inbound_nodes": [[["layer_3_Dropout_1", 0, 0, {}]]]}, {"name": "MaxPooling2D", "class_name": "MaxPooling2D", "config": {"name": "MaxPooling2D", "trainable": true, "pool_size": [2, 2], "padding": "valid", "strides": [2, 2], "data_format": "channels_last"}, "inbound_nodes": [[["Conv2D", 0, 0, {}]]]}], "input_layers": [["input_3", 0, 0]], "output_layers": [["MaxPooling2D", 0, 0]]}, "inbound_nodes": [[["model_2_module_13_1", 1, 0, {}]]]}, {"name": "model_3_module_13_1_7", "class_name": "Model", "config": {"name": "model_3_module_13_1_7", "layers": [{"name": "input_3", "class_name": "InputLayer", "config": {"batch_input_shape": [null, 56, 56, 24], "dtype": "float32", "sparse": false, "name": "input_3"}, "inbound_nodes": []}, {"name": "layer_3_Conv2D_0", "class_name": "Conv2D", "config": {"name": "layer_3_Conv2D_0", "trainable": true, "filters": 3, "kernel_size": [1, 1], "strides": [1, 1], "padding": "same", "data_format": "channels_last", "dilation_rate": [1, 1], "activation": "elu", "use_bias": true, "kernel_initializer": {"class_name": "VarianceScaling", "config": {"scale": 1.0, "mode": "fan_avg", "distribution": "normal", "seed": null}}, "bias_initializer": {"class_name": "Zeros", "config": {}}, "kernel_regularizer": {"class_name": "L1L2", "config": {"l1": 0.0, "l2": 0.00016678252723068}}, "bias_regularizer": null, "activity_regularizer": null, "kernel_constraint": null, "bias_constraint": null}, "inbound_nodes": [[["input_3", 0, 0, {}]]]}, {"name": "layer_3_Dropout_1", "class_name": "Dropout", "config": {"name": "layer_3_Dropout_1", "trainable": true, "rate": 0.304616498040077, "noise_shape": null, "seed": null}, "inbound_nodes": [[["layer_3_Conv2D_0", 0, 0, {}]]]}, {"name": "Conv2D", "class_name": "Conv2D", "config": {"name": "Conv2D", "trainable": true, "filters": 24, "kernel_size": [1, 1], "strides": [1, 1], "padding": "same", "data_format": "channels_last", "dilation_rate": [1, 1], "activation": "linear", "use_bias": true, "kernel_initializer": {"class_name": "VarianceScaling", "config": {"scale": 1.0, "mode": "fan_avg", "distribution": "uniform", "seed": null}}, "bias_initializer": {"class_name": "Zeros", "config": {}}, "kernel_regularizer": {"class_name": "L1L2", "config": {"l1": 0.0, "l2": 7.388308586087078e-05}}, "bias_regularizer": null, "activity_regularizer": null, "kernel_constraint": null, "bias_constraint": null}, "inbound_nodes": [[["layer_3_Dropout_1", 0, 0, {}]]]}, {"name": "MaxPooling2D", "class_name": "MaxPooling2D", "config": {"name": "MaxPooling2D", "trainable": true, "pool_size": [2, 2], "padding": "valid", "strides": [2, 2], "data_format": "channels_last"}, "inbound_nodes": [[["Conv2D", 0, 0, {}]]]}], "input_layers": [["input_3", 0, 0]], "output_layers": [["MaxPooling2D", 0, 0]]}, "inbound_nodes": [[["model_softmod_task_00_node_07", 1, 0, {}]]]}, {"name": "model_softmod_task_00_node_04", "class_name": "Model", "config": {"name": "model_softmod_task_00_node_04", "layers": [{"name": "constant_input_softmod_task_00_node_04", "class_name": "InputLayer", "config": {"batch_input_shape": [null, 1], "dtype": "float32", "sparse": false, "name": "constant_input_softmod_task_00_node_04"}, "inbound_nodes": []}, {"name": "dense_softmod_task_00_node_04_block_00", "class_name": "Dense", "config": {"name": "dense_softmod_task_00_node_04_block_00", "trainable": true, "units": 1, "activation": "sigmoid", "use_bias": true, "kernel_initializer": {"class_name": "VarianceScaling", "config": {"scale": 1.0, "mode": "fan_avg", "distribution": "uniform", "seed": null}}, "bias_initializer": {"class_name": "Zeros", "config": {}}, "kernel_regularizer": null, "bias_regularizer": null, "activity_regularizer": null, "kernel_constraint": null, "bias_constraint": null}, "inbound_nodes": [[["constant_input_softmod_task_00_node_04", 0, 0, {}]]]}, {"name": "dense_softmod_task_00_node_04_block_01", "class_name": "Dense", "config": {"name": "dense_softmod_task_00_node_04_block_01", "trainable": true, "units": 1, "activation": "sigmoid", "use_bias": true, "kernel_initializer": {"class_name": "VarianceScaling", "config": {"scale": 1.0, "mode": "fan_avg", "distribution": "uniform", "seed": null}}, "bias_initializer": {"class_name": "Zeros", "config": {}}, "kernel_regularizer": null, "bias_regularizer": null, "activity_regularizer": null, "kernel_constraint": null, "bias_constraint": null}, "inbound_nodes": [[["constant_input_softmod_task_00_node_04", 0, 0, {}]]]}, {"name": "repeat_softmod_task_00_node_04_block_00", "class_name": "RepeatVector", "config": {"name": "repeat_softmod_task_00_node_04_block_00", "trainable": true, "n": 18816}, "inbound_nodes": [[["dense_softmod_task_00_node_04_block_00", 0, 0, {}]]]}, {"name": "repeat_softmod_task_00_node_04_block_01", "class_name": "RepeatVector", "config": {"name": "repeat_softmod_task_00_node_04_block_01", "trainable": true, "n": 18816}, "inbound_nodes": [[["dense_softmod_task_00_node_04_block_01", 0, 0, {}]]]}, {"name": "reshape_softmod_task_00_node_04_block_00", "class_name": "Reshape", "config": {"name": "reshape_softmod_task_00_node_04_block_00", "trainable": true, "target_shape": [28, 28, 24]}, "inbound_nodes": [[["repeat_softmod_task_00_node_04_block_00", 0, 0, {}]]]}, {"name": "output_input_softmod_task_00_node_04_block_00", "class_name": "InputLayer", "config": {"batch_input_shape": [null, 28, 28, 24], "dtype": "float32", "sparse": false, "name": "output_input_softmod_task_00_node_04_block_00"}, "inbound_nodes": []}, {"name": "reshape_softmod_task_00_node_04_block_01", "class_name": "Reshape", "config": {"name": "reshape_softmod_task_00_node_04_block_01", "trainable": true, "target_shape": [28, 28, 24]}, "inbound_nodes": [[["repeat_softmod_task_00_node_04_block_01", 0, 0, {}]]]}, {"name": "output_input_softmod_task_00_node_04_block_01", "class_name": "InputLayer", "config": {"batch_input_shape": [null, 28, 28, 24], "dtype": "float32", "sparse": false, "name": "output_input_softmod_task_00_node_04_block_01"}, "inbound_nodes": []}, {"name": "mult_softmod_task_00_node_04_block_00", "class_name": "Multiply", "config": {"name": "mult_softmod_task_00_node_04_block_00", "trainable": true}, "inbound_nodes": [[["reshape_softmod_task_00_node_04_block_00", 0, 0, {}], ["output_input_softmod_task_00_node_04_block_00", 0, 0, {}]]]}, {"name": "mult_softmod_task_00_node_04_block_01", "class_name": "Multiply", "config": {"name": "mult_softmod_task_00_node_04_block_01", "trainable": true}, "inbound_nodes": [[["reshape_softmod_task_00_node_04_block_01", 0, 0, {}], ["output_input_softmod_task_00_node_04_block_01", 0, 0, {}]]]}, {"name": "add_softmod_task_00_node_04", "class_name": "Add", "config": {"name": "add_softmod_task_00_node_04", "trainable": true}, "inbound_nodes": [[["mult_softmod_task_00_node_04_block_00", 0, 0, {}], ["mult_softmod_task_00_node_04_block_01", 0, 0, {}]]]}], "input_layers": [["constant_input_softmod_task_00_node_04", 0, 0], ["output_input_softmod_task_00_node_04_block_00", 0, 0], ["output_input_softmod_task_00_node_04_block_01", 0, 0]], "output_layers": [["add_softmod_task_00_node_04", 0, 0]]}, "inbound_nodes": [[["constant_input", 0, 0, {}], ["model_3_module_13_1_6", 1, 0, {}], ["model_3_module_13_1_7", 1, 0, {}]]]}, {"name": "model_1_module_13_1", "class_name": "Model", "config": {"name": "model_1_module_13_1", "layers": [{"name": "input_1", "class_name": "InputLayer", "config": {"batch_input_shape": [null, 224, 224, 24], "dtype": "float32", "sparse": false, "name": "input_1"}, "inbound_nodes": []}, {"name": "layer_3_Conv2D_0", "class_name": "Conv2D", "config": {"name": "layer_3_Conv2D_0", "trainable": true, "filters": 3, "kernel_size": [1, 1], "strides": [1, 1], "padding": "same", "data_format": "channels_last", "dilation_rate": [1, 1], "activation": "elu", "use_bias": true, "kernel_initializer": {"class_name": "VarianceScaling", "config": {"scale": 1.0, "mode": "fan_avg", "distribution": "normal", "seed": null}}, "bias_initializer": {"class_name": "Zeros", "config": {}}, "kernel_regularizer": {"class_name": "L1L2", "config": {"l1": 0.0, "l2": 0.00016678252723068}}, "bias_regularizer": null, "activity_regularizer": null, "kernel_constraint": null, "bias_constraint": null}, "inbound_nodes": [[["input_1", 0, 0, {}]]]}, {"name": "layer_3_Dropout_1", "class_name": "Dropout", "config": {"name": "layer_3_Dropout_1", "trainable": true, "rate": 0.304616498040077, "noise_shape": null, "seed": null}, "inbound_nodes": [[["layer_3_Conv2D_0", 0, 0, {}]]]}, {"name": "Conv2D", "class_name": "Conv2D", "config": {"name": "Conv2D", "trainable": true, "filters": 24, "kernel_size": [1, 1], "strides": [1, 1], "padding": "same", "data_format": "channels_last", "dilation_rate": [1, 1], "activation": "linear", "use_bias": true, "kernel_initializer": {"class_name": "VarianceScaling", "config": {"scale": 1.0, "mode": "fan_avg", "distribution": "uniform", "seed": null}}, "bias_initializer": {"class_name": "Zeros", "config": {}}, "kernel_regularizer": {"class_name": "L1L2", "config": {"l1": 0.0, "l2": 7.388308586087078e-05}}, "bias_regularizer": null, "activity_regularizer": null, "kernel_constraint": null, "bias_constraint": null}, "inbound_nodes": [[["layer_3_Dropout_1", 0, 0, {}]]]}, {"name": "MaxPooling2D", "class_name": "MaxPooling2D", "config": {"name": "MaxPooling2D", "trainable": true, "pool_size": [2, 2], "padding": "valid", "strides": [2, 2], "data_format": "channels_last"}, "inbound_nodes": [[["Conv2D", 0, 0, {}]]]}], "input_layers": [["input_1", 0, 0]], "output_layers": [["MaxPooling2D", 0, 0]]}, "inbound_nodes": [[["reshape2_enc_task_00_term_00", 0, 0, {}]]]}, {"name": "model_4_module_13_1", "class_name": "Model", "config": {"name": "model_4_module_13_1", "layers": [{"name": "input_4", "class_name": "InputLayer", "config": {"batch_input_shape": [null, 28, 28, 24], "dtype": "float32", "sparse": false, "name": "input_4"}, "inbound_nodes": []}, {"name": "layer_3_Conv2D_0", "class_name": "Conv2D", "config": {"name": "layer_3_Conv2D_0", "trainable": true, "filters": 3, "kernel_size": [1, 1], "strides": [1, 1], "padding": "same", "data_format": "channels_last", "dilation_rate": [1, 1], "activation": "elu", "use_bias": true, "kernel_initializer": {"class_name": "VarianceScaling", "config": {"scale": 1.0, "mode": "fan_avg", "distribution": "normal", "seed": null}}, "bias_initializer": {"class_name": "Zeros", "config": {}}, "kernel_regularizer": {"class_name": "L1L2", "config": {"l1": 0.0, "l2": 0.00016678252723068}}, "bias_regularizer": null, "activity_regularizer": null, "kernel_constraint": null, "bias_constraint": null}, "inbound_nodes": [[["input_4", 0, 0, {}]]]}, {"name": "layer_3_Dropout_1", "class_name": "Dropout", "config": {"name": "layer_3_Dropout_1", "trainable": true, "rate": 0.304616498040077, "noise_shape": null, "seed": null}, "inbound_nodes": [[["layer_3_Conv2D_0", 0, 0, {}]]]}, {"name": "Conv2D", "class_name": "Conv2D", "config": {"name": "Conv2D", "trainable": true, "filters": 24, "kernel_size": [1, 1], "strides": [1, 1], "padding": "same", "data_format": "channels_last", "dilation_rate": [1, 1], "activation": "linear", "use_bias": true, "kernel_initializer": {"class_name": "VarianceScaling", "config": {"scale": 1.0, "mode": "fan_avg", "distribution": "uniform", "seed": null}}, "bias_initializer": {"class_name": "Zeros", "config": {}}, "kernel_regularizer": {"class_name": "L1L2", "config": {"l1": 0.0, "l2": 7.388308586087078e-05}}, "bias_regularizer": null, "activity_regularizer": null, "kernel_constraint": null, "bias_constraint": null}, "inbound_nodes": [[["layer_3_Dropout_1", 0, 0, {}]]]}, {"name": "MaxPooling2D", "class_name": "MaxPooling2D", "config": {"name": "MaxPooling2D", "trainable": true, "pool_size": [2, 2], "padding": "valid", "strides": [2, 2], "data_format": "channels_last"}, "inbound_nodes": [[["Conv2D", 0, 0, {}]]]}], "input_layers": [["input_4", 0, 0]], "output_layers": [["MaxPooling2D", 0, 0]]}, "inbound_nodes": [[["model_softmod_task_00_node_04", 1, 0, {}]]]}, {"name": "maxpool_task_00_node_03_block_01", "class_name": "MaxPooling2D", "config": {"name": "maxpool_task_00_node_03_block_01", "trainable": true, "pool_size": [2, 2], "padding": "valid", "strides": [2, 2], "data_format": "channels_last"}, "inbound_nodes": [[["model_3_module_13_1_7", 1, 0, {}]]]}, {"name": "maxpool_task_00_node_09_block_01", "class_name": "MaxPooling2D", "config": {"name": "maxpool_task_00_node_09_block_01", "trainable": true, "pool_size": [8, 8], "padding": "valid", "strides": [8, 8], "data_format": "channels_last"}, "inbound_nodes": [[["model_1_module_13_1", 1, 0, {}]]]}, {"name": "model_softmod_task_00_node_03", "class_name": "Model", "config": {"name": "model_softmod_task_00_node_03", "layers": [{"name": "constant_input_softmod_task_00_node_03", "class_name": "InputLayer", "config": {"batch_input_shape": [null, 1], "dtype": "float32", "sparse": false, "name": "constant_input_softmod_task_00_node_03"}, "inbound_nodes": []}, {"name": "dense_softmod_task_00_node_03_block_00", "class_name": "Dense", "config": {"name": "dense_softmod_task_00_node_03_block_00", "trainable": true, "units": 1, "activation": "sigmoid", "use_bias": true, "kernel_initializer": {"class_name": "VarianceScaling", "config": {"scale": 1.0, "mode": "fan_avg", "distribution": "uniform", "seed": null}}, "bias_initializer": {"class_name": "Zeros", "config": {}}, "kernel_regularizer": null, "bias_regularizer": null, "activity_regularizer": null, "kernel_constraint": null, "bias_constraint": null}, "inbound_nodes": [[["constant_input_softmod_task_00_node_03", 0, 0, {}]]]}, {"name": "dense_softmod_task_00_node_03_block_01", "class_name": "Dense", "config": {"name": "dense_softmod_task_00_node_03_block_01", "trainable": true, "units": 1, "activation": "sigmoid", "use_bias": true, "kernel_initializer": {"class_name": "VarianceScaling", "config": {"scale": 1.0, "mode": "fan_avg", "distribution": "uniform", "seed": null}}, "bias_initializer": {"class_name": "Zeros", "config": {}}, "kernel_regularizer": null, "bias_regularizer": null, "activity_regularizer": null, "kernel_constraint": null, "bias_constraint": null}, "inbound_nodes": [[["constant_input_softmod_task_00_node_03", 0, 0, {}]]]}, {"name": "repeat_softmod_task_00_node_03_block_00", "class_name": "RepeatVector", "config": {"name": "repeat_softmod_task_00_node_03_block_00", "trainable": true, "n": 4704}, "inbound_nodes": [[["dense_softmod_task_00_node_03_block_00", 0, 0, {}]]]}, {"name": "repeat_softmod_task_00_node_03_block_01", "class_name": "RepeatVector", "config": {"name": "repeat_softmod_task_00_node_03_block_01", "trainable": true, "n": 4704}, "inbound_nodes": [[["dense_softmod_task_00_node_03_block_01", 0, 0, {}]]]}, {"name": "reshape_softmod_task_00_node_03_block_00", "class_name": "Reshape", "config": {"name": "reshape_softmod_task_00_node_03_block_00", "trainable": true, "target_shape": [14, 14, 24]}, "inbound_nodes": [[["repeat_softmod_task_00_node_03_block_00", 0, 0, {}]]]}, {"name": "output_input_softmod_task_00_node_03_block_00", "class_name": "InputLayer", "config": {"batch_input_shape": [null, 14, 14, 24], "dtype": "float32", "sparse": false, "name": "output_input_softmod_task_00_node_03_block_00"}, "inbound_nodes": []}, {"name": "reshape_softmod_task_00_node_03_block_01", "class_name": "Reshape", "config": {"name": "reshape_softmod_task_00_node_03_block_01", "trainable": true, "target_shape": [14, 14, 24]}, "inbound_nodes": [[["repeat_softmod_task_00_node_03_block_01", 0, 0, {}]]]}, {"name": "output_input_softmod_task_00_node_03_block_01", "class_name": "InputLayer", "config": {"batch_input_shape": [null, 14, 14, 24], "dtype": "float32", "sparse": false, "name": "output_input_softmod_task_00_node_03_block_01"}, "inbound_nodes": []}, {"name": "mult_softmod_task_00_node_03_block_00", "class_name": "Multiply", "config": {"name": "mult_softmod_task_00_node_03_block_00", "trainable": true}, "inbound_nodes": [[["reshape_softmod_task_00_node_03_block_00", 0, 0, {}], ["output_input_softmod_task_00_node_03_block_00", 0, 0, {}]]]}, {"name": "mult_softmod_task_00_node_03_block_01", "class_name": "Multiply", "config": {"name": "mult_softmod_task_00_node_03_block_01", "trainable": true}, "inbound_nodes": [[["reshape_softmod_task_00_node_03_block_01", 0, 0, {}], ["output_input_softmod_task_00_node_03_block_01", 0, 0, {}]]]}, {"name": "add_softmod_task_00_node_03", "class_name": "Add", "config": {"name": "add_softmod_task_00_node_03", "trainable": true}, "inbound_nodes": [[["mult_softmod_task_00_node_03_block_00", 0, 0, {}], ["mult_softmod_task_00_node_03_block_01", 0, 0, {}]]]}], "input_layers": [["constant_input_softmod_task_00_node_03", 0, 0], ["output_input_softmod_task_00_node_03_block_00", 0, 0], ["output_input_softmod_task_00_node_03_block_01", 0, 0]], "output_layers": [["add_softmod_task_00_node_03", 0, 0]]}, "inbound_nodes": [[["constant_input", 0, 0, {}], ["model_4_module_13_1", 1, 0, {}], ["maxpool_task_00_node_03_block_01", 0, 0, {}]]]}, {"name": "model_softmod_task_00_node_09", "class_name": "Model", "config": {"name": "model_softmod_task_00_node_09", "layers": [{"name": "constant_input_softmod_task_00_node_09", "class_name": "InputLayer", "config": {"batch_input_shape": [null, 1], "dtype": "float32", "sparse": false, "name": "constant_input_softmod_task_00_node_09"}, "inbound_nodes": []}, {"name": "dense_softmod_task_00_node_09_block_00", "class_name": "Dense", "config": {"name": "dense_softmod_task_00_node_09_block_00", "trainable": true, "units": 1, "activation": "sigmoid", "use_bias": true, "kernel_initializer": {"class_name": "VarianceScaling", "config": {"scale": 1.0, "mode": "fan_avg", "distribution": "uniform", "seed": null}}, "bias_initializer": {"class_name": "Zeros", "config": {}}, "kernel_regularizer": null, "bias_regularizer": null, "activity_regularizer": null, "kernel_constraint": null, "bias_constraint": null}, "inbound_nodes": [[["constant_input_softmod_task_00_node_09", 0, 0, {}]]]}, {"name": "dense_softmod_task_00_node_09_block_01", "class_name": "Dense", "config": {"name": "dense_softmod_task_00_node_09_block_01", "trainable": true, "units": 1, "activation": "sigmoid", "use_bias": true, "kernel_initializer": {"class_name": "VarianceScaling", "config": {"scale": 1.0, "mode": "fan_avg", "distribution": "uniform", "seed": null}}, "bias_initializer": {"class_name": "Zeros", "config": {}}, "kernel_regularizer": null, "bias_regularizer": null, "activity_regularizer": null, "kernel_constraint": null, "bias_constraint": null}, "inbound_nodes": [[["constant_input_softmod_task_00_node_09", 0, 0, {}]]]}, {"name": "repeat_softmod_task_00_node_09_block_00", "class_name": "RepeatVector", "config": {"name": "repeat_softmod_task_00_node_09_block_00", "trainable": true, "n": 4704}, "inbound_nodes": [[["dense_softmod_task_00_node_09_block_00", 0, 0, {}]]]}, {"name": "repeat_softmod_task_00_node_09_block_01", "class_name": "RepeatVector", "config": {"name": "repeat_softmod_task_00_node_09_block_01", "trainable": true, "n": 4704}, "inbound_nodes": [[["dense_softmod_task_00_node_09_block_01", 0, 0, {}]]]}, {"name": "reshape_softmod_task_00_node_09_block_00", "class_name": "Reshape", "config": {"name": "reshape_softmod_task_00_node_09_block_00", "trainable": true, "target_shape": [14, 14, 24]}, "inbound_nodes": [[["repeat_softmod_task_00_node_09_block_00", 0, 0, {}]]]}, {"name": "output_input_softmod_task_00_node_09_block_00", "class_name": "InputLayer", "config": {"batch_input_shape": [null, 14, 14, 24], "dtype": "float32", "sparse": false, "name": "output_input_softmod_task_00_node_09_block_00"}, "inbound_nodes": []}, {"name": "reshape_softmod_task_00_node_09_block_01", "class_name": "Reshape", "config": {"name": "reshape_softmod_task_00_node_09_block_01", "trainable": true, "target_shape": [14, 14, 24]}, "inbound_nodes": [[["repeat_softmod_task_00_node_09_block_01", 0, 0, {}]]]}, {"name": "output_input_softmod_task_00_node_09_block_01", "class_name": "InputLayer", "config": {"batch_input_shape": [null, 14, 14, 24], "dtype": "float32", "sparse": false, "name": "output_input_softmod_task_00_node_09_block_01"}, "inbound_nodes": []}, {"name": "mult_softmod_task_00_node_09_block_00", "class_name": "Multiply", "config": {"name": "mult_softmod_task_00_node_09_block_00", "trainable": true}, "inbound_nodes": [[["reshape_softmod_task_00_node_09_block_00", 0, 0, {}], ["output_input_softmod_task_00_node_09_block_00", 0, 0, {}]]]}, {"name": "mult_softmod_task_00_node_09_block_01", "class_name": "Multiply", "config": {"name": "mult_softmod_task_00_node_09_block_01", "trainable": true}, "inbound_nodes": [[["reshape_softmod_task_00_node_09_block_01", 0, 0, {}], ["output_input_softmod_task_00_node_09_block_01", 0, 0, {}]]]}, {"name": "add_softmod_task_00_node_09", "class_name": "Add", "config": {"name": "add_softmod_task_00_node_09", "trainable": true}, "inbound_nodes": [[["mult_softmod_task_00_node_09_block_00", 0, 0, {}], ["mult_softmod_task_00_node_09_block_01", 0, 0, {}]]]}], "input_layers": [["constant_input_softmod_task_00_node_09", 0, 0], ["output_input_softmod_task_00_node_09_block_00", 0, 0], ["output_input_softmod_task_00_node_09_block_01", 0, 0]], "output_layers": [["add_softmod_task_00_node_09", 0, 0]]}, "inbound_nodes": [[["constant_input", 0, 0, {}], ["model_4_module_13_1", 1, 0, {}], ["maxpool_task_00_node_09_block_01", 0, 0, {}]]]}, {"name": "model_5_module_13_1_3", "class_name": "Model", "config": {"name": "model_5_module_13_1_3", "layers": [{"name": "input_5", "class_name": "InputLayer", "config": {"batch_input_shape": [null, 14, 14, 24], "dtype": "float32", "sparse": false, "name": "input_5"}, "inbound_nodes": []}, {"name": "layer_3_Conv2D_0", "class_name": "Conv2D", "config": {"name": "layer_3_Conv2D_0", "trainable": true, "filters": 3, "kernel_size": [1, 1], "strides": [1, 1], "padding": "same", "data_format": "channels_last", "dilation_rate": [1, 1], "activation": "elu", "use_bias": true, "kernel_initializer": {"class_name": "VarianceScaling", "config": {"scale": 1.0, "mode": "fan_avg", "distribution": "normal", "seed": null}}, "bias_initializer": {"class_name": "Zeros", "config": {}}, "kernel_regularizer": {"class_name": "L1L2", "config": {"l1": 0.0, "l2": 0.00016678252723068}}, "bias_regularizer": null, "activity_regularizer": null, "kernel_constraint": null, "bias_constraint": null}, "inbound_nodes": [[["input_5", 0, 0, {}]]]}, {"name": "layer_3_Dropout_1", "class_name": "Dropout", "config": {"name": "layer_3_Dropout_1", "trainable": true, "rate": 0.304616498040077, "noise_shape": null, "seed": null}, "inbound_nodes": [[["layer_3_Conv2D_0", 0, 0, {}]]]}, {"name": "Conv2D", "class_name": "Conv2D", "config": {"name": "Conv2D", "trainable": true, "filters": 24, "kernel_size": [1, 1], "strides": [1, 1], "padding": "same", "data_format": "channels_last", "dilation_rate": [1, 1], "activation": "linear", "use_bias": true, "kernel_initializer": {"class_name": "VarianceScaling", "config": {"scale": 1.0, "mode": "fan_avg", "distribution": "uniform", "seed": null}}, "bias_initializer": {"class_name": "Zeros", "config": {}}, "kernel_regularizer": {"class_name": "L1L2", "config": {"l1": 0.0, "l2": 7.388308586087078e-05}}, "bias_regularizer": null, "activity_regularizer": null, "kernel_constraint": null, "bias_constraint": null}, "inbound_nodes": [[["layer_3_Dropout_1", 0, 0, {}]]]}, {"name": "MaxPooling2D", "class_name": "MaxPooling2D", "config": {"name": "MaxPooling2D", "trainable": true, "pool_size": [2, 2], "padding": "valid", "strides": [2, 2], "data_format": "channels_last"}, "inbound_nodes": [[["Conv2D", 0, 0, {}]]]}], "input_layers": [["input_5", 0, 0]], "output_layers": [["MaxPooling2D", 0, 0]]}, "inbound_nodes": [[["model_softmod_task_00_node_03", 1, 0, {}]]]}, {"name": "model_5_module_13_1", "class_name": "Model", "config": {"name": "model_5_module_13_1", "layers": [{"name": "input_5", "class_name": "InputLayer", "config": {"batch_input_shape": [null, 14, 14, 24], "dtype": "float32", "sparse": false, "name": "input_5"}, "inbound_nodes": []}, {"name": "layer_3_Conv2D_0", "class_name": "Conv2D", "config": {"name": "layer_3_Conv2D_0", "trainable": true, "filters": 3, "kernel_size": [1, 1], "strides": [1, 1], "padding": "same", "data_format": "channels_last", "dilation_rate": [1, 1], "activation": "elu", "use_bias": true, "kernel_initializer": {"class_name": "VarianceScaling", "config": {"scale": 1.0, "mode": "fan_avg", "distribution": "normal", "seed": null}}, "bias_initializer": {"class_name": "Zeros", "config": {}}, "kernel_regularizer": {"class_name": "L1L2", "config": {"l1": 0.0, "l2": 0.00016678252723068}}, "bias_regularizer": null, "activity_regularizer": null, "kernel_constraint": null, "bias_constraint": null}, "inbound_nodes": [[["input_5", 0, 0, {}]]]}, {"name": "layer_3_Dropout_1", "class_name": "Dropout", "config": {"name": "layer_3_Dropout_1", "trainable": true, "rate": 0.304616498040077, "noise_shape": null, "seed": null}, "inbound_nodes": [[["layer_3_Conv2D_0", 0, 0, {}]]]}, {"name": "Conv2D", "class_name": "Conv2D", "config": {"name": "Conv2D", "trainable": true, "filters": 24, "kernel_size": [1, 1], "strides": [1, 1], "padding": "same", "data_format": "channels_last", "dilation_rate": [1, 1], "activation": "linear", "use_bias": true, "kernel_initializer": {"class_name": "VarianceScaling", "config": {"scale": 1.0, "mode": "fan_avg", "distribution": "uniform", "seed": null}}, "bias_initializer": {"class_name": "Zeros", "config": {}}, "kernel_regularizer": {"class_name": "L1L2", "config": {"l1": 0.0, "l2": 7.388308586087078e-05}}, "bias_regularizer": null, "activity_regularizer": null, "kernel_constraint": null, "bias_constraint": null}, "inbound_nodes": [[["layer_3_Dropout_1", 0, 0, {}]]]}, {"name": "MaxPooling2D", "class_name": "MaxPooling2D", "config": {"name": "MaxPooling2D", "trainable": true, "pool_size": [2, 2], "padding": "valid", "strides": [2, 2], "data_format": "channels_last"}, "inbound_nodes": [[["Conv2D", 0, 0, {}]]]}], "input_layers": [["input_5", 0, 0]], "output_layers": [["MaxPooling2D", 0, 0]]}, "inbound_nodes": [[["model_softmod_task_00_node_09", 1, 0, {}]]]}, {"name": "model_softmod_task_00_node_02", "class_name": "Model", "config": {"name": "model_softmod_task_00_node_02", "layers": [{"name": "constant_input_softmod_task_00_node_02", "class_name": "InputLayer", "config": {"batch_input_shape": [null, 1], "dtype": "float32", "sparse": false, "name": "constant_input_softmod_task_00_node_02"}, "inbound_nodes": []}, {"name": "dense_softmod_task_00_node_02_block_00", "class_name": "Dense", "config": {"name": "dense_softmod_task_00_node_02_block_00", "trainable": true, "units": 1, "activation": "sigmoid", "use_bias": true, "kernel_initializer": {"class_name": "VarianceScaling", "config": {"scale": 1.0, "mode": "fan_avg", "distribution": "uniform", "seed": null}}, "bias_initializer": {"class_name": "Zeros", "config": {}}, "kernel_regularizer": null, "bias_regularizer": null, "activity_regularizer": null, "kernel_constraint": null, "bias_constraint": null}, "inbound_nodes": [[["constant_input_softmod_task_00_node_02", 0, 0, {}]]]}, {"name": "dense_softmod_task_00_node_02_block_01", "class_name": "Dense", "config": {"name": "dense_softmod_task_00_node_02_block_01", "trainable": true, "units": 1, "activation": "sigmoid", "use_bias": true, "kernel_initializer": {"class_name": "VarianceScaling", "config": {"scale": 1.0, "mode": "fan_avg", "distribution": "uniform", "seed": null}}, "bias_initializer": {"class_name": "Zeros", "config": {}}, "kernel_regularizer": null, "bias_regularizer": null, "activity_regularizer": null, "kernel_constraint": null, "bias_constraint": null}, "inbound_nodes": [[["constant_input_softmod_task_00_node_02", 0, 0, {}]]]}, {"name": "repeat_softmod_task_00_node_02_block_00", "class_name": "RepeatVector", "config": {"name": "repeat_softmod_task_00_node_02_block_00", "trainable": true, "n": 1176}, "inbound_nodes": [[["dense_softmod_task_00_node_02_block_00", 0, 0, {}]]]}, {"name": "repeat_softmod_task_00_node_02_block_01", "class_name": "RepeatVector", "config": {"name": "repeat_softmod_task_00_node_02_block_01", "trainable": true, "n": 1176}, "inbound_nodes": [[["dense_softmod_task_00_node_02_block_01", 0, 0, {}]]]}, {"name": "reshape_softmod_task_00_node_02_block_00", "class_name": "Reshape", "config": {"name": "reshape_softmod_task_00_node_02_block_00", "trainable": true, "target_shape": [7, 7, 24]}, "inbound_nodes": [[["repeat_softmod_task_00_node_02_block_00", 0, 0, {}]]]}, {"name": "output_input_softmod_task_00_node_02_block_00", "class_name": "InputLayer", "config": {"batch_input_shape": [null, 7, 7, 24], "dtype": "float32", "sparse": false, "name": "output_input_softmod_task_00_node_02_block_00"}, "inbound_nodes": []}, {"name": "reshape_softmod_task_00_node_02_block_01", "class_name": "Reshape", "config": {"name": "reshape_softmod_task_00_node_02_block_01", "trainable": true, "target_shape": [7, 7, 24]}, "inbound_nodes": [[["repeat_softmod_task_00_node_02_block_01", 0, 0, {}]]]}, {"name": "output_input_softmod_task_00_node_02_block_01", "class_name": "InputLayer", "config": {"batch_input_shape": [null, 7, 7, 24], "dtype": "float32", "sparse": false, "name": "output_input_softmod_task_00_node_02_block_01"}, "inbound_nodes": []}, {"name": "mult_softmod_task_00_node_02_block_00", "class_name": "Multiply", "config": {"name": "mult_softmod_task_00_node_02_block_00", "trainable": true}, "inbound_nodes": [[["reshape_softmod_task_00_node_02_block_00", 0, 0, {}], ["output_input_softmod_task_00_node_02_block_00", 0, 0, {}]]]}, {"name": "mult_softmod_task_00_node_02_block_01", "class_name": "Multiply", "config": {"name": "mult_softmod_task_00_node_02_block_01", "trainable": true}, "inbound_nodes": [[["reshape_softmod_task_00_node_02_block_01", 0, 0, {}], ["output_input_softmod_task_00_node_02_block_01", 0, 0, {}]]]}, {"name": "add_softmod_task_00_node_02", "class_name": "Add", "config": {"name": "add_softmod_task_00_node_02", "trainable": true}, "inbound_nodes": [[["mult_softmod_task_00_node_02_block_00", 0, 0, {}], ["mult_softmod_task_00_node_02_block_01", 0, 0, {}]]]}], "input_layers": [["constant_input_softmod_task_00_node_02", 0, 0], ["output_input_softmod_task_00_node_02_block_00", 0, 0], ["output_input_softmod_task_00_node_02_block_01", 0, 0]], "output_layers": [["add_softmod_task_00_node_02", 0, 0]]}, "inbound_nodes": [[["constant_input", 0, 0, {}], ["model_5_module_13_1_3", 1, 0, {}], ["model_5_module_13_1", 1, 0, {}]]]}, {"name": "flattendec_task_00_term_00", "class_name": "Flatten", "config": {"name": "flattendec_task_00_term_00", "trainable": true, "data_format": "channels_last"}, "inbound_nodes": [[["model_softmod_task_00_node_02", 1, 0, {}]]]}, {"name": "densedec_task_00_term_00", "class_name": "Dense", "config": {"name": "densedec_task_00_term_00", "trainable": true, "units": 7, "activation": "softmax", "use_bias": true, "kernel_initializer": {"class_name": "VarianceScaling", "config": {"scale": 1.0, "mode": "fan_avg", "distribution": "uniform", "seed": null}}, "bias_initializer": {"class_name": "Zeros", "config": {}}, "kernel_regularizer": null, "bias_regularizer": null, "activity_regularizer": null, "kernel_constraint": null, "bias_constraint": null}, "inbound_nodes": [[["flattendec_task_00_term_00", 0, 0, {}]]]}], "input_layers": [["constant_input", 0, 0], ["input_task_00_term_00", 0, 0]], "output_layers": [["densedec_task_00_term_00", 0, 0]]}, "keras_version": "2.2.4", "backend": "tensorflow"}
&&&&&&&&&&&&&&&&&&&&&&&&&&&&&&&&&&&&&&&&&&&&&&&&&&&&&&&&&&&&&&&&&&&&&&&&&&&&&&&&&&&&&&&&&&&&&&&&&&&&&&&&&&&&&&&&&&&&&&&&&&&&&&&
global_hyperparameters {'id': '11', 'learning_rate': 0.00017941124770046206}
&&&&&&&&&&&&&&&&&&&&&&&&&&&&&&&&&&&&&&&&&&&&&&&&&&&&&&&&&&&&&&&&&&&&&&&&&&&&&&&&&&&&&&&&&&&&&&&&&&&&&&&&&&&&&&&&&&&&&&&&&&&&&&&
domain_config {'dummy_load': False, 'local_data_cachedir': '~/enn_datacache', 'data_basedir': '/home/ubuntu/Data_face/', 'send_data': True, 'verbose': False, 'gpu_mem_frac': None, 'stop_cond': {'min_improve_hist_length': 999, 'min_improvement': 0, 'timeout_seconds': 999999}, 'evaluator_class_name': 'faceAgeEvaluator', 'dummy_run': 'real', 'train_dataset': 'train', 'test_dataset': 'test', 'subsample': True, 'subsample_amount': 5, 'test_subsample': True, 'test_subsample_amount': 5, 'num_iterations_per_epoch': 1, 'upload_best_model': False, 'upload_trained_model': False, 'custom_train_seed': None, 'test_val_only': True, 'test_every_epoch': False, 'checkpoint_dir': '.', 'timestamp_chkpt_dir': False, 'load_checkpoint': False, 'num_epochs': 1, 'batch_size': 5, 'checkpoint_interval': None, 'persist_weights': False, 'shuffle_data': False, 'train_abs_num_epochs': False, 'extra_config': None, 'info': {'image_size': 224, 'num_channels': 3, 'num_classes': 7, 'multitask': False, 'num_tasks': 1, 'loss_function': 'categorical_crossentropy', 'augment': False, 'test_augment': None, 'lr_scale': 1.0, 'lr_floor': 0.0, 'lr_decay': 10, 'lr_decay_amount': 0.1, 'encoder': None, 'encoder_layer_name': None, 'encoder_output_size': None, 'encoder_weights': None, 'enable_alt_obj': False, 'dummy_fitness': False, 'unzip_curr_dir': False, 'train_subsample_tau': 0.6}, 'filename_dict': {'datafile': 'images_224_compressed.tar.gz', 'partition': 'py3_chex_partition14_unormalized_cleaned.pickle', 'labels': 'py3_chex_labels14_unormalized_cleaned.pickle'}}
all done, goodbye
Shutting down completion service...
Shutdown completion service with following signal: None

To reference this experiment again, make sure this is on the 
command line:
  --experiment_name=509868_CTStexttest_faceAge_test_config_201909171126

