…
std of individual evaluation time: 3.087
mean throughput: 0.034
Population evaluation time:  325.475
visualizing stats
Using SeeNN to draw candidate 51
$$$$$$$$$$$$$$$$$$$$$$$$$$$$$$$$$$$$$$$$$$$$$$$$$ core_model_output Tensor("model_1/densedec_task_00_term_00/Softmax:0", shape=(?, 339), dtype=float32)
__________________________________________________________________________________________________
Layer (type)                    Output Shape         Param #     Connected to                     
==================================================================================================
input_1 (InputLayer)            (None, 100)          0                                            
__________________________________________________________________________________________________
embedding_1 (Embedding)         (None, 100, 64)      9600000     input_1[0][0]                    
__________________________________________________________________________________________________
model_1 (Model)                 (None, 339)          130515      embedding_1[0][0]                
__________________________________________________________________________________________________
lambda_1 (Lambda)               (None, 12)           0           model_1[1][0]                    
__________________________________________________________________________________________________
lambda_2 (Lambda)               (None, 220)          0           model_1[1][0]                    
__________________________________________________________________________________________________
lambda_3 (Lambda)               (None, 107)          0           model_1[1][0]                    
__________________________________________________________________________________________________
activation_1 (Activation)       (None, 12)           0           lambda_1[0][0]                   
__________________________________________________________________________________________________
activation_2 (Activation)       (None, 220)          0           lambda_2[0][0]                   
__________________________________________________________________________________________________
activation_3 (Activation)       (None, 107)          0           lambda_3[0][0]                   
==================================================================================================
Total params: 9,730,515
Trainable params: 9,730,515
Non-trainable params: 0
__________________________________________________________________________________________________
TRAINING MODEL SUMMARY ...  None
__________________________________________________________________________________________________
Layer (type)                    Output Shape         Param #     Connected to                     
==================================================================================================
input_1 (InputLayer)            (None, 100)          0                                            
__________________________________________________________________________________________________
embedding_1 (Embedding)         (None, 100, 64)      9600000     input_1[0][0]                    
__________________________________________________________________________________________________
model_1 (Model)                 (None, 339)          130515      embedding_1[0][0]                
__________________________________________________________________________________________________
lambda_1 (Lambda)               (None, 12)           0           model_1[1][0]                    
__________________________________________________________________________________________________
lambda_2 (Lambda)               (None, 220)          0           model_1[1][0]                    
__________________________________________________________________________________________________
lambda_3 (Lambda)               (None, 107)          0           model_1[1][0]                    
__________________________________________________________________________________________________
activation_1 (Activation)       (None, 12)           0           lambda_1[0][0]                   
__________________________________________________________________________________________________
activation_2 (Activation)       (None, 220)          0           lambda_2[0][0]                   
__________________________________________________________________________________________________
activation_3 (Activation)       (None, 107)          0           lambda_3[0][0]                   
==================================================================================================
Total params: 9,730,515
Trainable params: 9,730,515
Non-trainable params: 0
__________________________________________________________________________________________________
$$$$$$$$$$$$$$$$$$$$$$$$$$$$$$$$$$$$$$$$$$$$$$$$$ training_model None
Using SeeNNBlueprint to draw candidate 51
…
std of individual evaluation time: 1.83
mean throughput: 0.032
Population evaluation time:  325.711
visualizing stats
Using SeeNN to draw candidate 71
$$$$$$$$$$$$$$$$$$$$$$$$$$$$$$$$$$$$$$$$$$$$$$$$$ core_model_output Tensor("model_1_3/densedec_task_00_term_00/Softmax:0", shape=(?, 339), dtype=float32)
__________________________________________________________________________________________________
Layer (type)                    Output Shape         Param #     Connected to                     
==================================================================================================
input_4 (InputLayer)            (None, 100)          0                                            
__________________________________________________________________________________________________
embedding_4 (Embedding)         (None, 100, 72)      10800000    input_4[0][0]                    
__________________________________________________________________________________________________
model_1 (Model)                 (None, 339)          157299      embedding_4[0][0]                
__________________________________________________________________________________________________
lambda_10 (Lambda)              (None, 12)           0           model_1[1][0]                    
__________________________________________________________________________________________________
lambda_11 (Lambda)              (None, 220)          0           model_1[1][0]                    
__________________________________________________________________________________________________
lambda_12 (Lambda)              (None, 107)          0           model_1[1][0]                    
__________________________________________________________________________________________________
activation_10 (Activation)      (None, 12)           0           lambda_10[0][0]                  
__________________________________________________________________________________________________
activation_11 (Activation)      (None, 220)          0           lambda_11[0][0]                  
__________________________________________________________________________________________________
activation_12 (Activation)      (None, 107)          0           lambda_12[0][0]                  
==================================================================================================
Total params: 10,957,299
Trainable params: 10,957,299
Non-trainable params: 0
__________________________________________________________________________________________________
TRAINING MODEL SUMMARY ...  None
__________________________________________________________________________________________________
Layer (type)                    Output Shape         Param #     Connected to                     
==================================================================================================
input_4 (InputLayer)            (None, 100)          0                                            
__________________________________________________________________________________________________
embedding_4 (Embedding)         (None, 100, 72)      10800000    input_4[0][0]                    
__________________________________________________________________________________________________
model_1 (Model)                 (None, 339)          157299      embedding_4[0][0]                
__________________________________________________________________________________________________
lambda_10 (Lambda)              (None, 12)           0           model_1[1][0]                    
__________________________________________________________________________________________________
lambda_11 (Lambda)              (None, 220)          0           model_1[1][0]                    
__________________________________________________________________________________________________
lambda_12 (Lambda)              (None, 107)          0           model_1[1][0]                    
__________________________________________________________________________________________________
activation_10 (Activation)      (None, 12)           0           lambda_10[0][0]                  
__________________________________________________________________________________________________
activation_11 (Activation)      (None, 220)          0           lambda_11[0][0]                  
__________________________________________________________________________________________________
activation_12 (Activation)      (None, 107)          0           lambda_12[0][0]                  
==================================================================================================
Total params: 10,957,299
Trainable params: 10,957,299
Non-trainable params: 0
__________________________________________________________________________________________________
$$$$$$$$$$$$$$$$$$$$$$$$$$$$$$$$$$$$$$$$$$$$$$$$$ training_model None
Using SeeNNBlueprint to draw candidate 71
…
